{"format": "graph-model", "generatedBy": "2.5.0", "convertedBy": "TensorFlow.js Converter v3.9.0", "signature": {"inputs": {"input_2": {"name": "input_2:0", "dtype": "DT_FLOAT", "tensorShape": {"dim": [{"size": "-1"}, {"size": "256"}, {"size": "256"}, {"size": "3"}]}}}, "outputs": {"conv2d_7": {"name": "Identity:0", "dtype": "DT_FLOAT", "tensorShape": {"dim": [{"size": "-1"}, {"size": "256"}, {"size": "256"}, {"size": "2"}]}}}}, "modelTopology": {"node": [{"name": "StatefulPartitionedCall/deeplabv3plus/lambda_12/Mean/reduction_indices", "op": "Const", "attr": {"value": {"tensor": {"dtype": "DT_INT32", "tensorShape": {}}}, "dtype": {"type": "DT_INT32"}}}, {"name": "StatefulPartitionedCall/deeplabv3plus/concatenate_11/concat/axis", "op": "Const", "attr": {"value": {"tensor": {"dtype": "DT_INT32", "tensorShape": {}}}, "dtype": {"type": "DT_INT32"}}}, {"name": "StatefulPartitionedCall/deeplabv3plus/global_average_pooling2d_3/Mean/reduction_indices", "op": "Const", "attr": {"value": {"tensor": {"dtype": "DT_INT32", "tensorShape": {"dim": [{"size": "2"}]}}}, "dtype": {"type": "DT_INT32"}}}, {"name": "StatefulPartitionedCall/deeplabv3plus/lambda_9/ExpandDims/dim", "op": "Const", "attr": {"value": {"tensor": {"dtype": "DT_INT32", "tensorShape": {}}}, "dtype": {"type": "DT_INT32"}}}, {"name": "StatefulPartitionedCall/deeplabv3plus/lambda_10/ExpandDims/dim", "op": "Const", "attr": {"value": {"tensor": {"dtype": "DT_INT32", "tensorShape": {}}}, "dtype": {"type": "DT_INT32"}}}, {"name": "StatefulPartitionedCall/deeplabv3plus/lambda_11/resize/size", "op": "Const", "attr": {"value": {"tensor": {"dtype": "DT_INT32", "tensorShape": {"dim": [{"size": "2"}]}}}, "dtype": {"type": "DT_INT32"}}}, {"name": "StatefulPartitionedCall/deeplabv3plus/expanded_conv_11/squeeze_excite/HardSigmoid/mul/y", "op": "Const", "attr": {"value": {"tensor": {"dtype": "DT_FLOAT", "tensorShape": {}}}, "dtype": {"type": "DT_FLOAT"}}}, {"name": "StatefulPartitionedCall/deeplabv3plus/expanded_conv_11/squeeze_excite/AvgPool/Mean/reduction_indices", "op": "Const", "attr": {"value": {"tensor": {"dtype": "DT_INT32", "tensorShape": {"dim": [{"size": "2"}]}}}, "dtype": {"type": "DT_INT32"}}}, {"name": "StatefulPartitionedCall/deeplabv3plus/reshape_13/strided_slice/stack", "op": "Const", "attr": {"value": {"tensor": {"dtype": "DT_INT32", "tensorShape": {"dim": [{"size": "1"}]}}}, "dtype": {"type": "DT_INT32"}}}, {"name": "StatefulPartitionedCall/deeplabv3plus/reshape_13/strided_slice/stack_1", "op": "Const", "attr": {"value": {"tensor": {"dtype": "DT_INT32", "tensorShape": {"dim": [{"size": "1"}]}}}, "dtype": {"type": "DT_INT32"}}}, {"name": "StatefulPartitionedCall/deeplabv3plus/reshape_13/strided_slice/stack_2", "op": "Const", "attr": {"value": {"tensor": {"dtype": "DT_INT32", "tensorShape": {"dim": [{"size": "1"}]}}}, "dtype": {"type": "DT_INT32"}}}, {"name": "StatefulPartitionedCall/deeplabv3plus/reshape_13/Reshape/shape/1", "op": "Const", "attr": {"value": {"tensor": {"dtype": "DT_INT32", "tensorShape": {}}}, "dtype": {"type": "DT_INT32"}}}, {"name": "StatefulPartitionedCall/deeplabv3plus/reshape_13/Reshape/shape/2", "op": "Const", "attr": {"value": {"tensor": {"dtype": "DT_INT32", "tensorShape": {}}}, "dtype": {"type": "DT_INT32"}}}, {"name": "StatefulPartitionedCall/deeplabv3plus/reshape_13/Reshape/shape/3", "op": "Const", "attr": {"value": {"tensor": {"dtype": "DT_INT32", "tensorShape": {}}}, "dtype": {"type": "DT_INT32"}}}, {"name": "StatefulPartitionedCall/deeplabv3plus/expanded_conv_11/squeeze_excite/Conv/Conv2D/ReadVariableOp", "op": "Const", "attr": {"value": {"tensor": {"dtype": "DT_FLOAT", "tensorShape": {"dim": [{"size": "1"}, {"size": "1"}, {"size": "672"}, {"size": "168"}]}}}, "dtype": {"type": "DT_FLOAT"}}}, {"name": "StatefulPartitionedCall/deeplabv3plus/expanded_conv_11/squeeze_excite/Conv/BiasAdd/ReadVariableOp", "op": "Const", "attr": {"value": {"tensor": {"dtype": "DT_FLOAT", "tensorShape": {"dim": [{"size": "168"}]}}}, "dtype": {"type": "DT_FLOAT"}}}, {"name": "StatefulPartitionedCall/deeplabv3plus/expanded_conv_11/squeeze_excite/Conv_1/Conv2D/ReadVariableOp", "op": "Const", "attr": {"value": {"tensor": {"dtype": "DT_FLOAT", "tensorShape": {"dim": [{"size": "1"}, {"size": "1"}, {"size": "168"}, {"size": "672"}]}}}, "dtype": {"type": "DT_FLOAT"}}}, {"name": "StatefulPartitionedCall/deeplabv3plus/expanded_conv_11/squeeze_excite/Conv_1/BiasAdd/ReadVariableOp", "op": "Const", "attr": {"value": {"tensor": {"dtype": "DT_FLOAT", "tensorShape": {"dim": [{"size": "672"}]}}}, "dtype": {"type": "DT_FLOAT"}}}, {"name": "StatefulPartitionedCall/deeplabv3plus/expanded_conv_11/squeeze_excite/HardSigmoid/add/y", "op": "Const", "attr": {"value": {"tensor": {"dtype": "DT_FLOAT", "tensorShape": {}}}, "dtype": {"type": "DT_FLOAT"}}}, {"name": "StatefulPartitionedCall/deeplabv3plus/expanded_conv_11/depthwise/HardSwish/hard_sigmoid_25/mul/y", "op": "Const", "attr": {"value": {"tensor": {"dtype": "DT_FLOAT", "tensorShape": {}}}, "dtype": {"type": "DT_FLOAT"}}}, {"name": "StatefulPartitionedCall/deeplabv3plus/expanded_conv_11/depthwise/HardSwish/hard_sigmoid_25/add/y", "op": "Const", "attr": {"value": {"tensor": {"dtype": "DT_FLOAT", "tensorShape": {}}}, "dtype": {"type": "DT_FLOAT"}}}, {"name": "StatefulPartitionedCall/deeplabv3plus/expanded_conv_11/expand/HardSwish/hard_sigmoid_24/mul/y", "op": "Const", "attr": {"value": {"tensor": {"dtype": "DT_FLOAT", "tensorShape": {}}}, "dtype": {"type": "DT_FLOAT"}}}, {"name": "StatefulPartitionedCall/deeplabv3plus/expanded_conv_11/expand/HardSwish/hard_sigmoid_24/add/y", "op": "Const", "attr": {"value": {"tensor": {"dtype": "DT_FLOAT", "tensorShape": {}}}, "dtype": {"type": "DT_FLOAT"}}}, {"name": "StatefulPartitionedCall/deeplabv3plus/expanded_conv_10/squeeze_excite/HardSigmoid/mul/y", "op": "Const", "attr": {"value": {"tensor": {"dtype": "DT_FLOAT", "tensorShape": {}}}, "dtype": {"type": "DT_FLOAT"}}}, {"name": "StatefulPartitionedCall/deeplabv3plus/expanded_conv_10/squeeze_excite/AvgPool/Mean/reduction_indices", "op": "Const", "attr": {"value": {"tensor": {"dtype": "DT_INT32", "tensorShape": {"dim": [{"size": "2"}]}}}, "dtype": {"type": "DT_INT32"}}}, {"name": "StatefulPartitionedCall/deeplabv3plus/reshape_12/strided_slice/stack", "op": "Const", "attr": {"value": {"tensor": {"dtype": "DT_INT32", "tensorShape": {"dim": [{"size": "1"}]}}}, "dtype": {"type": "DT_INT32"}}}, {"name": "StatefulPartitionedCall/deeplabv3plus/reshape_12/strided_slice/stack_1", "op": "Const", "attr": {"value": {"tensor": {"dtype": "DT_INT32", "tensorShape": {"dim": [{"size": "1"}]}}}, "dtype": {"type": "DT_INT32"}}}, {"name": "StatefulPartitionedCall/deeplabv3plus/reshape_12/strided_slice/stack_2", "op": "Const", "attr": {"value": {"tensor": {"dtype": "DT_INT32", "tensorShape": {"dim": [{"size": "1"}]}}}, "dtype": {"type": "DT_INT32"}}}, {"name": "StatefulPartitionedCall/deeplabv3plus/reshape_12/Reshape/shape/1", "op": "Const", "attr": {"value": {"tensor": {"dtype": "DT_INT32", "tensorShape": {}}}, "dtype": {"type": "DT_INT32"}}}, {"name": "StatefulPartitionedCall/deeplabv3plus/reshape_12/Reshape/shape/2", "op": "Const", "attr": {"value": {"tensor": {"dtype": "DT_INT32", "tensorShape": {}}}, "dtype": {"type": "DT_INT32"}}}, {"name": "StatefulPartitionedCall/deeplabv3plus/reshape_12/Reshape/shape/3", "op": "Const", "attr": {"value": {"tensor": {"dtype": "DT_INT32", "tensorShape": {}}}, "dtype": {"type": "DT_INT32"}}}, {"name": "StatefulPartitionedCall/deeplabv3plus/expanded_conv_10/squeeze_excite/Conv/Conv2D/ReadVariableOp", "op": "Const", "attr": {"value": {"tensor": {"dtype": "DT_FLOAT", "tensorShape": {"dim": [{"size": "1"}, {"size": "1"}, {"size": "480"}, {"size": "120"}]}}}, "dtype": {"type": "DT_FLOAT"}}}, {"name": "StatefulPartitionedCall/deeplabv3plus/expanded_conv_10/squeeze_excite/Conv/BiasAdd/ReadVariableOp", "op": "Const", "attr": {"value": {"tensor": {"dtype": "DT_FLOAT", "tensorShape": {"dim": [{"size": "120"}]}}}, "dtype": {"type": "DT_FLOAT"}}}, {"name": "StatefulPartitionedCall/deeplabv3plus/expanded_conv_10/squeeze_excite/Conv_1/Conv2D/ReadVariableOp", "op": "Const", "attr": {"value": {"tensor": {"dtype": "DT_FLOAT", "tensorShape": {"dim": [{"size": "1"}, {"size": "1"}, {"size": "120"}, {"size": "480"}]}}}, "dtype": {"type": "DT_FLOAT"}}}, {"name": "StatefulPartitionedCall/deeplabv3plus/expanded_conv_10/squeeze_excite/Conv_1/BiasAdd/ReadVariableOp", "op": "Const", "attr": {"value": {"tensor": {"dtype": "DT_FLOAT", "tensorShape": {"dim": [{"size": "480"}]}}}, "dtype": {"type": "DT_FLOAT"}}}, {"name": "StatefulPartitionedCall/deeplabv3plus/expanded_conv_10/squeeze_excite/HardSigmoid/add/y", "op": "Const", "attr": {"value": {"tensor": {"dtype": "DT_FLOAT", "tensorShape": {}}}, "dtype": {"type": "DT_FLOAT"}}}, {"name": "StatefulPartitionedCall/deeplabv3plus/expanded_conv_10/depthwise/HardSwish/hard_sigmoid_23/mul/y", "op": "Const", "attr": {"value": {"tensor": {"dtype": "DT_FLOAT", "tensorShape": {}}}, "dtype": {"type": "DT_FLOAT"}}}, {"name": "StatefulPartitionedCall/deeplabv3plus/expanded_conv_10/depthwise/HardSwish/hard_sigmoid_23/add/y", "op": "Const", "attr": {"value": {"tensor": {"dtype": "DT_FLOAT", "tensorShape": {}}}, "dtype": {"type": "DT_FLOAT"}}}, {"name": "StatefulPartitionedCall/deeplabv3plus/expanded_conv_10/expand/HardSwish/hard_sigmoid_22/mul/y", "op": "Const", "attr": {"value": {"tensor": {"dtype": "DT_FLOAT", "tensorShape": {}}}, "dtype": {"type": "DT_FLOAT"}}}, {"name": "StatefulPartitionedCall/deeplabv3plus/expanded_conv_10/expand/HardSwish/hard_sigmoid_22/add/y", "op": "Const", "attr": {"value": {"tensor": {"dtype": "DT_FLOAT", "tensorShape": {}}}, "dtype": {"type": "DT_FLOAT"}}}, {"name": "StatefulPartitionedCall/deeplabv3plus/expanded_conv_9/depthwise/HardSwish/hard_sigmoid_21/mul/y", "op": "Const", "attr": {"value": {"tensor": {"dtype": "DT_FLOAT", "tensorShape": {}}}, "dtype": {"type": "DT_FLOAT"}}}, {"name": "StatefulPartitionedCall/deeplabv3plus/expanded_conv_9/depthwise/HardSwish/hard_sigmoid_21/add/y", "op": "Const", "attr": {"value": {"tensor": {"dtype": "DT_FLOAT", "tensorShape": {}}}, "dtype": {"type": "DT_FLOAT"}}}, {"name": "StatefulPartitionedCall/deeplabv3plus/expanded_conv_9/expand/HardSwish/hard_sigmoid_20/mul/y", "op": "Const", "attr": {"value": {"tensor": {"dtype": "DT_FLOAT", "tensorShape": {}}}, "dtype": {"type": "DT_FLOAT"}}}, {"name": "StatefulPartitionedCall/deeplabv3plus/expanded_conv_9/expand/HardSwish/hard_sigmoid_20/add/y", "op": "Const", "attr": {"value": {"tensor": {"dtype": "DT_FLOAT", "tensorShape": {}}}, "dtype": {"type": "DT_FLOAT"}}}, {"name": "StatefulPartitionedCall/deeplabv3plus/expanded_conv_8/depthwise/HardSwish/hard_sigmoid_19/mul/y", "op": "Const", "attr": {"value": {"tensor": {"dtype": "DT_FLOAT", "tensorShape": {}}}, "dtype": {"type": "DT_FLOAT"}}}, {"name": "StatefulPartitionedCall/deeplabv3plus/expanded_conv_8/depthwise/HardSwish/hard_sigmoid_19/add/y", "op": "Const", "attr": {"value": {"tensor": {"dtype": "DT_FLOAT", "tensorShape": {}}}, "dtype": {"type": "DT_FLOAT"}}}, {"name": "StatefulPartitionedCall/deeplabv3plus/expanded_conv_8/expand/HardSwish/hard_sigmoid_18/mul/y", "op": "Const", "attr": {"value": {"tensor": {"dtype": "DT_FLOAT", "tensorShape": {}}}, "dtype": {"type": "DT_FLOAT"}}}, {"name": "StatefulPartitionedCall/deeplabv3plus/expanded_conv_8/expand/HardSwish/hard_sigmoid_18/add/y", "op": "Const", "attr": {"value": {"tensor": {"dtype": "DT_FLOAT", "tensorShape": {}}}, "dtype": {"type": "DT_FLOAT"}}}, {"name": "StatefulPartitionedCall/deeplabv3plus/expanded_conv_7/depthwise/HardSwish/hard_sigmoid_17/mul/y", "op": "Const", "attr": {"value": {"tensor": {"dtype": "DT_FLOAT", "tensorShape": {}}}, "dtype": {"type": "DT_FLOAT"}}}, {"name": "StatefulPartitionedCall/deeplabv3plus/expanded_conv_7/depthwise/HardSwish/hard_sigmoid_17/add/y", "op": "Const", "attr": {"value": {"tensor": {"dtype": "DT_FLOAT", "tensorShape": {}}}, "dtype": {"type": "DT_FLOAT"}}}, {"name": "StatefulPartitionedCall/deeplabv3plus/expanded_conv_7/expand/HardSwish/hard_sigmoid_16/mul/y", "op": "Const", "attr": {"value": {"tensor": {"dtype": "DT_FLOAT", "tensorShape": {}}}, "dtype": {"type": "DT_FLOAT"}}}, {"name": "StatefulPartitionedCall/deeplabv3plus/expanded_conv_7/expand/HardSwish/hard_sigmoid_16/add/y", "op": "Const", "attr": {"value": {"tensor": {"dtype": "DT_FLOAT", "tensorShape": {}}}, "dtype": {"type": "DT_FLOAT"}}}, {"name": "StatefulPartitionedCall/deeplabv3plus/expanded_conv_6/depthwise/HardSwish/hard_sigmoid_15/mul/y", "op": "Const", "attr": {"value": {"tensor": {"dtype": "DT_FLOAT", "tensorShape": {}}}, "dtype": {"type": "DT_FLOAT"}}}, {"name": "StatefulPartitionedCall/deeplabv3plus/expanded_conv_6/depthwise/HardSwish/hard_sigmoid_15/add/y", "op": "Const", "attr": {"value": {"tensor": {"dtype": "DT_FLOAT", "tensorShape": {}}}, "dtype": {"type": "DT_FLOAT"}}}, {"name": "StatefulPartitionedCall/deeplabv3plus/expanded_conv_6/expand/HardSwish/hard_sigmoid_14/mul/y", "op": "Const", "attr": {"value": {"tensor": {"dtype": "DT_FLOAT", "tensorShape": {}}}, "dtype": {"type": "DT_FLOAT"}}}, {"name": "StatefulPartitionedCall/deeplabv3plus/expanded_conv_6/expand/HardSwish/hard_sigmoid_14/add/y", "op": "Const", "attr": {"value": {"tensor": {"dtype": "DT_FLOAT", "tensorShape": {}}}, "dtype": {"type": "DT_FLOAT"}}}, {"name": "StatefulPartitionedCall/deeplabv3plus/expanded_conv_5/squeeze_excite/HardSigmoid/mul/y", "op": "Const", "attr": {"value": {"tensor": {"dtype": "DT_FLOAT", "tensorShape": {}}}, "dtype": {"type": "DT_FLOAT"}}}, {"name": "StatefulPartitionedCall/deeplabv3plus/expanded_conv_5/squeeze_excite/AvgPool/Mean/reduction_indices", "op": "Const", "attr": {"value": {"tensor": {"dtype": "DT_INT32", "tensorShape": {"dim": [{"size": "2"}]}}}, "dtype": {"type": "DT_INT32"}}}, {"name": "StatefulPartitionedCall/deeplabv3plus/reshape_11/strided_slice/stack", "op": "Const", "attr": {"value": {"tensor": {"dtype": "DT_INT32", "tensorShape": {"dim": [{"size": "1"}]}}}, "dtype": {"type": "DT_INT32"}}}, {"name": "StatefulPartitionedCall/deeplabv3plus/reshape_11/strided_slice/stack_1", "op": "Const", "attr": {"value": {"tensor": {"dtype": "DT_INT32", "tensorShape": {"dim": [{"size": "1"}]}}}, "dtype": {"type": "DT_INT32"}}}, {"name": "StatefulPartitionedCall/deeplabv3plus/reshape_11/strided_slice/stack_2", "op": "Const", "attr": {"value": {"tensor": {"dtype": "DT_INT32", "tensorShape": {"dim": [{"size": "1"}]}}}, "dtype": {"type": "DT_INT32"}}}, {"name": "StatefulPartitionedCall/deeplabv3plus/reshape_11/Reshape/shape/1", "op": "Const", "attr": {"value": {"tensor": {"dtype": "DT_INT32", "tensorShape": {}}}, "dtype": {"type": "DT_INT32"}}}, {"name": "StatefulPartitionedCall/deeplabv3plus/reshape_11/Reshape/shape/2", "op": "Const", "attr": {"value": {"tensor": {"dtype": "DT_INT32", "tensorShape": {}}}, "dtype": {"type": "DT_INT32"}}}, {"name": "StatefulPartitionedCall/deeplabv3plus/reshape_11/Reshape/shape/3", "op": "Const", "attr": {"value": {"tensor": {"dtype": "DT_INT32", "tensorShape": {}}}, "dtype": {"type": "DT_INT32"}}}, {"name": "StatefulPartitionedCall/deeplabv3plus/expanded_conv_5/squeeze_excite/Conv/Conv2D/ReadVariableOp", "op": "Const", "attr": {"value": {"tensor": {"dtype": "DT_FLOAT", "tensorShape": {"dim": [{"size": "1"}, {"size": "1"}, {"size": "120"}, {"size": "32"}]}}}, "dtype": {"type": "DT_FLOAT"}}}, {"name": "StatefulPartitionedCall/deeplabv3plus/expanded_conv_5/squeeze_excite/Conv/BiasAdd/ReadVariableOp", "op": "Const", "attr": {"value": {"tensor": {"dtype": "DT_FLOAT", "tensorShape": {"dim": [{"size": "32"}]}}}, "dtype": {"type": "DT_FLOAT"}}}, {"name": "StatefulPartitionedCall/deeplabv3plus/expanded_conv_5/squeeze_excite/Conv_1/Conv2D/ReadVariableOp", "op": "Const", "attr": {"value": {"tensor": {"dtype": "DT_FLOAT", "tensorShape": {"dim": [{"size": "1"}, {"size": "1"}, {"size": "32"}, {"size": "120"}]}}}, "dtype": {"type": "DT_FLOAT"}}}, {"name": "StatefulPartitionedCall/deeplabv3plus/expanded_conv_5/squeeze_excite/Conv_1/BiasAdd/ReadVariableOp", "op": "Const", "attr": {"value": {"tensor": {"dtype": "DT_FLOAT", "tensorShape": {"dim": [{"size": "120"}]}}}, "dtype": {"type": "DT_FLOAT"}}}, {"name": "StatefulPartitionedCall/deeplabv3plus/expanded_conv_5/squeeze_excite/HardSigmoid/add/y", "op": "Const", "attr": {"value": {"tensor": {"dtype": "DT_FLOAT", "tensorShape": {}}}, "dtype": {"type": "DT_FLOAT"}}}, {"name": "StatefulPartitionedCall/deeplabv3plus/expanded_conv_4/squeeze_excite/HardSigmoid/mul/y", "op": "Const", "attr": {"value": {"tensor": {"dtype": "DT_FLOAT", "tensorShape": {}}}, "dtype": {"type": "DT_FLOAT"}}}, {"name": "StatefulPartitionedCall/deeplabv3plus/expanded_conv_4/squeeze_excite/AvgPool/Mean/reduction_indices", "op": "Const", "attr": {"value": {"tensor": {"dtype": "DT_INT32", "tensorShape": {"dim": [{"size": "2"}]}}}, "dtype": {"type": "DT_INT32"}}}, {"name": "StatefulPartitionedCall/deeplabv3plus/reshape_10/strided_slice/stack", "op": "Const", "attr": {"value": {"tensor": {"dtype": "DT_INT32", "tensorShape": {"dim": [{"size": "1"}]}}}, "dtype": {"type": "DT_INT32"}}}, {"name": "StatefulPartitionedCall/deeplabv3plus/reshape_10/strided_slice/stack_1", "op": "Const", "attr": {"value": {"tensor": {"dtype": "DT_INT32", "tensorShape": {"dim": [{"size": "1"}]}}}, "dtype": {"type": "DT_INT32"}}}, {"name": "StatefulPartitionedCall/deeplabv3plus/reshape_10/strided_slice/stack_2", "op": "Const", "attr": {"value": {"tensor": {"dtype": "DT_INT32", "tensorShape": {"dim": [{"size": "1"}]}}}, "dtype": {"type": "DT_INT32"}}}, {"name": "StatefulPartitionedCall/deeplabv3plus/reshape_10/Reshape/shape/1", "op": "Const", "attr": {"value": {"tensor": {"dtype": "DT_INT32", "tensorShape": {}}}, "dtype": {"type": "DT_INT32"}}}, {"name": "StatefulPartitionedCall/deeplabv3plus/reshape_10/Reshape/shape/2", "op": "Const", "attr": {"value": {"tensor": {"dtype": "DT_INT32", "tensorShape": {}}}, "dtype": {"type": "DT_INT32"}}}, {"name": "StatefulPartitionedCall/deeplabv3plus/reshape_10/Reshape/shape/3", "op": "Const", "attr": {"value": {"tensor": {"dtype": "DT_INT32", "tensorShape": {}}}, "dtype": {"type": "DT_INT32"}}}, {"name": "StatefulPartitionedCall/deeplabv3plus/expanded_conv_4/squeeze_excite/Conv/Conv2D/ReadVariableOp", "op": "Const", "attr": {"value": {"tensor": {"dtype": "DT_FLOAT", "tensorShape": {"dim": [{"size": "1"}, {"size": "1"}, {"size": "120"}, {"size": "32"}]}}}, "dtype": {"type": "DT_FLOAT"}}}, {"name": "StatefulPartitionedCall/deeplabv3plus/expanded_conv_4/squeeze_excite/Conv/BiasAdd/ReadVariableOp", "op": "Const", "attr": {"value": {"tensor": {"dtype": "DT_FLOAT", "tensorShape": {"dim": [{"size": "32"}]}}}, "dtype": {"type": "DT_FLOAT"}}}, {"name": "StatefulPartitionedCall/deeplabv3plus/expanded_conv_4/squeeze_excite/Conv_1/Conv2D/ReadVariableOp", "op": "Const", "attr": {"value": {"tensor": {"dtype": "DT_FLOAT", "tensorShape": {"dim": [{"size": "1"}, {"size": "1"}, {"size": "32"}, {"size": "120"}]}}}, "dtype": {"type": "DT_FLOAT"}}}, {"name": "StatefulPartitionedCall/deeplabv3plus/expanded_conv_4/squeeze_excite/Conv_1/BiasAdd/ReadVariableOp", "op": "Const", "attr": {"value": {"tensor": {"dtype": "DT_FLOAT", "tensorShape": {"dim": [{"size": "120"}]}}}, "dtype": {"type": "DT_FLOAT"}}}, {"name": "StatefulPartitionedCall/deeplabv3plus/expanded_conv_4/squeeze_excite/HardSigmoid/add/y", "op": "Const", "attr": {"value": {"tensor": {"dtype": "DT_FLOAT", "tensorShape": {}}}, "dtype": {"type": "DT_FLOAT"}}}, {"name": "StatefulPartitionedCall/deeplabv3plus/expanded_conv_3/squeeze_excite/HardSigmoid/mul/y", "op": "Const", "attr": {"value": {"tensor": {"dtype": "DT_FLOAT", "tensorShape": {}}}, "dtype": {"type": "DT_FLOAT"}}}, {"name": "StatefulPartitionedCall/deeplabv3plus/expanded_conv_3/squeeze_excite/AvgPool/Mean/reduction_indices", "op": "Const", "attr": {"value": {"tensor": {"dtype": "DT_INT32", "tensorShape": {"dim": [{"size": "2"}]}}}, "dtype": {"type": "DT_INT32"}}}, {"name": "StatefulPartitionedCall/deeplabv3plus/reshape_9/strided_slice/stack", "op": "Const", "attr": {"value": {"tensor": {"dtype": "DT_INT32", "tensorShape": {"dim": [{"size": "1"}]}}}, "dtype": {"type": "DT_INT32"}}}, {"name": "StatefulPartitionedCall/deeplabv3plus/reshape_9/strided_slice/stack_1", "op": "Const", "attr": {"value": {"tensor": {"dtype": "DT_INT32", "tensorShape": {"dim": [{"size": "1"}]}}}, "dtype": {"type": "DT_INT32"}}}, {"name": "StatefulPartitionedCall/deeplabv3plus/reshape_9/strided_slice/stack_2", "op": "Const", "attr": {"value": {"tensor": {"dtype": "DT_INT32", "tensorShape": {"dim": [{"size": "1"}]}}}, "dtype": {"type": "DT_INT32"}}}, {"name": "StatefulPartitionedCall/deeplabv3plus/reshape_9/Reshape/shape/1", "op": "Const", "attr": {"value": {"tensor": {"dtype": "DT_INT32", "tensorShape": {}}}, "dtype": {"type": "DT_INT32"}}}, {"name": "StatefulPartitionedCall/deeplabv3plus/reshape_9/Reshape/shape/2", "op": "Const", "attr": {"value": {"tensor": {"dtype": "DT_INT32", "tensorShape": {}}}, "dtype": {"type": "DT_INT32"}}}, {"name": "StatefulPartitionedCall/deeplabv3plus/reshape_9/Reshape/shape/3", "op": "Const", "attr": {"value": {"tensor": {"dtype": "DT_INT32", "tensorShape": {}}}, "dtype": {"type": "DT_INT32"}}}, {"name": "StatefulPartitionedCall/deeplabv3plus/expanded_conv_3/squeeze_excite/Conv/Conv2D/ReadVariableOp", "op": "Const", "attr": {"value": {"tensor": {"dtype": "DT_FLOAT", "tensorShape": {"dim": [{"size": "1"}, {"size": "1"}, {"size": "72"}, {"size": "24"}]}}}, "dtype": {"type": "DT_FLOAT"}}}, {"name": "StatefulPartitionedCall/deeplabv3plus/expanded_conv_3/squeeze_excite/Conv/BiasAdd/ReadVariableOp", "op": "Const", "attr": {"value": {"tensor": {"dtype": "DT_FLOAT", "tensorShape": {"dim": [{"size": "24"}]}}}, "dtype": {"type": "DT_FLOAT"}}}, {"name": "StatefulPartitionedCall/deeplabv3plus/expanded_conv_3/squeeze_excite/Conv_1/Conv2D/ReadVariableOp", "op": "Const", "attr": {"value": {"tensor": {"dtype": "DT_FLOAT", "tensorShape": {"dim": [{"size": "1"}, {"size": "1"}, {"size": "24"}, {"size": "72"}]}}}, "dtype": {"type": "DT_FLOAT"}}}, {"name": "StatefulPartitionedCall/deeplabv3plus/expanded_conv_3/squeeze_excite/Conv_1/BiasAdd/ReadVariableOp", "op": "Const", "attr": {"value": {"tensor": {"dtype": "DT_FLOAT", "tensorShape": {"dim": [{"size": "72"}]}}}, "dtype": {"type": "DT_FLOAT"}}}, {"name": "StatefulPartitionedCall/deeplabv3plus/expanded_conv_3/squeeze_excite/HardSigmoid/add/y", "op": "Const", "attr": {"value": {"tensor": {"dtype": "DT_FLOAT", "tensorShape": {}}}, "dtype": {"type": "DT_FLOAT"}}}, {"name": "StatefulPartitionedCall/deeplabv3plus/expanded_conv_3/depthwise/pad/Pad/paddings", "op": "Const", "attr": {"value": {"tensor": {"dtype": "DT_INT32", "tensorShape": {"dim": [{"size": "4"}, {"size": "2"}]}}}, "dtype": {"type": "DT_INT32"}}}, {"name": "StatefulPartitionedCall/deeplabv3plus/expanded_conv_6/depthwise/pad/Pad/paddings", "op": "Const", "attr": {"value": {"tensor": {"dtype": "DT_INT32", "tensorShape": {"dim": [{"size": "4"}, {"size": "2"}]}}}, "dtype": {"type": "DT_INT32"}}}, {"name": "StatefulPartitionedCall/deeplabv3plus/expanded_conv_10/depthwise/depthwise/SpaceToBatchND/block_shape", "op": "Const", "attr": {"value": {"tensor": {"dtype": "DT_INT32", "tensorShape": {"dim": [{"size": "2"}]}}}, "dtype": {"type": "DT_INT32"}}}, {"name": "StatefulPartitionedCall/deeplabv3plus/expanded_conv_10/depthwise/depthwise/SpaceToBatchND/paddings", "op": "Const", "attr": {"value": {"tensor": {"dtype": "DT_INT32", "tensorShape": {"dim": [{"size": "2"}, {"size": "2"}]}}}, "dtype": {"type": "DT_INT32"}}}, {"name": "StatefulPartitionedCall/deeplabv3plus/expanded_conv_10/depthwise/depthwise/ReadVariableOp", "op": "Const", "attr": {"value": {"tensor": {"dtype": "DT_FLOAT", "tensorShape": {"dim": [{"size": "3"}, {"size": "3"}, {"size": "480"}, {"size": "1"}]}}}, "dtype": {"type": "DT_FLOAT"}}}, {"name": "StatefulPartitionedCall/deeplabv3plus/expanded_conv_10/depthwise/depthwise/BatchToSpaceND/block_shape", "op": "Const", "attr": {"value": {"tensor": {"dtype": "DT_INT32", "tensorShape": {"dim": [{"size": "2"}]}}}, "dtype": {"type": "DT_INT32"}}}, {"name": "StatefulPartitionedCall/deeplabv3plus/expanded_conv_10/depthwise/depthwise/BatchToSpaceND/crops", "op": "Const", "attr": {"value": {"tensor": {"dtype": "DT_INT32", "tensorShape": {"dim": [{"size": "2"}, {"size": "2"}]}}}, "dtype": {"type": "DT_INT32"}}}, {"name": "StatefulPartitionedCall/deeplabv3plus/expanded_conv_11/depthwise/depthwise/SpaceToBatchND/block_shape", "op": "Const", "attr": {"value": {"tensor": {"dtype": "DT_INT32", "tensorShape": {"dim": [{"size": "2"}]}}}, "dtype": {"type": "DT_INT32"}}}, {"name": "StatefulPartitionedCall/deeplabv3plus/expanded_conv_11/depthwise/depthwise/SpaceToBatchND/paddings", "op": "Const", "attr": {"value": {"tensor": {"dtype": "DT_INT32", "tensorShape": {"dim": [{"size": "2"}, {"size": "2"}]}}}, "dtype": {"type": "DT_INT32"}}}, {"name": "StatefulPartitionedCall/deeplabv3plus/expanded_conv_11/depthwise/depthwise/ReadVariableOp", "op": "Const", "attr": {"value": {"tensor": {"dtype": "DT_FLOAT", "tensorShape": {"dim": [{"size": "3"}, {"size": "3"}, {"size": "672"}, {"size": "1"}]}}}, "dtype": {"type": "DT_FLOAT"}}}, {"name": "StatefulPartitionedCall/deeplabv3plus/expanded_conv_11/depthwise/depthwise/BatchToSpaceND/block_shape", "op": "Const", "attr": {"value": {"tensor": {"dtype": "DT_INT32", "tensorShape": {"dim": [{"size": "2"}]}}}, "dtype": {"type": "DT_INT32"}}}, {"name": "StatefulPartitionedCall/deeplabv3plus/expanded_conv_11/depthwise/depthwise/BatchToSpaceND/crops", "op": "Const", "attr": {"value": {"tensor": {"dtype": "DT_INT32", "tensorShape": {"dim": [{"size": "2"}, {"size": "2"}]}}}, "dtype": {"type": "DT_INT32"}}}, {"name": "StatefulPartitionedCall/deeplabv3plus/concatenate_8/concat/axis", "op": "Const", "attr": {"value": {"tensor": {"dtype": "DT_INT32", "tensorShape": {}}}, "dtype": {"type": "DT_INT32"}}}, {"name": "StatefulPartitionedCall/deeplabv3plus/aspp1_depthwise/depthwise/SpaceToBatchND/block_shape", "op": "Const", "attr": {"value": {"tensor": {"dtype": "DT_INT32", "tensorShape": {"dim": [{"size": "2"}]}}}, "dtype": {"type": "DT_INT32"}}}, {"name": "StatefulPartitionedCall/deeplabv3plus/aspp1_depthwise/depthwise/SpaceToBatchND/paddings", "op": "Const", "attr": {"value": {"tensor": {"dtype": "DT_INT32", "tensorShape": {"dim": [{"size": "2"}, {"size": "2"}]}}}, "dtype": {"type": "DT_INT32"}}}, {"name": "StatefulPartitionedCall/deeplabv3plus/aspp1_depthwise/depthwise/ReadVariableOp", "op": "Const", "attr": {"value": {"tensor": {"dtype": "DT_FLOAT", "tensorShape": {"dim": [{"size": "3"}, {"size": "3"}, {"size": "368"}, {"size": "1"}]}}}, "dtype": {"type": "DT_FLOAT"}}}, {"name": "StatefulPartitionedCall/deeplabv3plus/aspp1_depthwise/depthwise/BatchToSpaceND/block_shape", "op": "Const", "attr": {"value": {"tensor": {"dtype": "DT_INT32", "tensorShape": {"dim": [{"size": "2"}]}}}, "dtype": {"type": "DT_INT32"}}}, {"name": "StatefulPartitionedCall/deeplabv3plus/aspp1_depthwise/depthwise/BatchToSpaceND/crops", "op": "Const", "attr": {"value": {"tensor": {"dtype": "DT_INT32", "tensorShape": {"dim": [{"size": "2"}, {"size": "2"}]}}}, "dtype": {"type": "DT_INT32"}}}, {"name": "StatefulPartitionedCall/deeplabv3plus/concatenate_9/concat/axis", "op": "Const", "attr": {"value": {"tensor": {"dtype": "DT_INT32", "tensorShape": {}}}, "dtype": {"type": "DT_INT32"}}}, {"name": "StatefulPartitionedCall/deeplabv3plus/aspp2_depthwise/depthwise/SpaceToBatchND/block_shape", "op": "Const", "attr": {"value": {"tensor": {"dtype": "DT_INT32", "tensorShape": {"dim": [{"size": "2"}]}}}, "dtype": {"type": "DT_INT32"}}}, {"name": "StatefulPartitionedCall/deeplabv3plus/aspp2_depthwise/depthwise/SpaceToBatchND/paddings", "op": "Const", "attr": {"value": {"tensor": {"dtype": "DT_INT32", "tensorShape": {"dim": [{"size": "2"}, {"size": "2"}]}}}, "dtype": {"type": "DT_INT32"}}}, {"name": "StatefulPartitionedCall/deeplabv3plus/aspp2_depthwise/depthwise/ReadVariableOp", "op": "Const", "attr": {"value": {"tensor": {"dtype": "DT_FLOAT", "tensorShape": {"dim": [{"size": "3"}, {"size": "3"}, {"size": "624"}, {"size": "1"}]}}}, "dtype": {"type": "DT_FLOAT"}}}, {"name": "StatefulPartitionedCall/deeplabv3plus/aspp2_depthwise/depthwise/BatchToSpaceND/block_shape", "op": "Const", "attr": {"value": {"tensor": {"dtype": "DT_INT32", "tensorShape": {"dim": [{"size": "2"}]}}}, "dtype": {"type": "DT_INT32"}}}, {"name": "StatefulPartitionedCall/deeplabv3plus/aspp2_depthwise/depthwise/BatchToSpaceND/crops", "op": "Const", "attr": {"value": {"tensor": {"dtype": "DT_INT32", "tensorShape": {"dim": [{"size": "2"}, {"size": "2"}]}}}, "dtype": {"type": "DT_INT32"}}}, {"name": "StatefulPartitionedCall/deeplabv3plus/concatenate_10/concat/axis", "op": "Const", "attr": {"value": {"tensor": {"dtype": "DT_INT32", "tensorShape": {}}}, "dtype": {"type": "DT_INT32"}}}, {"name": "StatefulPartitionedCall/deeplabv3plus/aspp3_depthwise/depthwise/SpaceToBatchND/block_shape", "op": "Const", "attr": {"value": {"tensor": {"dtype": "DT_INT32", "tensorShape": {"dim": [{"size": "2"}]}}}, "dtype": {"type": "DT_INT32"}}}, {"name": "StatefulPartitionedCall/deeplabv3plus/aspp3_depthwise/depthwise/SpaceToBatchND/paddings", "op": "Const", "attr": {"value": {"tensor": {"dtype": "DT_INT32", "tensorShape": {"dim": [{"size": "2"}, {"size": "2"}]}}}, "dtype": {"type": "DT_INT32"}}}, {"name": "StatefulPartitionedCall/deeplabv3plus/aspp3_depthwise/depthwise/ReadVariableOp", "op": "Const", "attr": {"value": {"tensor": {"dtype": "DT_FLOAT", "tensorShape": {"dim": [{"size": "3"}, {"size": "3"}, {"size": "880"}, {"size": "1"}]}}}, "dtype": {"type": "DT_FLOAT"}}}, {"name": "StatefulPartitionedCall/deeplabv3plus/aspp3_depthwise/depthwise/BatchToSpaceND/block_shape", "op": "Const", "attr": {"value": {"tensor": {"dtype": "DT_INT32", "tensorShape": {"dim": [{"size": "2"}]}}}, "dtype": {"type": "DT_INT32"}}}, {"name": "StatefulPartitionedCall/deeplabv3plus/aspp3_depthwise/depthwise/BatchToSpaceND/crops", "op": "Const", "attr": {"value": {"tensor": {"dtype": "DT_INT32", "tensorShape": {"dim": [{"size": "2"}, {"size": "2"}]}}}, "dtype": {"type": "DT_INT32"}}}, {"name": "StatefulPartitionedCall/deeplabv3plus/concatenate_12/concat/axis", "op": "Const", "attr": {"value": {"tensor": {"dtype": "DT_INT32", "tensorShape": {}}}, "dtype": {"type": "DT_INT32"}}}, {"name": "StatefulPartitionedCall/deeplabv3plus/concat_projection/Conv2D/ReadVariableOp", "op": "Const", "attr": {"value": {"tensor": {"dtype": "DT_FLOAT", "tensorShape": {"dim": [{"size": "1"}, {"size": "1"}, {"size": "1280"}, {"size": "256"}]}}}, "dtype": {"type": "DT_FLOAT"}}}, {"name": "StatefulPartitionedCall/deeplabv3plus/global_average_pooling2d_4/Mean/reduction_indices", "op": "Const", "attr": {"value": {"tensor": {"dtype": "DT_INT32", "tensorShape": {"dim": [{"size": "2"}]}}}, "dtype": {"type": "DT_INT32"}}}, {"name": "StatefulPartitionedCall/deeplabv3plus/reshape_14/strided_slice/stack", "op": "Const", "attr": {"value": {"tensor": {"dtype": "DT_INT32", "tensorShape": {"dim": [{"size": "1"}]}}}, "dtype": {"type": "DT_INT32"}}}, {"name": "StatefulPartitionedCall/deeplabv3plus/reshape_14/strided_slice/stack_1", "op": "Const", "attr": {"value": {"tensor": {"dtype": "DT_INT32", "tensorShape": {"dim": [{"size": "1"}]}}}, "dtype": {"type": "DT_INT32"}}}, {"name": "StatefulPartitionedCall/deeplabv3plus/reshape_14/strided_slice/stack_2", "op": "Const", "attr": {"value": {"tensor": {"dtype": "DT_INT32", "tensorShape": {"dim": [{"size": "1"}]}}}, "dtype": {"type": "DT_INT32"}}}, {"name": "StatefulPartitionedCall/deeplabv3plus/reshape_14/Reshape/shape/1", "op": "Const", "attr": {"value": {"tensor": {"dtype": "DT_INT32", "tensorShape": {}}}, "dtype": {"type": "DT_INT32"}}}, {"name": "StatefulPartitionedCall/deeplabv3plus/reshape_14/Reshape/shape/2", "op": "Const", "attr": {"value": {"tensor": {"dtype": "DT_INT32", "tensorShape": {}}}, "dtype": {"type": "DT_INT32"}}}, {"name": "StatefulPartitionedCall/deeplabv3plus/conv1d_2/conv1d/ExpandDims/dim", "op": "Const", "attr": {"value": {"tensor": {"dtype": "DT_INT32", "tensorShape": {}}}, "dtype": {"type": "DT_INT32"}}}, {"name": "StatefulPartitionedCall/deeplabv3plus/conv1d_2/conv1d/ExpandDims_1", "op": "Const", "attr": {"value": {"tensor": {"dtype": "DT_FLOAT", "tensorShape": {"dim": [{"size": "1"}, {"size": "5"}, {"size": "1"}, {"size": "1"}]}}}, "dtype": {"type": "DT_FLOAT"}}}, {"name": "StatefulPartitionedCall/deeplabv3plus/reshape_15/strided_slice/stack", "op": "Const", "attr": {"value": {"tensor": {"dtype": "DT_INT32", "tensorShape": {"dim": [{"size": "1"}]}}}, "dtype": {"type": "DT_INT32"}}}, {"name": "StatefulPartitionedCall/deeplabv3plus/reshape_15/strided_slice/stack_1", "op": "Const", "attr": {"value": {"tensor": {"dtype": "DT_INT32", "tensorShape": {"dim": [{"size": "1"}]}}}, "dtype": {"type": "DT_INT32"}}}, {"name": "StatefulPartitionedCall/deeplabv3plus/reshape_15/strided_slice/stack_2", "op": "Const", "attr": {"value": {"tensor": {"dtype": "DT_INT32", "tensorShape": {"dim": [{"size": "1"}]}}}, "dtype": {"type": "DT_INT32"}}}, {"name": "StatefulPartitionedCall/deeplabv3plus/reshape_15/Reshape/shape/1", "op": "Const", "attr": {"value": {"tensor": {"dtype": "DT_INT32", "tensorShape": {}}}, "dtype": {"type": "DT_INT32"}}}, {"name": "StatefulPartitionedCall/deeplabv3plus/reshape_15/Reshape/shape/2", "op": "Const", "attr": {"value": {"tensor": {"dtype": "DT_INT32", "tensorShape": {}}}, "dtype": {"type": "DT_INT32"}}}, {"name": "StatefulPartitionedCall/deeplabv3plus/reshape_15/Reshape/shape/3", "op": "Const", "attr": {"value": {"tensor": {"dtype": "DT_INT32", "tensorShape": {}}}, "dtype": {"type": "DT_INT32"}}}, {"name": "StatefulPartitionedCall/deeplabv3plus/lambda_13/Max/reduction_indices", "op": "Const", "attr": {"value": {"tensor": {"dtype": "DT_INT32", "tensorShape": {}}}, "dtype": {"type": "DT_INT32"}}}, {"name": "StatefulPartitionedCall/deeplabv3plus/concatenate_13/concat/axis", "op": "Const", "attr": {"value": {"tensor": {"dtype": "DT_INT32", "tensorShape": {}}}, "dtype": {"type": "DT_INT32"}}}, {"name": "StatefulPartitionedCall/deeplabv3plus/conv2d_4/Conv2D/ReadVariableOp", "op": "Const", "attr": {"value": {"tensor": {"dtype": "DT_FLOAT", "tensorShape": {"dim": [{"size": "7"}, {"size": "7"}, {"size": "2"}, {"size": "1"}]}}}, "dtype": {"type": "DT_FLOAT"}}}, {"name": "StatefulPartitionedCall/deeplabv3plus/lambda_14/resize/size", "op": "Const", "attr": {"value": {"tensor": {"dtype": "DT_INT32", "tensorShape": {"dim": [{"size": "2"}]}}}, "dtype": {"type": "DT_INT32"}}}, {"name": "StatefulPartitionedCall/deeplabv3plus/lambda_15/Mean/reduction_indices", "op": "Const", "attr": {"value": {"tensor": {"dtype": "DT_INT32", "tensorShape": {}}}, "dtype": {"type": "DT_INT32"}}}, {"name": "StatefulPartitionedCall/deeplabv3plus/Conv/HardSwish/hard_sigmoid_13/mul/y", "op": "Const", "attr": {"value": {"tensor": {"dtype": "DT_FLOAT", "tensorShape": {}}}, "dtype": {"type": "DT_FLOAT"}}}, {"name": "StatefulPartitionedCall/deeplabv3plus/Conv/HardSwish/hard_sigmoid_13/add/y", "op": "Const", "attr": {"value": {"tensor": {"dtype": "DT_FLOAT", "tensorShape": {}}}, "dtype": {"type": "DT_FLOAT"}}}, {"name": "StatefulPartitionedCall/deeplabv3plus/expanded_conv_1/depthwise/pad/Pad/paddings", "op": "Const", "attr": {"value": {"tensor": {"dtype": "DT_INT32", "tensorShape": {"dim": [{"size": "4"}, {"size": "2"}]}}}, "dtype": {"type": "DT_INT32"}}}, {"name": "StatefulPartitionedCall/deeplabv3plus/feature_projection0/Conv2D/ReadVariableOp", "op": "Const", "attr": {"value": {"tensor": {"dtype": "DT_FLOAT", "tensorShape": {"dim": [{"size": "1"}, {"size": "1"}, {"size": "24"}, {"size": "48"}]}}}, "dtype": {"type": "DT_FLOAT"}}}, {"name": "StatefulPartitionedCall/deeplabv3plus/global_average_pooling2d_5/Mean/reduction_indices", "op": "Const", "attr": {"value": {"tensor": {"dtype": "DT_INT32", "tensorShape": {"dim": [{"size": "2"}]}}}, "dtype": {"type": "DT_INT32"}}}, {"name": "StatefulPartitionedCall/deeplabv3plus/reshape_16/strided_slice/stack", "op": "Const", "attr": {"value": {"tensor": {"dtype": "DT_INT32", "tensorShape": {"dim": [{"size": "1"}]}}}, "dtype": {"type": "DT_INT32"}}}, {"name": "StatefulPartitionedCall/deeplabv3plus/reshape_16/strided_slice/stack_1", "op": "Const", "attr": {"value": {"tensor": {"dtype": "DT_INT32", "tensorShape": {"dim": [{"size": "1"}]}}}, "dtype": {"type": "DT_INT32"}}}, {"name": "StatefulPartitionedCall/deeplabv3plus/reshape_16/strided_slice/stack_2", "op": "Const", "attr": {"value": {"tensor": {"dtype": "DT_INT32", "tensorShape": {"dim": [{"size": "1"}]}}}, "dtype": {"type": "DT_INT32"}}}, {"name": "StatefulPartitionedCall/deeplabv3plus/reshape_16/Reshape/shape/1", "op": "Const", "attr": {"value": {"tensor": {"dtype": "DT_INT32", "tensorShape": {}}}, "dtype": {"type": "DT_INT32"}}}, {"name": "StatefulPartitionedCall/deeplabv3plus/reshape_16/Reshape/shape/2", "op": "Const", "attr": {"value": {"tensor": {"dtype": "DT_INT32", "tensorShape": {}}}, "dtype": {"type": "DT_INT32"}}}, {"name": "StatefulPartitionedCall/deeplabv3plus/conv1d_3/conv1d/ExpandDims/dim", "op": "Const", "attr": {"value": {"tensor": {"dtype": "DT_INT32", "tensorShape": {}}}, "dtype": {"type": "DT_INT32"}}}, {"name": "StatefulPartitionedCall/deeplabv3plus/conv1d_3/conv1d/ExpandDims_1", "op": "Const", "attr": {"value": {"tensor": {"dtype": "DT_FLOAT", "tensorShape": {"dim": [{"size": "1"}, {"size": "3"}, {"size": "1"}, {"size": "1"}]}}}, "dtype": {"type": "DT_FLOAT"}}}, {"name": "StatefulPartitionedCall/deeplabv3plus/reshape_17/strided_slice/stack", "op": "Const", "attr": {"value": {"tensor": {"dtype": "DT_INT32", "tensorShape": {"dim": [{"size": "1"}]}}}, "dtype": {"type": "DT_INT32"}}}, {"name": "StatefulPartitionedCall/deeplabv3plus/reshape_17/strided_slice/stack_1", "op": "Const", "attr": {"value": {"tensor": {"dtype": "DT_INT32", "tensorShape": {"dim": [{"size": "1"}]}}}, "dtype": {"type": "DT_INT32"}}}, {"name": "StatefulPartitionedCall/deeplabv3plus/reshape_17/strided_slice/stack_2", "op": "Const", "attr": {"value": {"tensor": {"dtype": "DT_INT32", "tensorShape": {"dim": [{"size": "1"}]}}}, "dtype": {"type": "DT_INT32"}}}, {"name": "StatefulPartitionedCall/deeplabv3plus/reshape_17/Reshape/shape/1", "op": "Const", "attr": {"value": {"tensor": {"dtype": "DT_INT32", "tensorShape": {}}}, "dtype": {"type": "DT_INT32"}}}, {"name": "StatefulPartitionedCall/deeplabv3plus/reshape_17/Reshape/shape/2", "op": "Const", "attr": {"value": {"tensor": {"dtype": "DT_INT32", "tensorShape": {}}}, "dtype": {"type": "DT_INT32"}}}, {"name": "StatefulPartitionedCall/deeplabv3plus/reshape_17/Reshape/shape/3", "op": "Const", "attr": {"value": {"tensor": {"dtype": "DT_INT32", "tensorShape": {}}}, "dtype": {"type": "DT_INT32"}}}, {"name": "StatefulPartitionedCall/deeplabv3plus/lambda_16/Max/reduction_indices", "op": "Const", "attr": {"value": {"tensor": {"dtype": "DT_INT32", "tensorShape": {}}}, "dtype": {"type": "DT_INT32"}}}, {"name": "StatefulPartitionedCall/deeplabv3plus/concatenate_14/concat/axis", "op": "Const", "attr": {"value": {"tensor": {"dtype": "DT_INT32", "tensorShape": {}}}, "dtype": {"type": "DT_INT32"}}}, {"name": "StatefulPartitionedCall/deeplabv3plus/conv2d_5/Conv2D/ReadVariableOp", "op": "Const", "attr": {"value": {"tensor": {"dtype": "DT_FLOAT", "tensorShape": {"dim": [{"size": "7"}, {"size": "7"}, {"size": "2"}, {"size": "1"}]}}}, "dtype": {"type": "DT_FLOAT"}}}, {"name": "StatefulPartitionedCall/deeplabv3plus/concatenate_15/concat/axis", "op": "Const", "attr": {"value": {"tensor": {"dtype": "DT_INT32", "tensorShape": {}}}, "dtype": {"type": "DT_INT32"}}}, {"name": "StatefulPartitionedCall/deeplabv3plus/conv2d_6/Conv2D/ReadVariableOp", "op": "Const", "attr": {"value": {"tensor": {"dtype": "DT_FLOAT", "tensorShape": {"dim": [{"size": "3"}, {"size": "3"}, {"size": "256"}, {"size": "256"}]}}}, "dtype": {"type": "DT_FLOAT"}}}, {"name": "StatefulPartitionedCall/deeplabv3plus/conv2d_6/BiasAdd/ReadVariableOp", "op": "Const", "attr": {"value": {"tensor": {"dtype": "DT_FLOAT", "tensorShape": {"dim": [{"size": "256"}]}}}, "dtype": {"type": "DT_FLOAT"}}}, {"name": "StatefulPartitionedCall/deeplabv3plus/lambda_17/resize/size", "op": "Const", "attr": {"value": {"tensor": {"dtype": "DT_INT32", "tensorShape": {"dim": [{"size": "2"}]}}}, "dtype": {"type": "DT_INT32"}}}, {"name": "StatefulPartitionedCall/deeplabv3plus/conv2d_7/Conv2D/ReadVariableOp", "op": "Const", "attr": {"value": {"tensor": {"dtype": "DT_FLOAT", "tensorShape": {"dim": [{"size": "1"}, {"size": "1"}, {"size": "256"}, {"size": "2"}]}}}, "dtype": {"type": "DT_FLOAT"}}}, {"name": "StatefulPartitionedCall/deeplabv3plus/conv2d_7/BiasAdd/ReadVariableOp", "op": "Const", "attr": {"value": {"tensor": {"dtype": "DT_FLOAT", "tensorShape": {"dim": [{"size": "2"}]}}}, "dtype": {"type": "DT_FLOAT"}}}, {"name": "input_2", "op": "Placeholder", "attr": {"shape": {"shape": {"dim": [{"size": "-1"}, {"size": "256"}, {"size": "256"}, {"size": "3"}]}}, "dtype": {"type": "DT_FLOAT"}}}, {"name": "StatefulPartitionedCall/deeplabv3plus/Conv/Conv2D_weights", "op": "Const", "attr": {"value": {"tensor": {"dtype": "DT_FLOAT", "tensorShape": {"dim": [{"size": "3"}, {"size": "3"}, {"size": "3"}, {"size": "16"}]}}}, "dtype": {"type": "DT_FLOAT"}}}, {"name": "StatefulPartitionedCall/deeplabv3plus/decoder_conv1_pointwise/Conv2D_weights", "op": "Const", "attr": {"value": {"tensor": {"dtype": "DT_FLOAT", "tensorShape": {"dim": [{"size": "1"}, {"size": "1"}, {"size": "256"}, {"size": "256"}]}}}, "dtype": {"type": "DT_FLOAT"}}}, {"name": "StatefulPartitionedCall/deeplabv3plus/Conv/Conv2D_bn_offset", "op": "Const", "attr": {"value": {"tensor": {"dtype": "DT_FLOAT", "tensorShape": {"dim": [{"size": "16"}]}}}, "dtype": {"type": "DT_FLOAT"}}}, {"name": "StatefulPartitionedCall/deeplabv3plus/expanded_conv/depthwise/depthwise_weights", "op": "Const", "attr": {"value": {"tensor": {"dtype": "DT_FLOAT", "tensorShape": {"dim": [{"size": "3"}, {"size": "3"}, {"size": "16"}, {"size": "1"}]}}}, "dtype": {"type": "DT_FLOAT"}}}, {"name": "StatefulPartitionedCall/deeplabv3plus/expanded_conv/depthwise/depthwise_bn_offset", "op": "Const", "attr": {"value": {"tensor": {"dtype": "DT_FLOAT", "tensorShape": {"dim": [{"size": "16"}]}}}, "dtype": {"type": "DT_FLOAT"}}}, {"name": "StatefulPartitionedCall/deeplabv3plus/expanded_conv/project/Conv2D_weights", "op": "Const", "attr": {"value": {"tensor": {"dtype": "DT_FLOAT", "tensorShape": {"dim": [{"size": "1"}, {"size": "1"}, {"size": "16"}, {"size": "16"}]}}}, "dtype": {"type": "DT_FLOAT"}}}, {"name": "StatefulPartitionedCall/deeplabv3plus/feature_projection0_BN/FusedBatchNormV3/Scaled", "op": "Const", "attr": {"value": {"tensor": {"dtype": "DT_FLOAT", "tensorShape": {"dim": [{"size": "48"}]}}}, "dtype": {"type": "DT_FLOAT"}}}, {"name": "StatefulPartitionedCall/deeplabv3plus/expanded_conv/project/Conv2D_bn_offset", "op": "Const", "attr": {"value": {"tensor": {"dtype": "DT_FLOAT", "tensorShape": {"dim": [{"size": "16"}]}}}, "dtype": {"type": "DT_FLOAT"}}}, {"name": "StatefulPartitionedCall/deeplabv3plus/expanded_conv_1/expand/Conv2D_weights", "op": "Const", "attr": {"value": {"tensor": {"dtype": "DT_FLOAT", "tensorShape": {"dim": [{"size": "1"}, {"size": "1"}, {"size": "16"}, {"size": "64"}]}}}, "dtype": {"type": "DT_FLOAT"}}}, {"name": "StatefulPartitionedCall/deeplabv3plus/decoder_conv1_pointwise/Conv2D_bn_offset", "op": "Const", "attr": {"value": {"tensor": {"dtype": "DT_FLOAT", "tensorShape": {"dim": [{"size": "256"}]}}}, "dtype": {"type": "DT_FLOAT"}}}, {"name": "StatefulPartitionedCall/deeplabv3plus/expanded_conv_1/expand/Conv2D_bn_offset", "op": "Const", "attr": {"value": {"tensor": {"dtype": "DT_FLOAT", "tensorShape": {"dim": [{"size": "64"}]}}}, "dtype": {"type": "DT_FLOAT"}}}, {"name": "StatefulPartitionedCall/deeplabv3plus/expanded_conv_1/depthwise/depthwise_weights", "op": "Const", "attr": {"value": {"tensor": {"dtype": "DT_FLOAT", "tensorShape": {"dim": [{"size": "3"}, {"size": "3"}, {"size": "64"}, {"size": "1"}]}}}, "dtype": {"type": "DT_FLOAT"}}}, {"name": "StatefulPartitionedCall/deeplabv3plus/expanded_conv_1/depthwise/depthwise_bn_offset", "op": "Const", "attr": {"value": {"tensor": {"dtype": "DT_FLOAT", "tensorShape": {"dim": [{"size": "64"}]}}}, "dtype": {"type": "DT_FLOAT"}}}, {"name": "StatefulPartitionedCall/deeplabv3plus/expanded_conv_1/project/Conv2D_weights", "op": "Const", "attr": {"value": {"tensor": {"dtype": "DT_FLOAT", "tensorShape": {"dim": [{"size": "1"}, {"size": "1"}, {"size": "64"}, {"size": "24"}]}}}, "dtype": {"type": "DT_FLOAT"}}}, {"name": "StatefulPartitionedCall/deeplabv3plus/expanded_conv_1/project/Conv2D_bn_offset", "op": "Const", "attr": {"value": {"tensor": {"dtype": "DT_FLOAT", "tensorShape": {"dim": [{"size": "24"}]}}}, "dtype": {"type": "DT_FLOAT"}}}, {"name": "StatefulPartitionedCall/deeplabv3plus/expanded_conv_2/expand/Conv2D_weights", "op": "Const", "attr": {"value": {"tensor": {"dtype": "DT_FLOAT", "tensorShape": {"dim": [{"size": "1"}, {"size": "1"}, {"size": "24"}, {"size": "72"}]}}}, "dtype": {"type": "DT_FLOAT"}}}, {"name": "StatefulPartitionedCall/deeplabv3plus/expanded_conv_2/expand/Conv2D_bn_offset", "op": "Const", "attr": {"value": {"tensor": {"dtype": "DT_FLOAT", "tensorShape": {"dim": [{"size": "72"}]}}}, "dtype": {"type": "DT_FLOAT"}}}, {"name": "StatefulPartitionedCall/deeplabv3plus/expanded_conv_2/depthwise/depthwise_weights", "op": "Const", "attr": {"value": {"tensor": {"dtype": "DT_FLOAT", "tensorShape": {"dim": [{"size": "3"}, {"size": "3"}, {"size": "72"}, {"size": "1"}]}}}, "dtype": {"type": "DT_FLOAT"}}}, {"name": "StatefulPartitionedCall/deeplabv3plus/expanded_conv_2/depthwise/depthwise_bn_offset", "op": "Const", "attr": {"value": {"tensor": {"dtype": "DT_FLOAT", "tensorShape": {"dim": [{"size": "72"}]}}}, "dtype": {"type": "DT_FLOAT"}}}, {"name": "StatefulPartitionedCall/deeplabv3plus/expanded_conv_2/project/Conv2D_weights", "op": "Const", "attr": {"value": {"tensor": {"dtype": "DT_FLOAT", "tensorShape": {"dim": [{"size": "1"}, {"size": "1"}, {"size": "72"}, {"size": "24"}]}}}, "dtype": {"type": "DT_FLOAT"}}}, {"name": "StatefulPartitionedCall/deeplabv3plus/expanded_conv_2/project/Conv2D_bn_offset", "op": "Const", "attr": {"value": {"tensor": {"dtype": "DT_FLOAT", "tensorShape": {"dim": [{"size": "24"}]}}}, "dtype": {"type": "DT_FLOAT"}}}, {"name": "StatefulPartitionedCall/deeplabv3plus/expanded_conv_3/expand/Conv2D_weights", "op": "Const", "attr": {"value": {"tensor": {"dtype": "DT_FLOAT", "tensorShape": {"dim": [{"size": "1"}, {"size": "1"}, {"size": "24"}, {"size": "72"}]}}}, "dtype": {"type": "DT_FLOAT"}}}, {"name": "StatefulPartitionedCall/deeplabv3plus/feature_projection0_BN/FusedBatchNormV3/Offset", "op": "Const", "attr": {"value": {"tensor": {"dtype": "DT_FLOAT", "tensorShape": {"dim": [{"size": "48"}]}}}, "dtype": {"type": "DT_FLOAT"}}}, {"name": "StatefulPartitionedCall/deeplabv3plus/expanded_conv_3/expand/Conv2D_bn_offset", "op": "Const", "attr": {"value": {"tensor": {"dtype": "DT_FLOAT", "tensorShape": {"dim": [{"size": "72"}]}}}, "dtype": {"type": "DT_FLOAT"}}}, {"name": "StatefulPartitionedCall/deeplabv3plus/expanded_conv_3/depthwise/depthwise_weights", "op": "Const", "attr": {"value": {"tensor": {"dtype": "DT_FLOAT", "tensorShape": {"dim": [{"size": "5"}, {"size": "5"}, {"size": "72"}, {"size": "1"}]}}}, "dtype": {"type": "DT_FLOAT"}}}, {"name": "StatefulPartitionedCall/deeplabv3plus/expanded_conv_3/depthwise/depthwise_bn_offset", "op": "Const", "attr": {"value": {"tensor": {"dtype": "DT_FLOAT", "tensorShape": {"dim": [{"size": "72"}]}}}, "dtype": {"type": "DT_FLOAT"}}}, {"name": "StatefulPartitionedCall/deeplabv3plus/expanded_conv_3/project/Conv2D_weights", "op": "Const", "attr": {"value": {"tensor": {"dtype": "DT_FLOAT", "tensorShape": {"dim": [{"size": "1"}, {"size": "1"}, {"size": "72"}, {"size": "40"}]}}}, "dtype": {"type": "DT_FLOAT"}}}, {"name": "StatefulPartitionedCall/deeplabv3plus/expanded_conv_3/project/Conv2D_bn_offset", "op": "Const", "attr": {"value": {"tensor": {"dtype": "DT_FLOAT", "tensorShape": {"dim": [{"size": "40"}]}}}, "dtype": {"type": "DT_FLOAT"}}}, {"name": "StatefulPartitionedCall/deeplabv3plus/expanded_conv_4/expand/Conv2D_weights", "op": "Const", "attr": {"value": {"tensor": {"dtype": "DT_FLOAT", "tensorShape": {"dim": [{"size": "1"}, {"size": "1"}, {"size": "40"}, {"size": "120"}]}}}, "dtype": {"type": "DT_FLOAT"}}}, {"name": "StatefulPartitionedCall/deeplabv3plus/concat_projection_BN/FusedBatchNormV3/Scaled", "op": "Const", "attr": {"value": {"tensor": {"dtype": "DT_FLOAT", "tensorShape": {"dim": [{"size": "256"}]}}}, "dtype": {"type": "DT_FLOAT"}}}, {"name": "StatefulPartitionedCall/deeplabv3plus/expanded_conv_4/expand/Conv2D_bn_offset", "op": "Const", "attr": {"value": {"tensor": {"dtype": "DT_FLOAT", "tensorShape": {"dim": [{"size": "120"}]}}}, "dtype": {"type": "DT_FLOAT"}}}, {"name": "StatefulPartitionedCall/deeplabv3plus/expanded_conv_4/depthwise/depthwise_weights", "op": "Const", "attr": {"value": {"tensor": {"dtype": "DT_FLOAT", "tensorShape": {"dim": [{"size": "5"}, {"size": "5"}, {"size": "120"}, {"size": "1"}]}}}, "dtype": {"type": "DT_FLOAT"}}}, {"name": "StatefulPartitionedCall/deeplabv3plus/expanded_conv_4/depthwise/depthwise_bn_offset", "op": "Const", "attr": {"value": {"tensor": {"dtype": "DT_FLOAT", "tensorShape": {"dim": [{"size": "120"}]}}}, "dtype": {"type": "DT_FLOAT"}}}, {"name": "StatefulPartitionedCall/deeplabv3plus/concat_projection_BN/FusedBatchNormV3/Offset", "op": "Const", "attr": {"value": {"tensor": {"dtype": "DT_FLOAT", "tensorShape": {"dim": [{"size": "256"}]}}}, "dtype": {"type": "DT_FLOAT"}}}, {"name": "StatefulPartitionedCall/deeplabv3plus/expanded_conv_4/project/Conv2D_weights", "op": "Const", "attr": {"value": {"tensor": {"dtype": "DT_FLOAT", "tensorShape": {"dim": [{"size": "1"}, {"size": "1"}, {"size": "120"}, {"size": "40"}]}}}, "dtype": {"type": "DT_FLOAT"}}}, {"name": "StatefulPartitionedCall/deeplabv3plus/expanded_conv_4/project/Conv2D_bn_offset", "op": "Const", "attr": {"value": {"tensor": {"dtype": "DT_FLOAT", "tensorShape": {"dim": [{"size": "40"}]}}}, "dtype": {"type": "DT_FLOAT"}}}, {"name": "StatefulPartitionedCall/deeplabv3plus/expanded_conv_5/expand/Conv2D_weights", "op": "Const", "attr": {"value": {"tensor": {"dtype": "DT_FLOAT", "tensorShape": {"dim": [{"size": "1"}, {"size": "1"}, {"size": "40"}, {"size": "120"}]}}}, "dtype": {"type": "DT_FLOAT"}}}, {"name": "StatefulPartitionedCall/deeplabv3plus/expanded_conv_5/expand/Conv2D_bn_offset", "op": "Const", "attr": {"value": {"tensor": {"dtype": "DT_FLOAT", "tensorShape": {"dim": [{"size": "120"}]}}}, "dtype": {"type": "DT_FLOAT"}}}, {"name": "StatefulPartitionedCall/deeplabv3plus/aspp3_depthwise_BN/FusedBatchNormV3/Scaled", "op": "Const", "attr": {"value": {"tensor": {"dtype": "DT_FLOAT", "tensorShape": {"dim": [{"size": "880"}]}}}, "dtype": {"type": "DT_FLOAT"}}}, {"name": "StatefulPartitionedCall/deeplabv3plus/expanded_conv_5/depthwise/depthwise_weights", "op": "Const", "attr": {"value": {"tensor": {"dtype": "DT_FLOAT", "tensorShape": {"dim": [{"size": "5"}, {"size": "5"}, {"size": "120"}, {"size": "1"}]}}}, "dtype": {"type": "DT_FLOAT"}}}, {"name": "StatefulPartitionedCall/deeplabv3plus/expanded_conv_5/depthwise/depthwise_bn_offset", "op": "Const", "attr": {"value": {"tensor": {"dtype": "DT_FLOAT", "tensorShape": {"dim": [{"size": "120"}]}}}, "dtype": {"type": "DT_FLOAT"}}}, {"name": "StatefulPartitionedCall/deeplabv3plus/aspp3_depthwise_BN/FusedBatchNormV3/Offset", "op": "Const", "attr": {"value": {"tensor": {"dtype": "DT_FLOAT", "tensorShape": {"dim": [{"size": "880"}]}}}, "dtype": {"type": "DT_FLOAT"}}}, {"name": "StatefulPartitionedCall/deeplabv3plus/expanded_conv_5/project/Conv2D_weights", "op": "Const", "attr": {"value": {"tensor": {"dtype": "DT_FLOAT", "tensorShape": {"dim": [{"size": "1"}, {"size": "1"}, {"size": "120"}, {"size": "40"}]}}}, "dtype": {"type": "DT_FLOAT"}}}, {"name": "StatefulPartitionedCall/deeplabv3plus/expanded_conv_5/project/Conv2D_bn_offset", "op": "Const", "attr": {"value": {"tensor": {"dtype": "DT_FLOAT", "tensorShape": {"dim": [{"size": "40"}]}}}, "dtype": {"type": "DT_FLOAT"}}}, {"name": "StatefulPartitionedCall/deeplabv3plus/expanded_conv_6/expand/Conv2D_weights", "op": "Const", "attr": {"value": {"tensor": {"dtype": "DT_FLOAT", "tensorShape": {"dim": [{"size": "1"}, {"size": "1"}, {"size": "40"}, {"size": "240"}]}}}, "dtype": {"type": "DT_FLOAT"}}}, {"name": "StatefulPartitionedCall/deeplabv3plus/expanded_conv_6/expand/Conv2D_bn_offset", "op": "Const", "attr": {"value": {"tensor": {"dtype": "DT_FLOAT", "tensorShape": {"dim": [{"size": "240"}]}}}, "dtype": {"type": "DT_FLOAT"}}}, {"name": "StatefulPartitionedCall/deeplabv3plus/expanded_conv_6/depthwise/depthwise_weights", "op": "Const", "attr": {"value": {"tensor": {"dtype": "DT_FLOAT", "tensorShape": {"dim": [{"size": "3"}, {"size": "3"}, {"size": "240"}, {"size": "1"}]}}}, "dtype": {"type": "DT_FLOAT"}}}, {"name": "StatefulPartitionedCall/deeplabv3plus/expanded_conv_6/depthwise/depthwise_bn_offset", "op": "Const", "attr": {"value": {"tensor": {"dtype": "DT_FLOAT", "tensorShape": {"dim": [{"size": "240"}]}}}, "dtype": {"type": "DT_FLOAT"}}}, {"name": "StatefulPartitionedCall/deeplabv3plus/expanded_conv_6/project/Conv2D_weights", "op": "Const", "attr": {"value": {"tensor": {"dtype": "DT_FLOAT", "tensorShape": {"dim": [{"size": "1"}, {"size": "1"}, {"size": "240"}, {"size": "80"}]}}}, "dtype": {"type": "DT_FLOAT"}}}, {"name": "StatefulPartitionedCall/deeplabv3plus/expanded_conv_6/project/Conv2D_bn_offset", "op": "Const", "attr": {"value": {"tensor": {"dtype": "DT_FLOAT", "tensorShape": {"dim": [{"size": "80"}]}}}, "dtype": {"type": "DT_FLOAT"}}}, {"name": "StatefulPartitionedCall/deeplabv3plus/expanded_conv_7/expand/Conv2D_weights", "op": "Const", "attr": {"value": {"tensor": {"dtype": "DT_FLOAT", "tensorShape": {"dim": [{"size": "1"}, {"size": "1"}, {"size": "80"}, {"size": "200"}]}}}, "dtype": {"type": "DT_FLOAT"}}}, {"name": "StatefulPartitionedCall/deeplabv3plus/aspp2_depthwise_BN/FusedBatchNormV3/Scaled", "op": "Const", "attr": {"value": {"tensor": {"dtype": "DT_FLOAT", "tensorShape": {"dim": [{"size": "624"}]}}}, "dtype": {"type": "DT_FLOAT"}}}, {"name": "StatefulPartitionedCall/deeplabv3plus/expanded_conv_7/expand/Conv2D_bn_offset", "op": "Const", "attr": {"value": {"tensor": {"dtype": "DT_FLOAT", "tensorShape": {"dim": [{"size": "200"}]}}}, "dtype": {"type": "DT_FLOAT"}}}, {"name": "StatefulPartitionedCall/deeplabv3plus/expanded_conv_7/depthwise/depthwise_weights", "op": "Const", "attr": {"value": {"tensor": {"dtype": "DT_FLOAT", "tensorShape": {"dim": [{"size": "3"}, {"size": "3"}, {"size": "200"}, {"size": "1"}]}}}, "dtype": {"type": "DT_FLOAT"}}}, {"name": "StatefulPartitionedCall/deeplabv3plus/expanded_conv_7/depthwise/depthwise_bn_offset", "op": "Const", "attr": {"value": {"tensor": {"dtype": "DT_FLOAT", "tensorShape": {"dim": [{"size": "200"}]}}}, "dtype": {"type": "DT_FLOAT"}}}, {"name": "StatefulPartitionedCall/deeplabv3plus/expanded_conv_7/project/Conv2D_weights", "op": "Const", "attr": {"value": {"tensor": {"dtype": "DT_FLOAT", "tensorShape": {"dim": [{"size": "1"}, {"size": "1"}, {"size": "200"}, {"size": "80"}]}}}, "dtype": {"type": "DT_FLOAT"}}}, {"name": "StatefulPartitionedCall/deeplabv3plus/expanded_conv_7/project/Conv2D_bn_offset", "op": "Const", "attr": {"value": {"tensor": {"dtype": "DT_FLOAT", "tensorShape": {"dim": [{"size": "80"}]}}}, "dtype": {"type": "DT_FLOAT"}}}, {"name": "StatefulPartitionedCall/deeplabv3plus/expanded_conv_8/expand/Conv2D_weights", "op": "Const", "attr": {"value": {"tensor": {"dtype": "DT_FLOAT", "tensorShape": {"dim": [{"size": "1"}, {"size": "1"}, {"size": "80"}, {"size": "184"}]}}}, "dtype": {"type": "DT_FLOAT"}}}, {"name": "StatefulPartitionedCall/deeplabv3plus/expanded_conv_8/expand/Conv2D_bn_offset", "op": "Const", "attr": {"value": {"tensor": {"dtype": "DT_FLOAT", "tensorShape": {"dim": [{"size": "184"}]}}}, "dtype": {"type": "DT_FLOAT"}}}, {"name": "StatefulPartitionedCall/deeplabv3plus/expanded_conv_8/depthwise/depthwise_weights", "op": "Const", "attr": {"value": {"tensor": {"dtype": "DT_FLOAT", "tensorShape": {"dim": [{"size": "3"}, {"size": "3"}, {"size": "184"}, {"size": "1"}]}}}, "dtype": {"type": "DT_FLOAT"}}}, {"name": "StatefulPartitionedCall/deeplabv3plus/expanded_conv_8/depthwise/depthwise_bn_offset", "op": "Const", "attr": {"value": {"tensor": {"dtype": "DT_FLOAT", "tensorShape": {"dim": [{"size": "184"}]}}}, "dtype": {"type": "DT_FLOAT"}}}, {"name": "StatefulPartitionedCall/deeplabv3plus/expanded_conv_8/project/Conv2D_weights", "op": "Const", "attr": {"value": {"tensor": {"dtype": "DT_FLOAT", "tensorShape": {"dim": [{"size": "1"}, {"size": "1"}, {"size": "184"}, {"size": "80"}]}}}, "dtype": {"type": "DT_FLOAT"}}}, {"name": "StatefulPartitionedCall/deeplabv3plus/aspp2_depthwise_BN/FusedBatchNormV3/Offset", "op": "Const", "attr": {"value": {"tensor": {"dtype": "DT_FLOAT", "tensorShape": {"dim": [{"size": "624"}]}}}, "dtype": {"type": "DT_FLOAT"}}}, {"name": "StatefulPartitionedCall/deeplabv3plus/expanded_conv_8/project/Conv2D_bn_offset", "op": "Const", "attr": {"value": {"tensor": {"dtype": "DT_FLOAT", "tensorShape": {"dim": [{"size": "80"}]}}}, "dtype": {"type": "DT_FLOAT"}}}, {"name": "StatefulPartitionedCall/deeplabv3plus/expanded_conv_9/expand/Conv2D_weights", "op": "Const", "attr": {"value": {"tensor": {"dtype": "DT_FLOAT", "tensorShape": {"dim": [{"size": "1"}, {"size": "1"}, {"size": "80"}, {"size": "184"}]}}}, "dtype": {"type": "DT_FLOAT"}}}, {"name": "StatefulPartitionedCall/deeplabv3plus/expanded_conv_9/expand/Conv2D_bn_offset", "op": "Const", "attr": {"value": {"tensor": {"dtype": "DT_FLOAT", "tensorShape": {"dim": [{"size": "184"}]}}}, "dtype": {"type": "DT_FLOAT"}}}, {"name": "StatefulPartitionedCall/deeplabv3plus/expanded_conv_9/depthwise/depthwise_weights", "op": "Const", "attr": {"value": {"tensor": {"dtype": "DT_FLOAT", "tensorShape": {"dim": [{"size": "3"}, {"size": "3"}, {"size": "184"}, {"size": "1"}]}}}, "dtype": {"type": "DT_FLOAT"}}}, {"name": "StatefulPartitionedCall/deeplabv3plus/expanded_conv_9/depthwise/depthwise_bn_offset", "op": "Const", "attr": {"value": {"tensor": {"dtype": "DT_FLOAT", "tensorShape": {"dim": [{"size": "184"}]}}}, "dtype": {"type": "DT_FLOAT"}}}, {"name": "StatefulPartitionedCall/deeplabv3plus/expanded_conv_9/project/Conv2D_weights", "op": "Const", "attr": {"value": {"tensor": {"dtype": "DT_FLOAT", "tensorShape": {"dim": [{"size": "1"}, {"size": "1"}, {"size": "184"}, {"size": "80"}]}}}, "dtype": {"type": "DT_FLOAT"}}}, {"name": "StatefulPartitionedCall/deeplabv3plus/expanded_conv_9/project/Conv2D_bn_offset", "op": "Const", "attr": {"value": {"tensor": {"dtype": "DT_FLOAT", "tensorShape": {"dim": [{"size": "80"}]}}}, "dtype": {"type": "DT_FLOAT"}}}, {"name": "StatefulPartitionedCall/deeplabv3plus/expanded_conv_10/expand/Conv2D_weights", "op": "Const", "attr": {"value": {"tensor": {"dtype": "DT_FLOAT", "tensorShape": {"dim": [{"size": "1"}, {"size": "1"}, {"size": "80"}, {"size": "480"}]}}}, "dtype": {"type": "DT_FLOAT"}}}, {"name": "StatefulPartitionedCall/deeplabv3plus/expanded_conv_10/expand/Conv2D_bn_offset", "op": "Const", "attr": {"value": {"tensor": {"dtype": "DT_FLOAT", "tensorShape": {"dim": [{"size": "480"}]}}}, "dtype": {"type": "DT_FLOAT"}}}, {"name": "StatefulPartitionedCall/deeplabv3plus/aspp1_depthwise_BN/FusedBatchNormV3/Scaled", "op": "Const", "attr": {"value": {"tensor": {"dtype": "DT_FLOAT", "tensorShape": {"dim": [{"size": "368"}]}}}, "dtype": {"type": "DT_FLOAT"}}}, {"name": "StatefulPartitionedCall/deeplabv3plus/expanded_conv_10/project/Conv2D_weights", "op": "Const", "attr": {"value": {"tensor": {"dtype": "DT_FLOAT", "tensorShape": {"dim": [{"size": "1"}, {"size": "1"}, {"size": "480"}, {"size": "112"}]}}}, "dtype": {"type": "DT_FLOAT"}}}, {"name": "StatefulPartitionedCall/deeplabv3plus/aspp1_depthwise_BN/FusedBatchNormV3/Offset", "op": "Const", "attr": {"value": {"tensor": {"dtype": "DT_FLOAT", "tensorShape": {"dim": [{"size": "368"}]}}}, "dtype": {"type": "DT_FLOAT"}}}, {"name": "StatefulPartitionedCall/deeplabv3plus/expanded_conv_10/project/Conv2D_bn_offset", "op": "Const", "attr": {"value": {"tensor": {"dtype": "DT_FLOAT", "tensorShape": {"dim": [{"size": "112"}]}}}, "dtype": {"type": "DT_FLOAT"}}}, {"name": "StatefulPartitionedCall/deeplabv3plus/expanded_conv_11/expand/Conv2D_weights", "op": "Const", "attr": {"value": {"tensor": {"dtype": "DT_FLOAT", "tensorShape": {"dim": [{"size": "1"}, {"size": "1"}, {"size": "112"}, {"size": "672"}]}}}, "dtype": {"type": "DT_FLOAT"}}}, {"name": "StatefulPartitionedCall/deeplabv3plus/expanded_conv_11/expand/Conv2D_bn_offset", "op": "Const", "attr": {"value": {"tensor": {"dtype": "DT_FLOAT", "tensorShape": {"dim": [{"size": "672"}]}}}, "dtype": {"type": "DT_FLOAT"}}}, {"name": "StatefulPartitionedCall/deeplabv3plus/expanded_conv_11/depthwise/BatchNorm/FusedBatchNormV3/Scaled", "op": "Const", "attr": {"value": {"tensor": {"dtype": "DT_FLOAT", "tensorShape": {"dim": [{"size": "672"}]}}}, "dtype": {"type": "DT_FLOAT"}}}, {"name": "StatefulPartitionedCall/deeplabv3plus/expanded_conv_11/project/Conv2D_weights", "op": "Const", "attr": {"value": {"tensor": {"dtype": "DT_FLOAT", "tensorShape": {"dim": [{"size": "1"}, {"size": "1"}, {"size": "672"}, {"size": "112"}]}}}, "dtype": {"type": "DT_FLOAT"}}}, {"name": "StatefulPartitionedCall/deeplabv3plus/expanded_conv_11/project/Conv2D_bn_offset", "op": "Const", "attr": {"value": {"tensor": {"dtype": "DT_FLOAT", "tensorShape": {"dim": [{"size": "112"}]}}}, "dtype": {"type": "DT_FLOAT"}}}, {"name": "StatefulPartitionedCall/deeplabv3plus/aspp0/Conv2D_weights", "op": "Const", "attr": {"value": {"tensor": {"dtype": "DT_FLOAT", "tensorShape": {"dim": [{"size": "1"}, {"size": "1"}, {"size": "112"}, {"size": "256"}]}}}, "dtype": {"type": "DT_FLOAT"}}}, {"name": "StatefulPartitionedCall/deeplabv3plus/aspp0/Conv2D_bn_offset", "op": "Const", "attr": {"value": {"tensor": {"dtype": "DT_FLOAT", "tensorShape": {"dim": [{"size": "256"}]}}}, "dtype": {"type": "DT_FLOAT"}}}, {"name": "StatefulPartitionedCall/deeplabv3plus/expanded_conv_11/depthwise/BatchNorm/FusedBatchNormV3/Offset", "op": "Const", "attr": {"value": {"tensor": {"dtype": "DT_FLOAT", "tensorShape": {"dim": [{"size": "672"}]}}}, "dtype": {"type": "DT_FLOAT"}}}, {"name": "StatefulPartitionedCall/deeplabv3plus/aspp1_pointwise/Conv2D_weights", "op": "Const", "attr": {"value": {"tensor": {"dtype": "DT_FLOAT", "tensorShape": {"dim": [{"size": "1"}, {"size": "1"}, {"size": "368"}, {"size": "256"}]}}}, "dtype": {"type": "DT_FLOAT"}}}, {"name": "StatefulPartitionedCall/deeplabv3plus/aspp1_pointwise/Conv2D_bn_offset", "op": "Const", "attr": {"value": {"tensor": {"dtype": "DT_FLOAT", "tensorShape": {"dim": [{"size": "256"}]}}}, "dtype": {"type": "DT_FLOAT"}}}, {"name": "StatefulPartitionedCall/deeplabv3plus/aspp2_pointwise/Conv2D_weights", "op": "Const", "attr": {"value": {"tensor": {"dtype": "DT_FLOAT", "tensorShape": {"dim": [{"size": "1"}, {"size": "1"}, {"size": "624"}, {"size": "256"}]}}}, "dtype": {"type": "DT_FLOAT"}}}, {"name": "StatefulPartitionedCall/deeplabv3plus/aspp2_pointwise/Conv2D_bn_offset", "op": "Const", "attr": {"value": {"tensor": {"dtype": "DT_FLOAT", "tensorShape": {"dim": [{"size": "256"}]}}}, "dtype": {"type": "DT_FLOAT"}}}, {"name": "StatefulPartitionedCall/deeplabv3plus/expanded_conv_10/depthwise/BatchNorm/FusedBatchNormV3/Scaled", "op": "Const", "attr": {"value": {"tensor": {"dtype": "DT_FLOAT", "tensorShape": {"dim": [{"size": "480"}]}}}, "dtype": {"type": "DT_FLOAT"}}}, {"name": "StatefulPartitionedCall/deeplabv3plus/aspp3_pointwise/Conv2D_weights", "op": "Const", "attr": {"value": {"tensor": {"dtype": "DT_FLOAT", "tensorShape": {"dim": [{"size": "1"}, {"size": "1"}, {"size": "880"}, {"size": "256"}]}}}, "dtype": {"type": "DT_FLOAT"}}}, {"name": "StatefulPartitionedCall/deeplabv3plus/aspp3_pointwise/Conv2D_bn_offset", "op": "Const", "attr": {"value": {"tensor": {"dtype": "DT_FLOAT", "tensorShape": {"dim": [{"size": "256"}]}}}, "dtype": {"type": "DT_FLOAT"}}}, {"name": "StatefulPartitionedCall/deeplabv3plus/image_pooling/Conv2D_weights", "op": "Const", "attr": {"value": {"tensor": {"dtype": "DT_FLOAT", "tensorShape": {"dim": [{"size": "1"}, {"size": "1"}, {"size": "1136"}, {"size": "256"}]}}}, "dtype": {"type": "DT_FLOAT"}}}, {"name": "StatefulPartitionedCall/deeplabv3plus/expanded_conv_10/depthwise/BatchNorm/FusedBatchNormV3/Offset", "op": "Const", "attr": {"value": {"tensor": {"dtype": "DT_FLOAT", "tensorShape": {"dim": [{"size": "480"}]}}}, "dtype": {"type": "DT_FLOAT"}}}, {"name": "StatefulPartitionedCall/deeplabv3plus/image_pooling/Conv2D_bn_offset", "op": "Const", "attr": {"value": {"tensor": {"dtype": "DT_FLOAT", "tensorShape": {"dim": [{"size": "256"}]}}}, "dtype": {"type": "DT_FLOAT"}}}, {"name": "StatefulPartitionedCall/deeplabv3plus/decoder_conv0_depthwise/depthwise_weights", "op": "Const", "attr": {"value": {"tensor": {"dtype": "DT_FLOAT", "tensorShape": {"dim": [{"size": "3"}, {"size": "3"}, {"size": "304"}, {"size": "1"}]}}}, "dtype": {"type": "DT_FLOAT"}}}, {"name": "StatefulPartitionedCall/deeplabv3plus/decoder_conv0_depthwise/depthwise_bn_offset", "op": "Const", "attr": {"value": {"tensor": {"dtype": "DT_FLOAT", "tensorShape": {"dim": [{"size": "304"}]}}}, "dtype": {"type": "DT_FLOAT"}}}, {"name": "StatefulPartitionedCall/deeplabv3plus/decoder_conv0_pointwise/Conv2D_weights", "op": "Const", "attr": {"value": {"tensor": {"dtype": "DT_FLOAT", "tensorShape": {"dim": [{"size": "1"}, {"size": "1"}, {"size": "304"}, {"size": "256"}]}}}, "dtype": {"type": "DT_FLOAT"}}}, {"name": "StatefulPartitionedCall/deeplabv3plus/decoder_conv0_pointwise/Conv2D_bn_offset", "op": "Const", "attr": {"value": {"tensor": {"dtype": "DT_FLOAT", "tensorShape": {"dim": [{"size": "256"}]}}}, "dtype": {"type": "DT_FLOAT"}}}, {"name": "StatefulPartitionedCall/deeplabv3plus/decoder_conv1_depthwise/depthwise_weights", "op": "Const", "attr": {"value": {"tensor": {"dtype": "DT_FLOAT", "tensorShape": {"dim": [{"size": "3"}, {"size": "3"}, {"size": "256"}, {"size": "1"}]}}}, "dtype": {"type": "DT_FLOAT"}}}, {"name": "StatefulPartitionedCall/deeplabv3plus/decoder_conv1_depthwise/depthwise_bn_offset", "op": "Const", "attr": {"value": {"tensor": {"dtype": "DT_FLOAT", "tensorShape": {"dim": [{"size": "256"}]}}}, "dtype": {"type": "DT_FLOAT"}}}, {"name": "StatefulPartitionedCall/deeplabv3plus/Conv/BatchNorm/FusedBatchNormV3", "op": "_FusedConv2D", "input": ["input_2", "StatefulPartitionedCall/deeplabv3plus/Conv/Conv2D_weights", "StatefulPartitionedCall/deeplabv3plus/Conv/Conv2D_bn_offset"], "device": "/device:CPU:0", "attr": {"dilations": {"list": {"i": ["1", "1", "1", "1"]}}, "T": {"type": "DT_FLOAT"}, "data_format": {"s": "TkhXQw=="}, "strides": {"list": {"i": ["1", "2", "2", "1"]}}, "explicit_paddings": {"list": {}}, "use_cudnn_on_gpu": {"b": true}, "num_args": {"i": "1"}, "epsilon": {"f": 0.0}, "padding": {"s": "U0FNRQ=="}, "fused_ops": {"list": {"s": ["Qmlhc0FkZA=="]}}}}, {"name": "StatefulPartitionedCall/deeplabv3plus/Conv/HardSwish/hard_sigmoid_13/add", "op": "AddV2", "input": ["StatefulPartitionedCall/deeplabv3plus/Conv/BatchNorm/FusedBatchNormV3", "StatefulPartitionedCall/deeplabv3plus/Conv/HardSwish/hard_sigmoid_13/add/y"], "attr": {"T": {"type": "DT_FLOAT"}}}, {"name": "StatefulPartitionedCall/deeplabv3plus/Conv/HardSwish/hard_sigmoid_13/re_lu_18/Relu6", "op": "Relu6", "input": ["StatefulPartitionedCall/deeplabv3plus/Conv/HardSwish/hard_sigmoid_13/add"], "attr": {"T": {"type": "DT_FLOAT"}}}, {"name": "StatefulPartitionedCall/deeplabv3plus/Conv/HardSwish/hard_sigmoid_13/mul", "op": "Mul", "input": ["StatefulPartitionedCall/deeplabv3plus/Conv/HardSwish/hard_sigmoid_13/mul/y", "StatefulPartitionedCall/deeplabv3plus/Conv/HardSwish/hard_sigmoid_13/re_lu_18/Relu6"], "attr": {"_grappler_ArithmeticOptimizer_MinimizeBroadcasts": {"b": true}, "T": {"type": "DT_FLOAT"}}}, {"name": "StatefulPartitionedCall/deeplabv3plus/Conv/HardSwish/mul", "op": "Mul", "input": ["StatefulPartitionedCall/deeplabv3plus/Conv/HardSwish/hard_sigmoid_13/mul", "StatefulPartitionedCall/deeplabv3plus/Conv/BatchNorm/FusedBatchNormV3"], "attr": {"_grappler_ArithmeticOptimizer_MinimizeBroadcasts": {"b": true}, "T": {"type": "DT_FLOAT"}}}, {"name": "StatefulPartitionedCall/deeplabv3plus/expanded_conv/depthwise/depthwise", "op": "FusedDepthwiseConv2dNative", "input": ["StatefulPartitionedCall/deeplabv3plus/Conv/HardSwish/mul", "StatefulPartitionedCall/deeplabv3plus/expanded_conv/depthwise/depthwise_weights", "StatefulPartitionedCall/deeplabv3plus/expanded_conv/depthwise/depthwise_bn_offset"], "attr": {"dilations": {"list": {"i": ["1", "1", "1", "1"]}}, "T": {"type": "DT_FLOAT"}, "data_format": {"s": "TkhXQw=="}, "strides": {"list": {"i": ["1", "1", "1", "1"]}}, "explicit_paddings": {"list": {}}, "padding": {"s": "U0FNRQ=="}, "num_args": {"i": "1"}, "fused_ops": {"list": {"s": ["Qmlhc0FkZA==", "UmVsdQ=="]}}}}, {"name": "StatefulPartitionedCall/deeplabv3plus/expanded_conv/project/BatchNorm/FusedBatchNormV3", "op": "_FusedConv2D", "input": ["StatefulPartitionedCall/deeplabv3plus/expanded_conv/depthwise/depthwise", "StatefulPartitionedCall/deeplabv3plus/expanded_conv/project/Conv2D_weights", "StatefulPartitionedCall/deeplabv3plus/expanded_conv/project/Conv2D_bn_offset"], "device": "/device:CPU:0", "attr": {"dilations": {"list": {"i": ["1", "1", "1", "1"]}}, "T": {"type": "DT_FLOAT"}, "data_format": {"s": "TkhXQw=="}, "strides": {"list": {"i": ["1", "1", "1", "1"]}}, "explicit_paddings": {"list": {}}, "use_cudnn_on_gpu": {"b": true}, "num_args": {"i": "1"}, "epsilon": {"f": 0.0}, "padding": {"s": "U0FNRQ=="}, "fused_ops": {"list": {"s": ["Qmlhc0FkZA=="]}}}}, {"name": "StatefulPartitionedCall/deeplabv3plus/expanded_conv/Add/add", "op": "AddV2", "input": ["StatefulPartitionedCall/deeplabv3plus/Conv/HardSwish/mul", "StatefulPartitionedCall/deeplabv3plus/expanded_conv/project/BatchNorm/FusedBatchNormV3"], "attr": {"T": {"type": "DT_FLOAT"}}}, {"name": "StatefulPartitionedCall/deeplabv3plus/expanded_conv_1/expand/ReLU/Relu", "op": "_FusedConv2D", "input": ["StatefulPartitionedCall/deeplabv3plus/expanded_conv/Add/add", "StatefulPartitionedCall/deeplabv3plus/expanded_conv_1/expand/Conv2D_weights", "StatefulPartitionedCall/deeplabv3plus/expanded_conv_1/expand/Conv2D_bn_offset"], "device": "/device:CPU:0", "attr": {"dilations": {"list": {"i": ["1", "1", "1", "1"]}}, "T": {"type": "DT_FLOAT"}, "data_format": {"s": "TkhXQw=="}, "strides": {"list": {"i": ["1", "1", "1", "1"]}}, "explicit_paddings": {"list": {}}, "use_cudnn_on_gpu": {"b": true}, "num_args": {"i": "1"}, "epsilon": {"f": 0.0}, "padding": {"s": "U0FNRQ=="}, "fused_ops": {"list": {"s": ["Qmlhc0FkZA==", "UmVsdQ=="]}}}}, {"name": "StatefulPartitionedCall/deeplabv3plus/expanded_conv_1/depthwise/pad/Pad", "op": "Pad", "input": ["StatefulPartitionedCall/deeplabv3plus/expanded_conv_1/expand/ReLU/Relu", "StatefulPartitionedCall/deeplabv3plus/expanded_conv_1/depthwise/pad/Pad/paddings"], "attr": {"T": {"type": "DT_FLOAT"}, "Tpaddings": {"type": "DT_INT32"}}}, {"name": "StatefulPartitionedCall/deeplabv3plus/expanded_conv_1/depthwise/depthwise", "op": "FusedDepthwiseConv2dNative", "input": ["StatefulPartitionedCall/deeplabv3plus/expanded_conv_1/depthwise/pad/Pad", "StatefulPartitionedCall/deeplabv3plus/expanded_conv_1/depthwise/depthwise_weights", "StatefulPartitionedCall/deeplabv3plus/expanded_conv_1/depthwise/depthwise_bn_offset"], "attr": {"dilations": {"list": {"i": ["1", "1", "1", "1"]}}, "T": {"type": "DT_FLOAT"}, "data_format": {"s": "TkhXQw=="}, "strides": {"list": {"i": ["1", "2", "2", "1"]}}, "explicit_paddings": {"list": {}}, "padding": {"s": "VkFMSUQ="}, "num_args": {"i": "1"}, "fused_ops": {"list": {"s": ["Qmlhc0FkZA==", "UmVsdQ=="]}}}}, {"name": "StatefulPartitionedCall/deeplabv3plus/expanded_conv_1/project/BatchNorm/FusedBatchNormV3", "op": "_FusedConv2D", "input": ["StatefulPartitionedCall/deeplabv3plus/expanded_conv_1/depthwise/depthwise", "StatefulPartitionedCall/deeplabv3plus/expanded_conv_1/project/Conv2D_weights", "StatefulPartitionedCall/deeplabv3plus/expanded_conv_1/project/Conv2D_bn_offset"], "device": "/device:CPU:0", "attr": {"dilations": {"list": {"i": ["1", "1", "1", "1"]}}, "T": {"type": "DT_FLOAT"}, "data_format": {"s": "TkhXQw=="}, "strides": {"list": {"i": ["1", "1", "1", "1"]}}, "explicit_paddings": {"list": {}}, "use_cudnn_on_gpu": {"b": true}, "num_args": {"i": "1"}, "epsilon": {"f": 0.0}, "padding": {"s": "U0FNRQ=="}, "fused_ops": {"list": {"s": ["Qmlhc0FkZA=="]}}}}, {"name": "StatefulPartitionedCall/deeplabv3plus/expanded_conv_2/expand/ReLU/Relu", "op": "_FusedConv2D", "input": ["StatefulPartitionedCall/deeplabv3plus/expanded_conv_1/project/BatchNorm/FusedBatchNormV3", "StatefulPartitionedCall/deeplabv3plus/expanded_conv_2/expand/Conv2D_weights", "StatefulPartitionedCall/deeplabv3plus/expanded_conv_2/expand/Conv2D_bn_offset"], "device": "/device:CPU:0", "attr": {"dilations": {"list": {"i": ["1", "1", "1", "1"]}}, "T": {"type": "DT_FLOAT"}, "data_format": {"s": "TkhXQw=="}, "strides": {"list": {"i": ["1", "1", "1", "1"]}}, "explicit_paddings": {"list": {}}, "use_cudnn_on_gpu": {"b": true}, "num_args": {"i": "1"}, "epsilon": {"f": 0.0}, "padding": {"s": "U0FNRQ=="}, "fused_ops": {"list": {"s": ["Qmlhc0FkZA==", "UmVsdQ=="]}}}}, {"name": "StatefulPartitionedCall/deeplabv3plus/expanded_conv_2/depthwise/depthwise", "op": "FusedDepthwiseConv2dNative", "input": ["StatefulPartitionedCall/deeplabv3plus/expanded_conv_2/expand/ReLU/Relu", "StatefulPartitionedCall/deeplabv3plus/expanded_conv_2/depthwise/depthwise_weights", "StatefulPartitionedCall/deeplabv3plus/expanded_conv_2/depthwise/depthwise_bn_offset"], "attr": {"dilations": {"list": {"i": ["1", "1", "1", "1"]}}, "T": {"type": "DT_FLOAT"}, "data_format": {"s": "TkhXQw=="}, "strides": {"list": {"i": ["1", "1", "1", "1"]}}, "explicit_paddings": {"list": {}}, "padding": {"s": "U0FNRQ=="}, "num_args": {"i": "1"}, "fused_ops": {"list": {"s": ["Qmlhc0FkZA==", "UmVsdQ=="]}}}}, {"name": "StatefulPartitionedCall/deeplabv3plus/expanded_conv_2/project/BatchNorm/FusedBatchNormV3", "op": "_FusedConv2D", "input": ["StatefulPartitionedCall/deeplabv3plus/expanded_conv_2/depthwise/depthwise", "StatefulPartitionedCall/deeplabv3plus/expanded_conv_2/project/Conv2D_weights", "StatefulPartitionedCall/deeplabv3plus/expanded_conv_2/project/Conv2D_bn_offset"], "device": "/device:CPU:0", "attr": {"dilations": {"list": {"i": ["1", "1", "1", "1"]}}, "T": {"type": "DT_FLOAT"}, "data_format": {"s": "TkhXQw=="}, "strides": {"list": {"i": ["1", "1", "1", "1"]}}, "explicit_paddings": {"list": {}}, "use_cudnn_on_gpu": {"b": true}, "num_args": {"i": "1"}, "epsilon": {"f": 0.0}, "padding": {"s": "U0FNRQ=="}, "fused_ops": {"list": {"s": ["Qmlhc0FkZA=="]}}}}, {"name": "StatefulPartitionedCall/deeplabv3plus/expanded_conv_2/Add/add", "op": "AddV2", "input": ["StatefulPartitionedCall/deeplabv3plus/expanded_conv_1/project/BatchNorm/FusedBatchNormV3", "StatefulPartitionedCall/deeplabv3plus/expanded_conv_2/project/BatchNorm/FusedBatchNormV3"], "attr": {"T": {"type": "DT_FLOAT"}}}, {"name": "StatefulPartitionedCall/deeplabv3plus/feature_projection0/Conv2D", "op": "Conv2D", "input": ["StatefulPartitionedCall/deeplabv3plus/expanded_conv_2/Add/add", "StatefulPartitionedCall/deeplabv3plus/feature_projection0/Conv2D/ReadVariableOp"], "device": "/device:CPU:0", "attr": {"dilations": {"list": {"i": ["1", "1", "1", "1"]}}, "T": {"type": "DT_FLOAT"}, "data_format": {"s": "TkhXQw=="}, "strides": {"list": {"i": ["1", "1", "1", "1"]}}, "use_cudnn_on_gpu": {"b": true}, "explicit_paddings": {"list": {}}, "padding": {"s": "U0FNRQ=="}}}, {"name": "StatefulPartitionedCall/deeplabv3plus/expanded_conv_3/expand/ReLU/Relu", "op": "_FusedConv2D", "input": ["StatefulPartitionedCall/deeplabv3plus/expanded_conv_2/Add/add", "StatefulPartitionedCall/deeplabv3plus/expanded_conv_3/expand/Conv2D_weights", "StatefulPartitionedCall/deeplabv3plus/expanded_conv_3/expand/Conv2D_bn_offset"], "device": "/device:CPU:0", "attr": {"dilations": {"list": {"i": ["1", "1", "1", "1"]}}, "T": {"type": "DT_FLOAT"}, "data_format": {"s": "TkhXQw=="}, "strides": {"list": {"i": ["1", "1", "1", "1"]}}, "explicit_paddings": {"list": {}}, "use_cudnn_on_gpu": {"b": true}, "num_args": {"i": "1"}, "epsilon": {"f": 0.0}, "padding": {"s": "U0FNRQ=="}, "fused_ops": {"list": {"s": ["Qmlhc0FkZA==", "UmVsdQ=="]}}}}, {"name": "StatefulPartitionedCall/deeplabv3plus/global_average_pooling2d_5/Mean", "op": "Mean", "input": ["StatefulPartitionedCall/deeplabv3plus/feature_projection0/Conv2D", "StatefulPartitionedCall/deeplabv3plus/global_average_pooling2d_5/Mean/reduction_indices"], "attr": {"keep_dims": {"b": false}, "Tidx": {"type": "DT_INT32"}, "T": {"type": "DT_FLOAT"}}}, {"name": "StatefulPartitionedCall/deeplabv3plus/expanded_conv_3/depthwise/pad/Pad", "op": "Pad", "input": ["StatefulPartitionedCall/deeplabv3plus/expanded_conv_3/expand/ReLU/Relu", "StatefulPartitionedCall/deeplabv3plus/expanded_conv_3/depthwise/pad/Pad/paddings"], "attr": {"T": {"type": "DT_FLOAT"}, "Tpaddings": {"type": "DT_INT32"}}}, {"name": "StatefulPartitionedCall/deeplabv3plus/reshape_16/Shape", "op": "Shape", "input": ["StatefulPartitionedCall/deeplabv3plus/global_average_pooling2d_5/Mean"], "attr": {"T": {"type": "DT_FLOAT"}, "out_type": {"type": "DT_INT32"}}}, {"name": "StatefulPartitionedCall/deeplabv3plus/expanded_conv_3/depthwise/depthwise", "op": "FusedDepthwiseConv2dNative", "input": ["StatefulPartitionedCall/deeplabv3plus/expanded_conv_3/depthwise/pad/Pad", "StatefulPartitionedCall/deeplabv3plus/expanded_conv_3/depthwise/depthwise_weights", "StatefulPartitionedCall/deeplabv3plus/expanded_conv_3/depthwise/depthwise_bn_offset"], "attr": {"dilations": {"list": {"i": ["1", "1", "1", "1"]}}, "T": {"type": "DT_FLOAT"}, "data_format": {"s": "TkhXQw=="}, "strides": {"list": {"i": ["1", "2", "2", "1"]}}, "explicit_paddings": {"list": {}}, "padding": {"s": "VkFMSUQ="}, "num_args": {"i": "1"}, "fused_ops": {"list": {"s": ["Qmlhc0FkZA==", "UmVsdQ=="]}}}}, {"name": "StatefulPartitionedCall/deeplabv3plus/reshape_16/strided_slice", "op": "StridedSlice", "input": ["StatefulPartitionedCall/deeplabv3plus/reshape_16/Shape", "StatefulPartitionedCall/deeplabv3plus/reshape_16/strided_slice/stack", "StatefulPartitionedCall/deeplabv3plus/reshape_16/strided_slice/stack_1", "StatefulPartitionedCall/deeplabv3plus/reshape_16/strided_slice/stack_2"], "attr": {"T": {"type": "DT_INT32"}, "Index": {"type": "DT_INT32"}, "shrink_axis_mask": {"i": "1"}, "ellipsis_mask": {"i": "0"}, "begin_mask": {"i": "0"}, "new_axis_mask": {"i": "0"}, "end_mask": {"i": "0"}}}, {"name": "StatefulPartitionedCall/deeplabv3plus/reshape_16/Reshape/shape", "op": "Pack", "input": ["StatefulPartitionedCall/deeplabv3plus/reshape_16/strided_slice", "StatefulPartitionedCall/deeplabv3plus/reshape_16/Reshape/shape/1", "StatefulPartitionedCall/deeplabv3plus/reshape_16/Reshape/shape/2"], "attr": {"T": {"type": "DT_INT32"}, "axis": {"i": "0"}, "N": {"i": "3"}}}, {"name": "StatefulPartitionedCall/deeplabv3plus/reshape_16/Reshape", "op": "Reshape", "input": ["StatefulPartitionedCall/deeplabv3plus/global_average_pooling2d_5/Mean", "StatefulPartitionedCall/deeplabv3plus/reshape_16/Reshape/shape"], "attr": {"T": {"type": "DT_FLOAT"}, "Tshape": {"type": "DT_INT32"}}}, {"name": "StatefulPartitionedCall/deeplabv3plus/expanded_conv_3/squeeze_excite/AvgPool/Mean", "op": "Mean", "input": ["StatefulPartitionedCall/deeplabv3plus/expanded_conv_3/depthwise/depthwise", "StatefulPartitionedCall/deeplabv3plus/expanded_conv_3/squeeze_excite/AvgPool/Mean/reduction_indices"], "attr": {"keep_dims": {"b": false}, "Tidx": {"type": "DT_INT32"}, "T": {"type": "DT_FLOAT"}}}, {"name": "StatefulPartitionedCall/deeplabv3plus/conv1d_3/conv1d/ExpandDims", "op": "ExpandDims", "input": ["StatefulPartitionedCall/deeplabv3plus/reshape_16/Reshape", "StatefulPartitionedCall/deeplabv3plus/conv1d_3/conv1d/ExpandDims/dim"], "attr": {"Tdim": {"type": "DT_INT32"}, "T": {"type": "DT_FLOAT"}}}, {"name": "StatefulPartitionedCall/deeplabv3plus/reshape_9/Shape", "op": "Shape", "input": ["StatefulPartitionedCall/deeplabv3plus/expanded_conv_3/squeeze_excite/AvgPool/Mean"], "attr": {"T": {"type": "DT_FLOAT"}, "out_type": {"type": "DT_INT32"}}}, {"name": "StatefulPartitionedCall/deeplabv3plus/conv1d_3/conv1d", "op": "Conv2D", "input": ["StatefulPartitionedCall/deeplabv3plus/conv1d_3/conv1d/ExpandDims", "StatefulPartitionedCall/deeplabv3plus/conv1d_3/conv1d/ExpandDims_1"], "device": "/device:CPU:0", "attr": {"dilations": {"list": {"i": ["1", "1", "1", "1"]}}, "T": {"type": "DT_FLOAT"}, "data_format": {"s": "TkhXQw=="}, "strides": {"list": {"i": ["1", "1", "1", "1"]}}, "use_cudnn_on_gpu": {"b": true}, "explicit_paddings": {"list": {}}, "padding": {"s": "U0FNRQ=="}}}, {"name": "StatefulPartitionedCall/deeplabv3plus/reshape_9/strided_slice", "op": "StridedSlice", "input": ["StatefulPartitionedCall/deeplabv3plus/reshape_9/Shape", "StatefulPartitionedCall/deeplabv3plus/reshape_9/strided_slice/stack", "StatefulPartitionedCall/deeplabv3plus/reshape_9/strided_slice/stack_1", "StatefulPartitionedCall/deeplabv3plus/reshape_9/strided_slice/stack_2"], "attr": {"T": {"type": "DT_INT32"}, "Index": {"type": "DT_INT32"}, "shrink_axis_mask": {"i": "1"}, "ellipsis_mask": {"i": "0"}, "begin_mask": {"i": "0"}, "new_axis_mask": {"i": "0"}, "end_mask": {"i": "0"}}}, {"name": "StatefulPartitionedCall/deeplabv3plus/conv1d_3/conv1d/Squeeze", "op": "Squeeze", "input": ["StatefulPartitionedCall/deeplabv3plus/conv1d_3/conv1d"], "attr": {"squeeze_dims": {"list": {"i": ["-3"]}}, "T": {"type": "DT_FLOAT"}}}, {"name": "StatefulPartitionedCall/deeplabv3plus/reshape_9/Reshape/shape", "op": "Pack", "input": ["StatefulPartitionedCall/deeplabv3plus/reshape_9/strided_slice", "StatefulPartitionedCall/deeplabv3plus/reshape_9/Reshape/shape/1", "StatefulPartitionedCall/deeplabv3plus/reshape_9/Reshape/shape/2", "StatefulPartitionedCall/deeplabv3plus/reshape_9/Reshape/shape/3"], "attr": {"T": {"type": "DT_INT32"}, "axis": {"i": "0"}, "N": {"i": "4"}}}, {"name": "StatefulPartitionedCall/deeplabv3plus/activation_27/Sigmoid", "op": "Sigmoid", "input": ["StatefulPartitionedCall/deeplabv3plus/conv1d_3/conv1d/Squeeze"], "attr": {"T": {"type": "DT_FLOAT"}}}, {"name": "StatefulPartitionedCall/deeplabv3plus/reshape_9/Reshape", "op": "Reshape", "input": ["StatefulPartitionedCall/deeplabv3plus/expanded_conv_3/squeeze_excite/AvgPool/Mean", "StatefulPartitionedCall/deeplabv3plus/reshape_9/Reshape/shape"], "attr": {"T": {"type": "DT_FLOAT"}, "Tshape": {"type": "DT_INT32"}}}, {"name": "StatefulPartitionedCall/deeplabv3plus/reshape_17/Shape", "op": "Shape", "input": ["StatefulPartitionedCall/deeplabv3plus/activation_27/Sigmoid"], "attr": {"T": {"type": "DT_FLOAT"}, "out_type": {"type": "DT_INT32"}}}, {"name": "StatefulPartitionedCall/deeplabv3plus/expanded_conv_3/squeeze_excite/Relu/Relu", "op": "_FusedConv2D", "input": ["StatefulPartitionedCall/deeplabv3plus/reshape_9/Reshape", "StatefulPartitionedCall/deeplabv3plus/expanded_conv_3/squeeze_excite/Conv/Conv2D/ReadVariableOp", "StatefulPartitionedCall/deeplabv3plus/expanded_conv_3/squeeze_excite/Conv/BiasAdd/ReadVariableOp"], "device": "/device:CPU:0", "attr": {"dilations": {"list": {"i": ["1", "1", "1", "1"]}}, "T": {"type": "DT_FLOAT"}, "data_format": {"s": "TkhXQw=="}, "strides": {"list": {"i": ["1", "1", "1", "1"]}}, "explicit_paddings": {"list": {}}, "use_cudnn_on_gpu": {"b": true}, "num_args": {"i": "1"}, "epsilon": {"f": 0.0}, "padding": {"s": "U0FNRQ=="}, "fused_ops": {"list": {"s": ["Qmlhc0FkZA==", "UmVsdQ=="]}}}}, {"name": "StatefulPartitionedCall/deeplabv3plus/reshape_17/strided_slice", "op": "StridedSlice", "input": ["StatefulPartitionedCall/deeplabv3plus/reshape_17/Shape", "StatefulPartitionedCall/deeplabv3plus/reshape_17/strided_slice/stack", "StatefulPartitionedCall/deeplabv3plus/reshape_17/strided_slice/stack_1", "StatefulPartitionedCall/deeplabv3plus/reshape_17/strided_slice/stack_2"], "attr": {"T": {"type": "DT_INT32"}, "Index": {"type": "DT_INT32"}, "shrink_axis_mask": {"i": "1"}, "ellipsis_mask": {"i": "0"}, "begin_mask": {"i": "0"}, "new_axis_mask": {"i": "0"}, "end_mask": {"i": "0"}}}, {"name": "StatefulPartitionedCall/deeplabv3plus/expanded_conv_3/squeeze_excite/Conv_1/BiasAdd", "op": "_FusedConv2D", "input": ["StatefulPartitionedCall/deeplabv3plus/expanded_conv_3/squeeze_excite/Relu/Relu", "StatefulPartitionedCall/deeplabv3plus/expanded_conv_3/squeeze_excite/Conv_1/Conv2D/ReadVariableOp", "StatefulPartitionedCall/deeplabv3plus/expanded_conv_3/squeeze_excite/Conv_1/BiasAdd/ReadVariableOp"], "device": "/device:CPU:0", "attr": {"dilations": {"list": {"i": ["1", "1", "1", "1"]}}, "T": {"type": "DT_FLOAT"}, "data_format": {"s": "TkhXQw=="}, "strides": {"list": {"i": ["1", "1", "1", "1"]}}, "explicit_paddings": {"list": {}}, "use_cudnn_on_gpu": {"b": true}, "num_args": {"i": "1"}, "epsilon": {"f": 0.0}, "padding": {"s": "U0FNRQ=="}, "fused_ops": {"list": {"s": ["Qmlhc0FkZA=="]}}}}, {"name": "StatefulPartitionedCall/deeplabv3plus/reshape_17/Reshape/shape", "op": "Pack", "input": ["StatefulPartitionedCall/deeplabv3plus/reshape_17/strided_slice", "StatefulPartitionedCall/deeplabv3plus/reshape_17/Reshape/shape/1", "StatefulPartitionedCall/deeplabv3plus/reshape_17/Reshape/shape/2", "StatefulPartitionedCall/deeplabv3plus/reshape_17/Reshape/shape/3"], "attr": {"T": {"type": "DT_INT32"}, "axis": {"i": "0"}, "N": {"i": "4"}}}, {"name": "StatefulPartitionedCall/deeplabv3plus/expanded_conv_3/squeeze_excite/HardSigmoid/add", "op": "AddV2", "input": ["StatefulPartitionedCall/deeplabv3plus/expanded_conv_3/squeeze_excite/Conv_1/BiasAdd", "StatefulPartitionedCall/deeplabv3plus/expanded_conv_3/squeeze_excite/HardSigmoid/add/y"], "attr": {"T": {"type": "DT_FLOAT"}}}, {"name": "StatefulPartitionedCall/deeplabv3plus/reshape_17/Reshape", "op": "Reshape", "input": ["StatefulPartitionedCall/deeplabv3plus/activation_27/Sigmoid", "StatefulPartitionedCall/deeplabv3plus/reshape_17/Reshape/shape"], "attr": {"T": {"type": "DT_FLOAT"}, "Tshape": {"type": "DT_INT32"}}}, {"name": "StatefulPartitionedCall/deeplabv3plus/expanded_conv_3/squeeze_excite/HardSigmoid/re_lu_19/Relu6", "op": "Relu6", "input": ["StatefulPartitionedCall/deeplabv3plus/expanded_conv_3/squeeze_excite/HardSigmoid/add"], "attr": {"T": {"type": "DT_FLOAT"}}}, {"name": "StatefulPartitionedCall/deeplabv3plus/multiply_6/mul", "op": "Mul", "input": ["StatefulPartitionedCall/deeplabv3plus/feature_projection0/Conv2D", "StatefulPartitionedCall/deeplabv3plus/reshape_17/Reshape"], "attr": {"T": {"type": "DT_FLOAT"}}}, {"name": "StatefulPartitionedCall/deeplabv3plus/expanded_conv_3/squeeze_excite/HardSigmoid/mul", "op": "Mul", "input": ["StatefulPartitionedCall/deeplabv3plus/expanded_conv_3/squeeze_excite/HardSigmoid/mul/y", "StatefulPartitionedCall/deeplabv3plus/expanded_conv_3/squeeze_excite/HardSigmoid/re_lu_19/Relu6"], "attr": {"_grappler_ArithmeticOptimizer_MinimizeBroadcasts": {"b": true}, "T": {"type": "DT_FLOAT"}}}, {"name": "StatefulPartitionedCall/deeplabv3plus/lambda_15/Mean", "op": "Mean", "input": ["StatefulPartitionedCall/deeplabv3plus/multiply_6/mul", "StatefulPartitionedCall/deeplabv3plus/lambda_15/Mean/reduction_indices"], "attr": {"keep_dims": {"b": true}, "Tidx": {"type": "DT_INT32"}, "T": {"type": "DT_FLOAT"}}}, {"name": "StatefulPartitionedCall/deeplabv3plus/lambda_16/Max", "op": "Max", "input": ["StatefulPartitionedCall/deeplabv3plus/multiply_6/mul", "StatefulPartitionedCall/deeplabv3plus/lambda_16/Max/reduction_indices"], "attr": {"keep_dims": {"b": true}, "Tidx": {"type": "DT_INT32"}, "T": {"type": "DT_FLOAT"}}}, {"name": "StatefulPartitionedCall/deeplabv3plus/expanded_conv_3/squeeze_excite/Mul/mul", "op": "Mul", "input": ["StatefulPartitionedCall/deeplabv3plus/expanded_conv_3/squeeze_excite/HardSigmoid/mul", "StatefulPartitionedCall/deeplabv3plus/expanded_conv_3/depthwise/depthwise"], "attr": {"_grappler_ArithmeticOptimizer_MinimizeBroadcasts": {"b": true}, "T": {"type": "DT_FLOAT"}}}, {"name": "StatefulPartitionedCall/deeplabv3plus/concatenate_14/concat", "op": "ConcatV2", "input": ["StatefulPartitionedCall/deeplabv3plus/lambda_15/Mean", "StatefulPartitionedCall/deeplabv3plus/lambda_16/Max", "StatefulPartitionedCall/deeplabv3plus/concatenate_14/concat/axis"], "attr": {"Tidx": {"type": "DT_INT32"}, "T": {"type": "DT_FLOAT"}, "N": {"i": "2"}}}, {"name": "StatefulPartitionedCall/deeplabv3plus/expanded_conv_3/project/BatchNorm/FusedBatchNormV3", "op": "_FusedConv2D", "input": ["StatefulPartitionedCall/deeplabv3plus/expanded_conv_3/squeeze_excite/Mul/mul", "StatefulPartitionedCall/deeplabv3plus/expanded_conv_3/project/Conv2D_weights", "StatefulPartitionedCall/deeplabv3plus/expanded_conv_3/project/Conv2D_bn_offset"], "device": "/device:CPU:0", "attr": {"dilations": {"list": {"i": ["1", "1", "1", "1"]}}, "T": {"type": "DT_FLOAT"}, "data_format": {"s": "TkhXQw=="}, "strides": {"list": {"i": ["1", "1", "1", "1"]}}, "explicit_paddings": {"list": {}}, "use_cudnn_on_gpu": {"b": true}, "num_args": {"i": "1"}, "epsilon": {"f": 0.0}, "padding": {"s": "U0FNRQ=="}, "fused_ops": {"list": {"s": ["Qmlhc0FkZA=="]}}}}, {"name": "StatefulPartitionedCall/deeplabv3plus/conv2d_5/Conv2D", "op": "Conv2D", "input": ["StatefulPartitionedCall/deeplabv3plus/concatenate_14/concat", "StatefulPartitionedCall/deeplabv3plus/conv2d_5/Conv2D/ReadVariableOp"], "device": "/device:CPU:0", "attr": {"dilations": {"list": {"i": ["1", "1", "1", "1"]}}, "T": {"type": "DT_FLOAT"}, "data_format": {"s": "TkhXQw=="}, "strides": {"list": {"i": ["1", "1", "1", "1"]}}, "use_cudnn_on_gpu": {"b": true}, "explicit_paddings": {"list": {}}, "padding": {"s": "U0FNRQ=="}}}, {"name": "StatefulPartitionedCall/deeplabv3plus/expanded_conv_4/expand/ReLU/Relu", "op": "_FusedConv2D", "input": ["StatefulPartitionedCall/deeplabv3plus/expanded_conv_3/project/BatchNorm/FusedBatchNormV3", "StatefulPartitionedCall/deeplabv3plus/expanded_conv_4/expand/Conv2D_weights", "StatefulPartitionedCall/deeplabv3plus/expanded_conv_4/expand/Conv2D_bn_offset"], "device": "/device:CPU:0", "attr": {"dilations": {"list": {"i": ["1", "1", "1", "1"]}}, "T": {"type": "DT_FLOAT"}, "data_format": {"s": "TkhXQw=="}, "strides": {"list": {"i": ["1", "1", "1", "1"]}}, "explicit_paddings": {"list": {}}, "use_cudnn_on_gpu": {"b": true}, "num_args": {"i": "1"}, "epsilon": {"f": 0.0}, "padding": {"s": "U0FNRQ=="}, "fused_ops": {"list": {"s": ["Qmlhc0FkZA==", "UmVsdQ=="]}}}}, {"name": "StatefulPartitionedCall/deeplabv3plus/activation_28/Sigmoid", "op": "Sigmoid", "input": ["StatefulPartitionedCall/deeplabv3plus/conv2d_5/Conv2D"], "attr": {"T": {"type": "DT_FLOAT"}}}, {"name": "StatefulPartitionedCall/deeplabv3plus/expanded_conv_4/depthwise/depthwise", "op": "FusedDepthwiseConv2dNative", "input": ["StatefulPartitionedCall/deeplabv3plus/expanded_conv_4/expand/ReLU/Relu", "StatefulPartitionedCall/deeplabv3plus/expanded_conv_4/depthwise/depthwise_weights", "StatefulPartitionedCall/deeplabv3plus/expanded_conv_4/depthwise/depthwise_bn_offset"], "attr": {"dilations": {"list": {"i": ["1", "1", "1", "1"]}}, "T": {"type": "DT_FLOAT"}, "data_format": {"s": "TkhXQw=="}, "strides": {"list": {"i": ["1", "1", "1", "1"]}}, "explicit_paddings": {"list": {}}, "padding": {"s": "U0FNRQ=="}, "num_args": {"i": "1"}, "fused_ops": {"list": {"s": ["Qmlhc0FkZA==", "UmVsdQ=="]}}}}, {"name": "StatefulPartitionedCall/deeplabv3plus/multiply_7/mul", "op": "Mul", "input": ["StatefulPartitionedCall/deeplabv3plus/feature_projection0_BN/FusedBatchNormV3/Scaled", "StatefulPartitionedCall/deeplabv3plus/activation_28/Sigmoid"], "attr": {"_grappler_ArithmeticOptimizer_MinimizeBroadcasts": {"b": true}, "T": {"type": "DT_FLOAT"}}}, {"name": "StatefulPartitionedCall/deeplabv3plus/feature_projection0_BN/FusedBatchNormV3/Mul", "op": "Mul", "input": ["StatefulPartitionedCall/deeplabv3plus/multiply_7/mul", "StatefulPartitionedCall/deeplabv3plus/multiply_6/mul"], "attr": {"_grappler_ArithmeticOptimizer_MinimizeBroadcasts": {"b": true}, "T": {"type": "DT_FLOAT"}}}, {"name": "StatefulPartitionedCall/deeplabv3plus/feature_projection0_BN/FusedBatchNormV3", "op": "Add", "input": ["StatefulPartitionedCall/deeplabv3plus/feature_projection0_BN/FusedBatchNormV3/Mul", "StatefulPartitionedCall/deeplabv3plus/feature_projection0_BN/FusedBatchNormV3/Offset"], "attr": {"T": {"type": "DT_FLOAT"}}}, {"name": "StatefulPartitionedCall/deeplabv3plus/expanded_conv_4/squeeze_excite/AvgPool/Mean", "op": "Mean", "input": ["StatefulPartitionedCall/deeplabv3plus/expanded_conv_4/depthwise/depthwise", "StatefulPartitionedCall/deeplabv3plus/expanded_conv_4/squeeze_excite/AvgPool/Mean/reduction_indices"], "attr": {"keep_dims": {"b": false}, "Tidx": {"type": "DT_INT32"}, "T": {"type": "DT_FLOAT"}}}, {"name": "StatefulPartitionedCall/deeplabv3plus/activation_29/Relu", "op": "Relu", "input": ["StatefulPartitionedCall/deeplabv3plus/feature_projection0_BN/FusedBatchNormV3"], "attr": {"T": {"type": "DT_FLOAT"}}}, {"name": "StatefulPartitionedCall/deeplabv3plus/reshape_10/Shape", "op": "Shape", "input": ["StatefulPartitionedCall/deeplabv3plus/expanded_conv_4/squeeze_excite/AvgPool/Mean"], "attr": {"T": {"type": "DT_FLOAT"}, "out_type": {"type": "DT_INT32"}}}, {"name": "StatefulPartitionedCall/deeplabv3plus/reshape_10/strided_slice", "op": "StridedSlice", "input": ["StatefulPartitionedCall/deeplabv3plus/reshape_10/Shape", "StatefulPartitionedCall/deeplabv3plus/reshape_10/strided_slice/stack", "StatefulPartitionedCall/deeplabv3plus/reshape_10/strided_slice/stack_1", "StatefulPartitionedCall/deeplabv3plus/reshape_10/strided_slice/stack_2"], "attr": {"T": {"type": "DT_INT32"}, "Index": {"type": "DT_INT32"}, "shrink_axis_mask": {"i": "1"}, "ellipsis_mask": {"i": "0"}, "begin_mask": {"i": "0"}, "new_axis_mask": {"i": "0"}, "end_mask": {"i": "0"}}}, {"name": "StatefulPartitionedCall/deeplabv3plus/reshape_10/Reshape/shape", "op": "Pack", "input": ["StatefulPartitionedCall/deeplabv3plus/reshape_10/strided_slice", "StatefulPartitionedCall/deeplabv3plus/reshape_10/Reshape/shape/1", "StatefulPartitionedCall/deeplabv3plus/reshape_10/Reshape/shape/2", "StatefulPartitionedCall/deeplabv3plus/reshape_10/Reshape/shape/3"], "attr": {"T": {"type": "DT_INT32"}, "axis": {"i": "0"}, "N": {"i": "4"}}}, {"name": "StatefulPartitionedCall/deeplabv3plus/reshape_10/Reshape", "op": "Reshape", "input": ["StatefulPartitionedCall/deeplabv3plus/expanded_conv_4/squeeze_excite/AvgPool/Mean", "StatefulPartitionedCall/deeplabv3plus/reshape_10/Reshape/shape"], "attr": {"T": {"type": "DT_FLOAT"}, "Tshape": {"type": "DT_INT32"}}}, {"name": "StatefulPartitionedCall/deeplabv3plus/expanded_conv_4/squeeze_excite/Relu/Relu", "op": "_FusedConv2D", "input": ["StatefulPartitionedCall/deeplabv3plus/reshape_10/Reshape", "StatefulPartitionedCall/deeplabv3plus/expanded_conv_4/squeeze_excite/Conv/Conv2D/ReadVariableOp", "StatefulPartitionedCall/deeplabv3plus/expanded_conv_4/squeeze_excite/Conv/BiasAdd/ReadVariableOp"], "device": "/device:CPU:0", "attr": {"dilations": {"list": {"i": ["1", "1", "1", "1"]}}, "T": {"type": "DT_FLOAT"}, "data_format": {"s": "TkhXQw=="}, "strides": {"list": {"i": ["1", "1", "1", "1"]}}, "explicit_paddings": {"list": {}}, "use_cudnn_on_gpu": {"b": true}, "num_args": {"i": "1"}, "epsilon": {"f": 0.0}, "padding": {"s": "U0FNRQ=="}, "fused_ops": {"list": {"s": ["Qmlhc0FkZA==", "UmVsdQ=="]}}}}, {"name": "StatefulPartitionedCall/deeplabv3plus/expanded_conv_4/squeeze_excite/Conv_1/BiasAdd", "op": "_FusedConv2D", "input": ["StatefulPartitionedCall/deeplabv3plus/expanded_conv_4/squeeze_excite/Relu/Relu", "StatefulPartitionedCall/deeplabv3plus/expanded_conv_4/squeeze_excite/Conv_1/Conv2D/ReadVariableOp", "StatefulPartitionedCall/deeplabv3plus/expanded_conv_4/squeeze_excite/Conv_1/BiasAdd/ReadVariableOp"], "device": "/device:CPU:0", "attr": {"dilations": {"list": {"i": ["1", "1", "1", "1"]}}, "T": {"type": "DT_FLOAT"}, "data_format": {"s": "TkhXQw=="}, "strides": {"list": {"i": ["1", "1", "1", "1"]}}, "explicit_paddings": {"list": {}}, "use_cudnn_on_gpu": {"b": true}, "num_args": {"i": "1"}, "epsilon": {"f": 0.0}, "padding": {"s": "U0FNRQ=="}, "fused_ops": {"list": {"s": ["Qmlhc0FkZA=="]}}}}, {"name": "StatefulPartitionedCall/deeplabv3plus/expanded_conv_4/squeeze_excite/HardSigmoid/add", "op": "AddV2", "input": ["StatefulPartitionedCall/deeplabv3plus/expanded_conv_4/squeeze_excite/Conv_1/BiasAdd", "StatefulPartitionedCall/deeplabv3plus/expanded_conv_4/squeeze_excite/HardSigmoid/add/y"], "attr": {"T": {"type": "DT_FLOAT"}}}, {"name": "StatefulPartitionedCall/deeplabv3plus/expanded_conv_4/squeeze_excite/HardSigmoid/re_lu_20/Relu6", "op": "Relu6", "input": ["StatefulPartitionedCall/deeplabv3plus/expanded_conv_4/squeeze_excite/HardSigmoid/add"], "attr": {"T": {"type": "DT_FLOAT"}}}, {"name": "StatefulPartitionedCall/deeplabv3plus/expanded_conv_4/squeeze_excite/HardSigmoid/mul", "op": "Mul", "input": ["StatefulPartitionedCall/deeplabv3plus/expanded_conv_4/squeeze_excite/HardSigmoid/mul/y", "StatefulPartitionedCall/deeplabv3plus/expanded_conv_4/squeeze_excite/HardSigmoid/re_lu_20/Relu6"], "attr": {"_grappler_ArithmeticOptimizer_MinimizeBroadcasts": {"b": true}, "T": {"type": "DT_FLOAT"}}}, {"name": "StatefulPartitionedCall/deeplabv3plus/expanded_conv_4/squeeze_excite/Mul/mul", "op": "Mul", "input": ["StatefulPartitionedCall/deeplabv3plus/expanded_conv_4/squeeze_excite/HardSigmoid/mul", "StatefulPartitionedCall/deeplabv3plus/expanded_conv_4/depthwise/depthwise"], "attr": {"_grappler_ArithmeticOptimizer_MinimizeBroadcasts": {"b": true}, "T": {"type": "DT_FLOAT"}}}, {"name": "StatefulPartitionedCall/deeplabv3plus/expanded_conv_4/project/BatchNorm/FusedBatchNormV3", "op": "_FusedConv2D", "input": ["StatefulPartitionedCall/deeplabv3plus/expanded_conv_4/squeeze_excite/Mul/mul", "StatefulPartitionedCall/deeplabv3plus/expanded_conv_4/project/Conv2D_weights", "StatefulPartitionedCall/deeplabv3plus/expanded_conv_4/project/Conv2D_bn_offset"], "device": "/device:CPU:0", "attr": {"dilations": {"list": {"i": ["1", "1", "1", "1"]}}, "T": {"type": "DT_FLOAT"}, "data_format": {"s": "TkhXQw=="}, "strides": {"list": {"i": ["1", "1", "1", "1"]}}, "explicit_paddings": {"list": {}}, "use_cudnn_on_gpu": {"b": true}, "num_args": {"i": "1"}, "epsilon": {"f": 0.0}, "padding": {"s": "U0FNRQ=="}, "fused_ops": {"list": {"s": ["Qmlhc0FkZA=="]}}}}, {"name": "StatefulPartitionedCall/deeplabv3plus/expanded_conv_4/Add/add", "op": "AddV2", "input": ["StatefulPartitionedCall/deeplabv3plus/expanded_conv_3/project/BatchNorm/FusedBatchNormV3", "StatefulPartitionedCall/deeplabv3plus/expanded_conv_4/project/BatchNorm/FusedBatchNormV3"], "attr": {"T": {"type": "DT_FLOAT"}}}, {"name": "StatefulPartitionedCall/deeplabv3plus/expanded_conv_5/expand/ReLU/Relu", "op": "_FusedConv2D", "input": ["StatefulPartitionedCall/deeplabv3plus/expanded_conv_4/Add/add", "StatefulPartitionedCall/deeplabv3plus/expanded_conv_5/expand/Conv2D_weights", "StatefulPartitionedCall/deeplabv3plus/expanded_conv_5/expand/Conv2D_bn_offset"], "device": "/device:CPU:0", "attr": {"dilations": {"list": {"i": ["1", "1", "1", "1"]}}, "T": {"type": "DT_FLOAT"}, "data_format": {"s": "TkhXQw=="}, "strides": {"list": {"i": ["1", "1", "1", "1"]}}, "explicit_paddings": {"list": {}}, "use_cudnn_on_gpu": {"b": true}, "num_args": {"i": "1"}, "epsilon": {"f": 0.0}, "padding": {"s": "U0FNRQ=="}, "fused_ops": {"list": {"s": ["Qmlhc0FkZA==", "UmVsdQ=="]}}}}, {"name": "StatefulPartitionedCall/deeplabv3plus/expanded_conv_5/depthwise/depthwise", "op": "FusedDepthwiseConv2dNative", "input": ["StatefulPartitionedCall/deeplabv3plus/expanded_conv_5/expand/ReLU/Relu", "StatefulPartitionedCall/deeplabv3plus/expanded_conv_5/depthwise/depthwise_weights", "StatefulPartitionedCall/deeplabv3plus/expanded_conv_5/depthwise/depthwise_bn_offset"], "attr": {"dilations": {"list": {"i": ["1", "1", "1", "1"]}}, "T": {"type": "DT_FLOAT"}, "data_format": {"s": "TkhXQw=="}, "strides": {"list": {"i": ["1", "1", "1", "1"]}}, "explicit_paddings": {"list": {}}, "padding": {"s": "U0FNRQ=="}, "num_args": {"i": "1"}, "fused_ops": {"list": {"s": ["Qmlhc0FkZA==", "UmVsdQ=="]}}}}, {"name": "StatefulPartitionedCall/deeplabv3plus/expanded_conv_5/squeeze_excite/AvgPool/Mean", "op": "Mean", "input": ["StatefulPartitionedCall/deeplabv3plus/expanded_conv_5/depthwise/depthwise", "StatefulPartitionedCall/deeplabv3plus/expanded_conv_5/squeeze_excite/AvgPool/Mean/reduction_indices"], "attr": {"keep_dims": {"b": false}, "Tidx": {"type": "DT_INT32"}, "T": {"type": "DT_FLOAT"}}}, {"name": "StatefulPartitionedCall/deeplabv3plus/reshape_11/Shape", "op": "Shape", "input": ["StatefulPartitionedCall/deeplabv3plus/expanded_conv_5/squeeze_excite/AvgPool/Mean"], "attr": {"T": {"type": "DT_FLOAT"}, "out_type": {"type": "DT_INT32"}}}, {"name": "StatefulPartitionedCall/deeplabv3plus/reshape_11/strided_slice", "op": "StridedSlice", "input": ["StatefulPartitionedCall/deeplabv3plus/reshape_11/Shape", "StatefulPartitionedCall/deeplabv3plus/reshape_11/strided_slice/stack", "StatefulPartitionedCall/deeplabv3plus/reshape_11/strided_slice/stack_1", "StatefulPartitionedCall/deeplabv3plus/reshape_11/strided_slice/stack_2"], "attr": {"T": {"type": "DT_INT32"}, "Index": {"type": "DT_INT32"}, "shrink_axis_mask": {"i": "1"}, "ellipsis_mask": {"i": "0"}, "begin_mask": {"i": "0"}, "new_axis_mask": {"i": "0"}, "end_mask": {"i": "0"}}}, {"name": "StatefulPartitionedCall/deeplabv3plus/reshape_11/Reshape/shape", "op": "Pack", "input": ["StatefulPartitionedCall/deeplabv3plus/reshape_11/strided_slice", "StatefulPartitionedCall/deeplabv3plus/reshape_11/Reshape/shape/1", "StatefulPartitionedCall/deeplabv3plus/reshape_11/Reshape/shape/2", "StatefulPartitionedCall/deeplabv3plus/reshape_11/Reshape/shape/3"], "attr": {"T": {"type": "DT_INT32"}, "axis": {"i": "0"}, "N": {"i": "4"}}}, {"name": "StatefulPartitionedCall/deeplabv3plus/reshape_11/Reshape", "op": "Reshape", "input": ["StatefulPartitionedCall/deeplabv3plus/expanded_conv_5/squeeze_excite/AvgPool/Mean", "StatefulPartitionedCall/deeplabv3plus/reshape_11/Reshape/shape"], "attr": {"T": {"type": "DT_FLOAT"}, "Tshape": {"type": "DT_INT32"}}}, {"name": "StatefulPartitionedCall/deeplabv3plus/expanded_conv_5/squeeze_excite/Relu/Relu", "op": "_FusedConv2D", "input": ["StatefulPartitionedCall/deeplabv3plus/reshape_11/Reshape", "StatefulPartitionedCall/deeplabv3plus/expanded_conv_5/squeeze_excite/Conv/Conv2D/ReadVariableOp", "StatefulPartitionedCall/deeplabv3plus/expanded_conv_5/squeeze_excite/Conv/BiasAdd/ReadVariableOp"], "device": "/device:CPU:0", "attr": {"dilations": {"list": {"i": ["1", "1", "1", "1"]}}, "T": {"type": "DT_FLOAT"}, "data_format": {"s": "TkhXQw=="}, "strides": {"list": {"i": ["1", "1", "1", "1"]}}, "explicit_paddings": {"list": {}}, "use_cudnn_on_gpu": {"b": true}, "num_args": {"i": "1"}, "epsilon": {"f": 0.0}, "padding": {"s": "U0FNRQ=="}, "fused_ops": {"list": {"s": ["Qmlhc0FkZA==", "UmVsdQ=="]}}}}, {"name": "StatefulPartitionedCall/deeplabv3plus/expanded_conv_5/squeeze_excite/Conv_1/BiasAdd", "op": "_FusedConv2D", "input": ["StatefulPartitionedCall/deeplabv3plus/expanded_conv_5/squeeze_excite/Relu/Relu", "StatefulPartitionedCall/deeplabv3plus/expanded_conv_5/squeeze_excite/Conv_1/Conv2D/ReadVariableOp", "StatefulPartitionedCall/deeplabv3plus/expanded_conv_5/squeeze_excite/Conv_1/BiasAdd/ReadVariableOp"], "device": "/device:CPU:0", "attr": {"dilations": {"list": {"i": ["1", "1", "1", "1"]}}, "T": {"type": "DT_FLOAT"}, "data_format": {"s": "TkhXQw=="}, "strides": {"list": {"i": ["1", "1", "1", "1"]}}, "explicit_paddings": {"list": {}}, "use_cudnn_on_gpu": {"b": true}, "num_args": {"i": "1"}, "epsilon": {"f": 0.0}, "padding": {"s": "U0FNRQ=="}, "fused_ops": {"list": {"s": ["Qmlhc0FkZA=="]}}}}, {"name": "StatefulPartitionedCall/deeplabv3plus/expanded_conv_5/squeeze_excite/HardSigmoid/add", "op": "AddV2", "input": ["StatefulPartitionedCall/deeplabv3plus/expanded_conv_5/squeeze_excite/Conv_1/BiasAdd", "StatefulPartitionedCall/deeplabv3plus/expanded_conv_5/squeeze_excite/HardSigmoid/add/y"], "attr": {"T": {"type": "DT_FLOAT"}}}, {"name": "StatefulPartitionedCall/deeplabv3plus/expanded_conv_5/squeeze_excite/HardSigmoid/re_lu_21/Relu6", "op": "Relu6", "input": ["StatefulPartitionedCall/deeplabv3plus/expanded_conv_5/squeeze_excite/HardSigmoid/add"], "attr": {"T": {"type": "DT_FLOAT"}}}, {"name": "StatefulPartitionedCall/deeplabv3plus/expanded_conv_5/squeeze_excite/HardSigmoid/mul", "op": "Mul", "input": ["StatefulPartitionedCall/deeplabv3plus/expanded_conv_5/squeeze_excite/HardSigmoid/mul/y", "StatefulPartitionedCall/deeplabv3plus/expanded_conv_5/squeeze_excite/HardSigmoid/re_lu_21/Relu6"], "attr": {"_grappler_ArithmeticOptimizer_MinimizeBroadcasts": {"b": true}, "T": {"type": "DT_FLOAT"}}}, {"name": "StatefulPartitionedCall/deeplabv3plus/expanded_conv_5/squeeze_excite/Mul/mul", "op": "Mul", "input": ["StatefulPartitionedCall/deeplabv3plus/expanded_conv_5/squeeze_excite/HardSigmoid/mul", "StatefulPartitionedCall/deeplabv3plus/expanded_conv_5/depthwise/depthwise"], "attr": {"_grappler_ArithmeticOptimizer_MinimizeBroadcasts": {"b": true}, "T": {"type": "DT_FLOAT"}}}, {"name": "StatefulPartitionedCall/deeplabv3plus/expanded_conv_5/project/BatchNorm/FusedBatchNormV3", "op": "_FusedConv2D", "input": ["StatefulPartitionedCall/deeplabv3plus/expanded_conv_5/squeeze_excite/Mul/mul", "StatefulPartitionedCall/deeplabv3plus/expanded_conv_5/project/Conv2D_weights", "StatefulPartitionedCall/deeplabv3plus/expanded_conv_5/project/Conv2D_bn_offset"], "device": "/device:CPU:0", "attr": {"dilations": {"list": {"i": ["1", "1", "1", "1"]}}, "T": {"type": "DT_FLOAT"}, "data_format": {"s": "TkhXQw=="}, "strides": {"list": {"i": ["1", "1", "1", "1"]}}, "explicit_paddings": {"list": {}}, "use_cudnn_on_gpu": {"b": true}, "num_args": {"i": "1"}, "epsilon": {"f": 0.0}, "padding": {"s": "U0FNRQ=="}, "fused_ops": {"list": {"s": ["Qmlhc0FkZA=="]}}}}, {"name": "StatefulPartitionedCall/deeplabv3plus/expanded_conv_5/Add/add", "op": "AddV2", "input": ["StatefulPartitionedCall/deeplabv3plus/expanded_conv_4/Add/add", "StatefulPartitionedCall/deeplabv3plus/expanded_conv_5/project/BatchNorm/FusedBatchNormV3"], "attr": {"T": {"type": "DT_FLOAT"}}}, {"name": "StatefulPartitionedCall/deeplabv3plus/expanded_conv_6/expand/BatchNorm/FusedBatchNormV3", "op": "_FusedConv2D", "input": ["StatefulPartitionedCall/deeplabv3plus/expanded_conv_5/Add/add", "StatefulPartitionedCall/deeplabv3plus/expanded_conv_6/expand/Conv2D_weights", "StatefulPartitionedCall/deeplabv3plus/expanded_conv_6/expand/Conv2D_bn_offset"], "device": "/device:CPU:0", "attr": {"dilations": {"list": {"i": ["1", "1", "1", "1"]}}, "T": {"type": "DT_FLOAT"}, "data_format": {"s": "TkhXQw=="}, "strides": {"list": {"i": ["1", "1", "1", "1"]}}, "explicit_paddings": {"list": {}}, "use_cudnn_on_gpu": {"b": true}, "num_args": {"i": "1"}, "epsilon": {"f": 0.0}, "padding": {"s": "U0FNRQ=="}, "fused_ops": {"list": {"s": ["Qmlhc0FkZA=="]}}}}, {"name": "StatefulPartitionedCall/deeplabv3plus/expanded_conv_6/expand/HardSwish/hard_sigmoid_14/add", "op": "AddV2", "input": ["StatefulPartitionedCall/deeplabv3plus/expanded_conv_6/expand/BatchNorm/FusedBatchNormV3", "StatefulPartitionedCall/deeplabv3plus/expanded_conv_6/expand/HardSwish/hard_sigmoid_14/add/y"], "attr": {"T": {"type": "DT_FLOAT"}}}, {"name": "StatefulPartitionedCall/deeplabv3plus/expanded_conv_6/expand/HardSwish/hard_sigmoid_14/re_lu_22/Relu6", "op": "Relu6", "input": ["StatefulPartitionedCall/deeplabv3plus/expanded_conv_6/expand/HardSwish/hard_sigmoid_14/add"], "attr": {"T": {"type": "DT_FLOAT"}}}, {"name": "StatefulPartitionedCall/deeplabv3plus/expanded_conv_6/expand/HardSwish/hard_sigmoid_14/mul", "op": "Mul", "input": ["StatefulPartitionedCall/deeplabv3plus/expanded_conv_6/expand/HardSwish/hard_sigmoid_14/mul/y", "StatefulPartitionedCall/deeplabv3plus/expanded_conv_6/expand/HardSwish/hard_sigmoid_14/re_lu_22/Relu6"], "attr": {"_grappler_ArithmeticOptimizer_MinimizeBroadcasts": {"b": true}, "T": {"type": "DT_FLOAT"}}}, {"name": "StatefulPartitionedCall/deeplabv3plus/expanded_conv_6/expand/HardSwish/mul", "op": "Mul", "input": ["StatefulPartitionedCall/deeplabv3plus/expanded_conv_6/expand/HardSwish/hard_sigmoid_14/mul", "StatefulPartitionedCall/deeplabv3plus/expanded_conv_6/expand/BatchNorm/FusedBatchNormV3"], "attr": {"_grappler_ArithmeticOptimizer_MinimizeBroadcasts": {"b": true}, "T": {"type": "DT_FLOAT"}}}, {"name": "StatefulPartitionedCall/deeplabv3plus/expanded_conv_6/depthwise/pad/Pad", "op": "Pad", "input": ["StatefulPartitionedCall/deeplabv3plus/expanded_conv_6/expand/HardSwish/mul", "StatefulPartitionedCall/deeplabv3plus/expanded_conv_6/depthwise/pad/Pad/paddings"], "attr": {"T": {"type": "DT_FLOAT"}, "Tpaddings": {"type": "DT_INT32"}}}, {"name": "StatefulPartitionedCall/deeplabv3plus/expanded_conv_6/depthwise/depthwise", "op": "FusedDepthwiseConv2dNative", "input": ["StatefulPartitionedCall/deeplabv3plus/expanded_conv_6/depthwise/pad/Pad", "StatefulPartitionedCall/deeplabv3plus/expanded_conv_6/depthwise/depthwise_weights", "StatefulPartitionedCall/deeplabv3plus/expanded_conv_6/depthwise/depthwise_bn_offset"], "attr": {"dilations": {"list": {"i": ["1", "1", "1", "1"]}}, "T": {"type": "DT_FLOAT"}, "data_format": {"s": "TkhXQw=="}, "strides": {"list": {"i": ["1", "2", "2", "1"]}}, "explicit_paddings": {"list": {}}, "padding": {"s": "VkFMSUQ="}, "num_args": {"i": "1"}, "fused_ops": {"list": {"s": ["Qmlhc0FkZA=="]}}}}, {"name": "StatefulPartitionedCall/deeplabv3plus/expanded_conv_6/depthwise/HardSwish/hard_sigmoid_15/add", "op": "AddV2", "input": ["StatefulPartitionedCall/deeplabv3plus/expanded_conv_6/depthwise/depthwise", "StatefulPartitionedCall/deeplabv3plus/expanded_conv_6/depthwise/HardSwish/hard_sigmoid_15/add/y"], "attr": {"T": {"type": "DT_FLOAT"}}}, {"name": "StatefulPartitionedCall/deeplabv3plus/expanded_conv_6/depthwise/HardSwish/hard_sigmoid_15/re_lu_23/Relu6", "op": "Relu6", "input": ["StatefulPartitionedCall/deeplabv3plus/expanded_conv_6/depthwise/HardSwish/hard_sigmoid_15/add"], "attr": {"T": {"type": "DT_FLOAT"}}}, {"name": "StatefulPartitionedCall/deeplabv3plus/expanded_conv_6/depthwise/HardSwish/hard_sigmoid_15/mul", "op": "Mul", "input": ["StatefulPartitionedCall/deeplabv3plus/expanded_conv_6/depthwise/HardSwish/hard_sigmoid_15/mul/y", "StatefulPartitionedCall/deeplabv3plus/expanded_conv_6/depthwise/HardSwish/hard_sigmoid_15/re_lu_23/Relu6"], "attr": {"_grappler_ArithmeticOptimizer_MinimizeBroadcasts": {"b": true}, "T": {"type": "DT_FLOAT"}}}, {"name": "StatefulPartitionedCall/deeplabv3plus/expanded_conv_6/depthwise/HardSwish/mul", "op": "Mul", "input": ["StatefulPartitionedCall/deeplabv3plus/expanded_conv_6/depthwise/HardSwish/hard_sigmoid_15/mul", "StatefulPartitionedCall/deeplabv3plus/expanded_conv_6/depthwise/depthwise"], "attr": {"_grappler_ArithmeticOptimizer_MinimizeBroadcasts": {"b": true}, "T": {"type": "DT_FLOAT"}}}, {"name": "StatefulPartitionedCall/deeplabv3plus/expanded_conv_6/project/BatchNorm/FusedBatchNormV3", "op": "_FusedConv2D", "input": ["StatefulPartitionedCall/deeplabv3plus/expanded_conv_6/depthwise/HardSwish/mul", "StatefulPartitionedCall/deeplabv3plus/expanded_conv_6/project/Conv2D_weights", "StatefulPartitionedCall/deeplabv3plus/expanded_conv_6/project/Conv2D_bn_offset"], "device": "/device:CPU:0", "attr": {"dilations": {"list": {"i": ["1", "1", "1", "1"]}}, "T": {"type": "DT_FLOAT"}, "data_format": {"s": "TkhXQw=="}, "strides": {"list": {"i": ["1", "1", "1", "1"]}}, "explicit_paddings": {"list": {}}, "use_cudnn_on_gpu": {"b": true}, "num_args": {"i": "1"}, "epsilon": {"f": 0.0}, "padding": {"s": "U0FNRQ=="}, "fused_ops": {"list": {"s": ["Qmlhc0FkZA=="]}}}}, {"name": "StatefulPartitionedCall/deeplabv3plus/expanded_conv_7/expand/BatchNorm/FusedBatchNormV3", "op": "_FusedConv2D", "input": ["StatefulPartitionedCall/deeplabv3plus/expanded_conv_6/project/BatchNorm/FusedBatchNormV3", "StatefulPartitionedCall/deeplabv3plus/expanded_conv_7/expand/Conv2D_weights", "StatefulPartitionedCall/deeplabv3plus/expanded_conv_7/expand/Conv2D_bn_offset"], "device": "/device:CPU:0", "attr": {"dilations": {"list": {"i": ["1", "1", "1", "1"]}}, "T": {"type": "DT_FLOAT"}, "data_format": {"s": "TkhXQw=="}, "strides": {"list": {"i": ["1", "1", "1", "1"]}}, "explicit_paddings": {"list": {}}, "use_cudnn_on_gpu": {"b": true}, "num_args": {"i": "1"}, "epsilon": {"f": 0.0}, "padding": {"s": "U0FNRQ=="}, "fused_ops": {"list": {"s": ["Qmlhc0FkZA=="]}}}}, {"name": "StatefulPartitionedCall/deeplabv3plus/expanded_conv_7/expand/HardSwish/hard_sigmoid_16/add", "op": "AddV2", "input": ["StatefulPartitionedCall/deeplabv3plus/expanded_conv_7/expand/BatchNorm/FusedBatchNormV3", "StatefulPartitionedCall/deeplabv3plus/expanded_conv_7/expand/HardSwish/hard_sigmoid_16/add/y"], "attr": {"T": {"type": "DT_FLOAT"}}}, {"name": "StatefulPartitionedCall/deeplabv3plus/expanded_conv_7/expand/HardSwish/hard_sigmoid_16/re_lu_24/Relu6", "op": "Relu6", "input": ["StatefulPartitionedCall/deeplabv3plus/expanded_conv_7/expand/HardSwish/hard_sigmoid_16/add"], "attr": {"T": {"type": "DT_FLOAT"}}}, {"name": "StatefulPartitionedCall/deeplabv3plus/expanded_conv_7/expand/HardSwish/hard_sigmoid_16/mul", "op": "Mul", "input": ["StatefulPartitionedCall/deeplabv3plus/expanded_conv_7/expand/HardSwish/hard_sigmoid_16/mul/y", "StatefulPartitionedCall/deeplabv3plus/expanded_conv_7/expand/HardSwish/hard_sigmoid_16/re_lu_24/Relu6"], "attr": {"_grappler_ArithmeticOptimizer_MinimizeBroadcasts": {"b": true}, "T": {"type": "DT_FLOAT"}}}, {"name": "StatefulPartitionedCall/deeplabv3plus/expanded_conv_7/expand/HardSwish/mul", "op": "Mul", "input": ["StatefulPartitionedCall/deeplabv3plus/expanded_conv_7/expand/HardSwish/hard_sigmoid_16/mul", "StatefulPartitionedCall/deeplabv3plus/expanded_conv_7/expand/BatchNorm/FusedBatchNormV3"], "attr": {"_grappler_ArithmeticOptimizer_MinimizeBroadcasts": {"b": true}, "T": {"type": "DT_FLOAT"}}}, {"name": "StatefulPartitionedCall/deeplabv3plus/expanded_conv_7/depthwise/depthwise", "op": "FusedDepthwiseConv2dNative", "input": ["StatefulPartitionedCall/deeplabv3plus/expanded_conv_7/expand/HardSwish/mul", "StatefulPartitionedCall/deeplabv3plus/expanded_conv_7/depthwise/depthwise_weights", "StatefulPartitionedCall/deeplabv3plus/expanded_conv_7/depthwise/depthwise_bn_offset"], "attr": {"dilations": {"list": {"i": ["1", "1", "1", "1"]}}, "T": {"type": "DT_FLOAT"}, "data_format": {"s": "TkhXQw=="}, "strides": {"list": {"i": ["1", "1", "1", "1"]}}, "explicit_paddings": {"list": {}}, "padding": {"s": "U0FNRQ=="}, "num_args": {"i": "1"}, "fused_ops": {"list": {"s": ["Qmlhc0FkZA=="]}}}}, {"name": "StatefulPartitionedCall/deeplabv3plus/expanded_conv_7/depthwise/HardSwish/hard_sigmoid_17/add", "op": "AddV2", "input": ["StatefulPartitionedCall/deeplabv3plus/expanded_conv_7/depthwise/depthwise", "StatefulPartitionedCall/deeplabv3plus/expanded_conv_7/depthwise/HardSwish/hard_sigmoid_17/add/y"], "attr": {"T": {"type": "DT_FLOAT"}}}, {"name": "StatefulPartitionedCall/deeplabv3plus/expanded_conv_7/depthwise/HardSwish/hard_sigmoid_17/re_lu_25/Relu6", "op": "Relu6", "input": ["StatefulPartitionedCall/deeplabv3plus/expanded_conv_7/depthwise/HardSwish/hard_sigmoid_17/add"], "attr": {"T": {"type": "DT_FLOAT"}}}, {"name": "StatefulPartitionedCall/deeplabv3plus/expanded_conv_7/depthwise/HardSwish/hard_sigmoid_17/mul", "op": "Mul", "input": ["StatefulPartitionedCall/deeplabv3plus/expanded_conv_7/depthwise/HardSwish/hard_sigmoid_17/mul/y", "StatefulPartitionedCall/deeplabv3plus/expanded_conv_7/depthwise/HardSwish/hard_sigmoid_17/re_lu_25/Relu6"], "attr": {"_grappler_ArithmeticOptimizer_MinimizeBroadcasts": {"b": true}, "T": {"type": "DT_FLOAT"}}}, {"name": "StatefulPartitionedCall/deeplabv3plus/expanded_conv_7/depthwise/HardSwish/mul", "op": "Mul", "input": ["StatefulPartitionedCall/deeplabv3plus/expanded_conv_7/depthwise/HardSwish/hard_sigmoid_17/mul", "StatefulPartitionedCall/deeplabv3plus/expanded_conv_7/depthwise/depthwise"], "attr": {"_grappler_ArithmeticOptimizer_MinimizeBroadcasts": {"b": true}, "T": {"type": "DT_FLOAT"}}}, {"name": "StatefulPartitionedCall/deeplabv3plus/expanded_conv_7/project/BatchNorm/FusedBatchNormV3", "op": "_FusedConv2D", "input": ["StatefulPartitionedCall/deeplabv3plus/expanded_conv_7/depthwise/HardSwish/mul", "StatefulPartitionedCall/deeplabv3plus/expanded_conv_7/project/Conv2D_weights", "StatefulPartitionedCall/deeplabv3plus/expanded_conv_7/project/Conv2D_bn_offset"], "device": "/device:CPU:0", "attr": {"dilations": {"list": {"i": ["1", "1", "1", "1"]}}, "T": {"type": "DT_FLOAT"}, "data_format": {"s": "TkhXQw=="}, "strides": {"list": {"i": ["1", "1", "1", "1"]}}, "explicit_paddings": {"list": {}}, "use_cudnn_on_gpu": {"b": true}, "num_args": {"i": "1"}, "epsilon": {"f": 0.0}, "padding": {"s": "U0FNRQ=="}, "fused_ops": {"list": {"s": ["Qmlhc0FkZA=="]}}}}, {"name": "StatefulPartitionedCall/deeplabv3plus/expanded_conv_7/Add/add", "op": "AddV2", "input": ["StatefulPartitionedCall/deeplabv3plus/expanded_conv_6/project/BatchNorm/FusedBatchNormV3", "StatefulPartitionedCall/deeplabv3plus/expanded_conv_7/project/BatchNorm/FusedBatchNormV3"], "attr": {"T": {"type": "DT_FLOAT"}}}, {"name": "StatefulPartitionedCall/deeplabv3plus/expanded_conv_8/expand/BatchNorm/FusedBatchNormV3", "op": "_FusedConv2D", "input": ["StatefulPartitionedCall/deeplabv3plus/expanded_conv_7/Add/add", "StatefulPartitionedCall/deeplabv3plus/expanded_conv_8/expand/Conv2D_weights", "StatefulPartitionedCall/deeplabv3plus/expanded_conv_8/expand/Conv2D_bn_offset"], "device": "/device:CPU:0", "attr": {"dilations": {"list": {"i": ["1", "1", "1", "1"]}}, "T": {"type": "DT_FLOAT"}, "data_format": {"s": "TkhXQw=="}, "strides": {"list": {"i": ["1", "1", "1", "1"]}}, "explicit_paddings": {"list": {}}, "use_cudnn_on_gpu": {"b": true}, "num_args": {"i": "1"}, "epsilon": {"f": 0.0}, "padding": {"s": "U0FNRQ=="}, "fused_ops": {"list": {"s": ["Qmlhc0FkZA=="]}}}}, {"name": "StatefulPartitionedCall/deeplabv3plus/expanded_conv_8/expand/HardSwish/hard_sigmoid_18/add", "op": "AddV2", "input": ["StatefulPartitionedCall/deeplabv3plus/expanded_conv_8/expand/BatchNorm/FusedBatchNormV3", "StatefulPartitionedCall/deeplabv3plus/expanded_conv_8/expand/HardSwish/hard_sigmoid_18/add/y"], "attr": {"T": {"type": "DT_FLOAT"}}}, {"name": "StatefulPartitionedCall/deeplabv3plus/expanded_conv_8/expand/HardSwish/hard_sigmoid_18/re_lu_26/Relu6", "op": "Relu6", "input": ["StatefulPartitionedCall/deeplabv3plus/expanded_conv_8/expand/HardSwish/hard_sigmoid_18/add"], "attr": {"T": {"type": "DT_FLOAT"}}}, {"name": "StatefulPartitionedCall/deeplabv3plus/expanded_conv_8/expand/HardSwish/hard_sigmoid_18/mul", "op": "Mul", "input": ["StatefulPartitionedCall/deeplabv3plus/expanded_conv_8/expand/HardSwish/hard_sigmoid_18/mul/y", "StatefulPartitionedCall/deeplabv3plus/expanded_conv_8/expand/HardSwish/hard_sigmoid_18/re_lu_26/Relu6"], "attr": {"_grappler_ArithmeticOptimizer_MinimizeBroadcasts": {"b": true}, "T": {"type": "DT_FLOAT"}}}, {"name": "StatefulPartitionedCall/deeplabv3plus/expanded_conv_8/expand/HardSwish/mul", "op": "Mul", "input": ["StatefulPartitionedCall/deeplabv3plus/expanded_conv_8/expand/HardSwish/hard_sigmoid_18/mul", "StatefulPartitionedCall/deeplabv3plus/expanded_conv_8/expand/BatchNorm/FusedBatchNormV3"], "attr": {"_grappler_ArithmeticOptimizer_MinimizeBroadcasts": {"b": true}, "T": {"type": "DT_FLOAT"}}}, {"name": "StatefulPartitionedCall/deeplabv3plus/expanded_conv_8/depthwise/depthwise", "op": "FusedDepthwiseConv2dNative", "input": ["StatefulPartitionedCall/deeplabv3plus/expanded_conv_8/expand/HardSwish/mul", "StatefulPartitionedCall/deeplabv3plus/expanded_conv_8/depthwise/depthwise_weights", "StatefulPartitionedCall/deeplabv3plus/expanded_conv_8/depthwise/depthwise_bn_offset"], "attr": {"dilations": {"list": {"i": ["1", "1", "1", "1"]}}, "T": {"type": "DT_FLOAT"}, "data_format": {"s": "TkhXQw=="}, "strides": {"list": {"i": ["1", "1", "1", "1"]}}, "explicit_paddings": {"list": {}}, "padding": {"s": "U0FNRQ=="}, "num_args": {"i": "1"}, "fused_ops": {"list": {"s": ["Qmlhc0FkZA=="]}}}}, {"name": "StatefulPartitionedCall/deeplabv3plus/expanded_conv_8/depthwise/HardSwish/hard_sigmoid_19/add", "op": "AddV2", "input": ["StatefulPartitionedCall/deeplabv3plus/expanded_conv_8/depthwise/depthwise", "StatefulPartitionedCall/deeplabv3plus/expanded_conv_8/depthwise/HardSwish/hard_sigmoid_19/add/y"], "attr": {"T": {"type": "DT_FLOAT"}}}, {"name": "StatefulPartitionedCall/deeplabv3plus/expanded_conv_8/depthwise/HardSwish/hard_sigmoid_19/re_lu_27/Relu6", "op": "Relu6", "input": ["StatefulPartitionedCall/deeplabv3plus/expanded_conv_8/depthwise/HardSwish/hard_sigmoid_19/add"], "attr": {"T": {"type": "DT_FLOAT"}}}, {"name": "StatefulPartitionedCall/deeplabv3plus/expanded_conv_8/depthwise/HardSwish/hard_sigmoid_19/mul", "op": "Mul", "input": ["StatefulPartitionedCall/deeplabv3plus/expanded_conv_8/depthwise/HardSwish/hard_sigmoid_19/mul/y", "StatefulPartitionedCall/deeplabv3plus/expanded_conv_8/depthwise/HardSwish/hard_sigmoid_19/re_lu_27/Relu6"], "attr": {"_grappler_ArithmeticOptimizer_MinimizeBroadcasts": {"b": true}, "T": {"type": "DT_FLOAT"}}}, {"name": "StatefulPartitionedCall/deeplabv3plus/expanded_conv_8/depthwise/HardSwish/mul", "op": "Mul", "input": ["StatefulPartitionedCall/deeplabv3plus/expanded_conv_8/depthwise/HardSwish/hard_sigmoid_19/mul", "StatefulPartitionedCall/deeplabv3plus/expanded_conv_8/depthwise/depthwise"], "attr": {"_grappler_ArithmeticOptimizer_MinimizeBroadcasts": {"b": true}, "T": {"type": "DT_FLOAT"}}}, {"name": "StatefulPartitionedCall/deeplabv3plus/expanded_conv_8/project/BatchNorm/FusedBatchNormV3", "op": "_FusedConv2D", "input": ["StatefulPartitionedCall/deeplabv3plus/expanded_conv_8/depthwise/HardSwish/mul", "StatefulPartitionedCall/deeplabv3plus/expanded_conv_8/project/Conv2D_weights", "StatefulPartitionedCall/deeplabv3plus/expanded_conv_8/project/Conv2D_bn_offset"], "device": "/device:CPU:0", "attr": {"dilations": {"list": {"i": ["1", "1", "1", "1"]}}, "T": {"type": "DT_FLOAT"}, "data_format": {"s": "TkhXQw=="}, "strides": {"list": {"i": ["1", "1", "1", "1"]}}, "explicit_paddings": {"list": {}}, "use_cudnn_on_gpu": {"b": true}, "num_args": {"i": "1"}, "epsilon": {"f": 0.0}, "padding": {"s": "U0FNRQ=="}, "fused_ops": {"list": {"s": ["Qmlhc0FkZA=="]}}}}, {"name": "StatefulPartitionedCall/deeplabv3plus/expanded_conv_8/Add/add", "op": "AddV2", "input": ["StatefulPartitionedCall/deeplabv3plus/expanded_conv_7/Add/add", "StatefulPartitionedCall/deeplabv3plus/expanded_conv_8/project/BatchNorm/FusedBatchNormV3"], "attr": {"T": {"type": "DT_FLOAT"}}}, {"name": "StatefulPartitionedCall/deeplabv3plus/expanded_conv_9/expand/BatchNorm/FusedBatchNormV3", "op": "_FusedConv2D", "input": ["StatefulPartitionedCall/deeplabv3plus/expanded_conv_8/Add/add", "StatefulPartitionedCall/deeplabv3plus/expanded_conv_9/expand/Conv2D_weights", "StatefulPartitionedCall/deeplabv3plus/expanded_conv_9/expand/Conv2D_bn_offset"], "device": "/device:CPU:0", "attr": {"dilations": {"list": {"i": ["1", "1", "1", "1"]}}, "T": {"type": "DT_FLOAT"}, "data_format": {"s": "TkhXQw=="}, "strides": {"list": {"i": ["1", "1", "1", "1"]}}, "explicit_paddings": {"list": {}}, "use_cudnn_on_gpu": {"b": true}, "num_args": {"i": "1"}, "epsilon": {"f": 0.0}, "padding": {"s": "U0FNRQ=="}, "fused_ops": {"list": {"s": ["Qmlhc0FkZA=="]}}}}, {"name": "StatefulPartitionedCall/deeplabv3plus/expanded_conv_9/expand/HardSwish/hard_sigmoid_20/add", "op": "AddV2", "input": ["StatefulPartitionedCall/deeplabv3plus/expanded_conv_9/expand/BatchNorm/FusedBatchNormV3", "StatefulPartitionedCall/deeplabv3plus/expanded_conv_9/expand/HardSwish/hard_sigmoid_20/add/y"], "attr": {"T": {"type": "DT_FLOAT"}}}, {"name": "StatefulPartitionedCall/deeplabv3plus/expanded_conv_9/expand/HardSwish/hard_sigmoid_20/re_lu_28/Relu6", "op": "Relu6", "input": ["StatefulPartitionedCall/deeplabv3plus/expanded_conv_9/expand/HardSwish/hard_sigmoid_20/add"], "attr": {"T": {"type": "DT_FLOAT"}}}, {"name": "StatefulPartitionedCall/deeplabv3plus/expanded_conv_9/expand/HardSwish/hard_sigmoid_20/mul", "op": "Mul", "input": ["StatefulPartitionedCall/deeplabv3plus/expanded_conv_9/expand/HardSwish/hard_sigmoid_20/mul/y", "StatefulPartitionedCall/deeplabv3plus/expanded_conv_9/expand/HardSwish/hard_sigmoid_20/re_lu_28/Relu6"], "attr": {"_grappler_ArithmeticOptimizer_MinimizeBroadcasts": {"b": true}, "T": {"type": "DT_FLOAT"}}}, {"name": "StatefulPartitionedCall/deeplabv3plus/expanded_conv_9/expand/HardSwish/mul", "op": "Mul", "input": ["StatefulPartitionedCall/deeplabv3plus/expanded_conv_9/expand/HardSwish/hard_sigmoid_20/mul", "StatefulPartitionedCall/deeplabv3plus/expanded_conv_9/expand/BatchNorm/FusedBatchNormV3"], "attr": {"_grappler_ArithmeticOptimizer_MinimizeBroadcasts": {"b": true}, "T": {"type": "DT_FLOAT"}}}, {"name": "StatefulPartitionedCall/deeplabv3plus/expanded_conv_9/depthwise/depthwise", "op": "FusedDepthwiseConv2dNative", "input": ["StatefulPartitionedCall/deeplabv3plus/expanded_conv_9/expand/HardSwish/mul", "StatefulPartitionedCall/deeplabv3plus/expanded_conv_9/depthwise/depthwise_weights", "StatefulPartitionedCall/deeplabv3plus/expanded_conv_9/depthwise/depthwise_bn_offset"], "attr": {"dilations": {"list": {"i": ["1", "1", "1", "1"]}}, "T": {"type": "DT_FLOAT"}, "data_format": {"s": "TkhXQw=="}, "strides": {"list": {"i": ["1", "1", "1", "1"]}}, "explicit_paddings": {"list": {}}, "padding": {"s": "U0FNRQ=="}, "num_args": {"i": "1"}, "fused_ops": {"list": {"s": ["Qmlhc0FkZA=="]}}}}, {"name": "StatefulPartitionedCall/deeplabv3plus/expanded_conv_9/depthwise/HardSwish/hard_sigmoid_21/add", "op": "AddV2", "input": ["StatefulPartitionedCall/deeplabv3plus/expanded_conv_9/depthwise/depthwise", "StatefulPartitionedCall/deeplabv3plus/expanded_conv_9/depthwise/HardSwish/hard_sigmoid_21/add/y"], "attr": {"T": {"type": "DT_FLOAT"}}}, {"name": "StatefulPartitionedCall/deeplabv3plus/expanded_conv_9/depthwise/HardSwish/hard_sigmoid_21/re_lu_29/Relu6", "op": "Relu6", "input": ["StatefulPartitionedCall/deeplabv3plus/expanded_conv_9/depthwise/HardSwish/hard_sigmoid_21/add"], "attr": {"T": {"type": "DT_FLOAT"}}}, {"name": "StatefulPartitionedCall/deeplabv3plus/expanded_conv_9/depthwise/HardSwish/hard_sigmoid_21/mul", "op": "Mul", "input": ["StatefulPartitionedCall/deeplabv3plus/expanded_conv_9/depthwise/HardSwish/hard_sigmoid_21/mul/y", "StatefulPartitionedCall/deeplabv3plus/expanded_conv_9/depthwise/HardSwish/hard_sigmoid_21/re_lu_29/Relu6"], "attr": {"_grappler_ArithmeticOptimizer_MinimizeBroadcasts": {"b": true}, "T": {"type": "DT_FLOAT"}}}, {"name": "StatefulPartitionedCall/deeplabv3plus/expanded_conv_9/depthwise/HardSwish/mul", "op": "Mul", "input": ["StatefulPartitionedCall/deeplabv3plus/expanded_conv_9/depthwise/HardSwish/hard_sigmoid_21/mul", "StatefulPartitionedCall/deeplabv3plus/expanded_conv_9/depthwise/depthwise"], "attr": {"_grappler_ArithmeticOptimizer_MinimizeBroadcasts": {"b": true}, "T": {"type": "DT_FLOAT"}}}, {"name": "StatefulPartitionedCall/deeplabv3plus/expanded_conv_9/project/BatchNorm/FusedBatchNormV3", "op": "_FusedConv2D", "input": ["StatefulPartitionedCall/deeplabv3plus/expanded_conv_9/depthwise/HardSwish/mul", "StatefulPartitionedCall/deeplabv3plus/expanded_conv_9/project/Conv2D_weights", "StatefulPartitionedCall/deeplabv3plus/expanded_conv_9/project/Conv2D_bn_offset"], "device": "/device:CPU:0", "attr": {"dilations": {"list": {"i": ["1", "1", "1", "1"]}}, "T": {"type": "DT_FLOAT"}, "data_format": {"s": "TkhXQw=="}, "strides": {"list": {"i": ["1", "1", "1", "1"]}}, "explicit_paddings": {"list": {}}, "use_cudnn_on_gpu": {"b": true}, "num_args": {"i": "1"}, "epsilon": {"f": 0.0}, "padding": {"s": "U0FNRQ=="}, "fused_ops": {"list": {"s": ["Qmlhc0FkZA=="]}}}}, {"name": "StatefulPartitionedCall/deeplabv3plus/expanded_conv_9/Add/add", "op": "AddV2", "input": ["StatefulPartitionedCall/deeplabv3plus/expanded_conv_8/Add/add", "StatefulPartitionedCall/deeplabv3plus/expanded_conv_9/project/BatchNorm/FusedBatchNormV3"], "attr": {"T": {"type": "DT_FLOAT"}}}, {"name": "StatefulPartitionedCall/deeplabv3plus/expanded_conv_10/expand/BatchNorm/FusedBatchNormV3", "op": "_FusedConv2D", "input": ["StatefulPartitionedCall/deeplabv3plus/expanded_conv_9/Add/add", "StatefulPartitionedCall/deeplabv3plus/expanded_conv_10/expand/Conv2D_weights", "StatefulPartitionedCall/deeplabv3plus/expanded_conv_10/expand/Conv2D_bn_offset"], "device": "/device:CPU:0", "attr": {"dilations": {"list": {"i": ["1", "1", "1", "1"]}}, "T": {"type": "DT_FLOAT"}, "data_format": {"s": "TkhXQw=="}, "strides": {"list": {"i": ["1", "1", "1", "1"]}}, "explicit_paddings": {"list": {}}, "use_cudnn_on_gpu": {"b": true}, "num_args": {"i": "1"}, "epsilon": {"f": 0.0}, "padding": {"s": "U0FNRQ=="}, "fused_ops": {"list": {"s": ["Qmlhc0FkZA=="]}}}}, {"name": "StatefulPartitionedCall/deeplabv3plus/expanded_conv_10/expand/HardSwish/hard_sigmoid_22/add", "op": "AddV2", "input": ["StatefulPartitionedCall/deeplabv3plus/expanded_conv_10/expand/BatchNorm/FusedBatchNormV3", "StatefulPartitionedCall/deeplabv3plus/expanded_conv_10/expand/HardSwish/hard_sigmoid_22/add/y"], "attr": {"T": {"type": "DT_FLOAT"}}}, {"name": "StatefulPartitionedCall/deeplabv3plus/expanded_conv_10/expand/HardSwish/hard_sigmoid_22/re_lu_30/Relu6", "op": "Relu6", "input": ["StatefulPartitionedCall/deeplabv3plus/expanded_conv_10/expand/HardSwish/hard_sigmoid_22/add"], "attr": {"T": {"type": "DT_FLOAT"}}}, {"name": "StatefulPartitionedCall/deeplabv3plus/expanded_conv_10/expand/HardSwish/hard_sigmoid_22/mul", "op": "Mul", "input": ["StatefulPartitionedCall/deeplabv3plus/expanded_conv_10/expand/HardSwish/hard_sigmoid_22/mul/y", "StatefulPartitionedCall/deeplabv3plus/expanded_conv_10/expand/HardSwish/hard_sigmoid_22/re_lu_30/Relu6"], "attr": {"_grappler_ArithmeticOptimizer_MinimizeBroadcasts": {"b": true}, "T": {"type": "DT_FLOAT"}}}, {"name": "StatefulPartitionedCall/deeplabv3plus/expanded_conv_10/expand/HardSwish/mul", "op": "Mul", "input": ["StatefulPartitionedCall/deeplabv3plus/expanded_conv_10/expand/HardSwish/hard_sigmoid_22/mul", "StatefulPartitionedCall/deeplabv3plus/expanded_conv_10/expand/BatchNorm/FusedBatchNormV3"], "attr": {"_grappler_ArithmeticOptimizer_MinimizeBroadcasts": {"b": true}, "T": {"type": "DT_FLOAT"}}}, {"name": "StatefulPartitionedCall/deeplabv3plus/expanded_conv_10/depthwise/depthwise/SpaceToBatchND", "op": "SpaceToBatchND", "input": ["StatefulPartitionedCall/deeplabv3plus/expanded_conv_10/expand/HardSwish/mul", "StatefulPartitionedCall/deeplabv3plus/expanded_conv_10/depthwise/depthwise/SpaceToBatchND/block_shape", "StatefulPartitionedCall/deeplabv3plus/expanded_conv_10/depthwise/depthwise/SpaceToBatchND/paddings"], "attr": {"T": {"type": "DT_FLOAT"}, "Tpaddings": {"type": "DT_INT32"}, "Tblock_shape": {"type": "DT_INT32"}}}, {"name": "StatefulPartitionedCall/deeplabv3plus/expanded_conv_10/depthwise/depthwise", "op": "DepthwiseConv2dNative", "input": ["StatefulPartitionedCall/deeplabv3plus/expanded_conv_10/depthwise/depthwise/SpaceToBatchND", "StatefulPartitionedCall/deeplabv3plus/expanded_conv_10/depthwise/depthwise/ReadVariableOp"], "attr": {"dilations": {"list": {"i": ["1", "1", "1", "1"]}}, "T": {"type": "DT_FLOAT"}, "data_format": {"s": "TkhXQw=="}, "strides": {"list": {"i": ["1", "1", "1", "1"]}}, "explicit_paddings": {"list": {}}, "padding": {"s": "VkFMSUQ="}}}, {"name": "StatefulPartitionedCall/deeplabv3plus/expanded_conv_10/depthwise/depthwise/BatchToSpaceND", "op": "BatchToSpaceND", "input": ["StatefulPartitionedCall/deeplabv3plus/expanded_conv_10/depthwise/depthwise", "StatefulPartitionedCall/deeplabv3plus/expanded_conv_10/depthwise/depthwise/BatchToSpaceND/block_shape", "StatefulPartitionedCall/deeplabv3plus/expanded_conv_10/depthwise/depthwise/BatchToSpaceND/crops"], "attr": {"Tcrops": {"type": "DT_INT32"}, "T": {"type": "DT_FLOAT"}, "Tblock_shape": {"type": "DT_INT32"}}}, {"name": "StatefulPartitionedCall/deeplabv3plus/expanded_conv_10/depthwise/BatchNorm/FusedBatchNormV3/Mul", "op": "Mul", "input": ["StatefulPartitionedCall/deeplabv3plus/expanded_conv_10/depthwise/depthwise/BatchToSpaceND", "StatefulPartitionedCall/deeplabv3plus/expanded_conv_10/depthwise/BatchNorm/FusedBatchNormV3/Scaled"], "attr": {"T": {"type": "DT_FLOAT"}}}, {"name": "StatefulPartitionedCall/deeplabv3plus/expanded_conv_10/depthwise/BatchNorm/FusedBatchNormV3", "op": "Add", "input": ["StatefulPartitionedCall/deeplabv3plus/expanded_conv_10/depthwise/BatchNorm/FusedBatchNormV3/Mul", "StatefulPartitionedCall/deeplabv3plus/expanded_conv_10/depthwise/BatchNorm/FusedBatchNormV3/Offset"], "attr": {"T": {"type": "DT_FLOAT"}}}, {"name": "StatefulPartitionedCall/deeplabv3plus/expanded_conv_10/depthwise/HardSwish/hard_sigmoid_23/add", "op": "AddV2", "input": ["StatefulPartitionedCall/deeplabv3plus/expanded_conv_10/depthwise/BatchNorm/FusedBatchNormV3", "StatefulPartitionedCall/deeplabv3plus/expanded_conv_10/depthwise/HardSwish/hard_sigmoid_23/add/y"], "attr": {"T": {"type": "DT_FLOAT"}}}, {"name": "StatefulPartitionedCall/deeplabv3plus/expanded_conv_10/depthwise/HardSwish/hard_sigmoid_23/re_lu_31/Relu6", "op": "Relu6", "input": ["StatefulPartitionedCall/deeplabv3plus/expanded_conv_10/depthwise/HardSwish/hard_sigmoid_23/add"], "attr": {"T": {"type": "DT_FLOAT"}}}, {"name": "StatefulPartitionedCall/deeplabv3plus/expanded_conv_10/depthwise/HardSwish/hard_sigmoid_23/mul", "op": "Mul", "input": ["StatefulPartitionedCall/deeplabv3plus/expanded_conv_10/depthwise/HardSwish/hard_sigmoid_23/mul/y", "StatefulPartitionedCall/deeplabv3plus/expanded_conv_10/depthwise/HardSwish/hard_sigmoid_23/re_lu_31/Relu6"], "attr": {"_grappler_ArithmeticOptimizer_MinimizeBroadcasts": {"b": true}, "T": {"type": "DT_FLOAT"}}}, {"name": "StatefulPartitionedCall/deeplabv3plus/expanded_conv_10/depthwise/HardSwish/mul", "op": "Mul", "input": ["StatefulPartitionedCall/deeplabv3plus/expanded_conv_10/depthwise/HardSwish/hard_sigmoid_23/mul", "StatefulPartitionedCall/deeplabv3plus/expanded_conv_10/depthwise/BatchNorm/FusedBatchNormV3"], "attr": {"_grappler_ArithmeticOptimizer_MinimizeBroadcasts": {"b": true}, "T": {"type": "DT_FLOAT"}}}, {"name": "StatefulPartitionedCall/deeplabv3plus/expanded_conv_10/squeeze_excite/AvgPool/Mean", "op": "Mean", "input": ["StatefulPartitionedCall/deeplabv3plus/expanded_conv_10/depthwise/HardSwish/mul", "StatefulPartitionedCall/deeplabv3plus/expanded_conv_10/squeeze_excite/AvgPool/Mean/reduction_indices"], "attr": {"keep_dims": {"b": false}, "Tidx": {"type": "DT_INT32"}, "T": {"type": "DT_FLOAT"}}}, {"name": "StatefulPartitionedCall/deeplabv3plus/reshape_12/Shape", "op": "Shape", "input": ["StatefulPartitionedCall/deeplabv3plus/expanded_conv_10/squeeze_excite/AvgPool/Mean"], "attr": {"T": {"type": "DT_FLOAT"}, "out_type": {"type": "DT_INT32"}}}, {"name": "StatefulPartitionedCall/deeplabv3plus/reshape_12/strided_slice", "op": "StridedSlice", "input": ["StatefulPartitionedCall/deeplabv3plus/reshape_12/Shape", "StatefulPartitionedCall/deeplabv3plus/reshape_12/strided_slice/stack", "StatefulPartitionedCall/deeplabv3plus/reshape_12/strided_slice/stack_1", "StatefulPartitionedCall/deeplabv3plus/reshape_12/strided_slice/stack_2"], "attr": {"T": {"type": "DT_INT32"}, "Index": {"type": "DT_INT32"}, "shrink_axis_mask": {"i": "1"}, "ellipsis_mask": {"i": "0"}, "begin_mask": {"i": "0"}, "new_axis_mask": {"i": "0"}, "end_mask": {"i": "0"}}}, {"name": "StatefulPartitionedCall/deeplabv3plus/reshape_12/Reshape/shape", "op": "Pack", "input": ["StatefulPartitionedCall/deeplabv3plus/reshape_12/strided_slice", "StatefulPartitionedCall/deeplabv3plus/reshape_12/Reshape/shape/1", "StatefulPartitionedCall/deeplabv3plus/reshape_12/Reshape/shape/2", "StatefulPartitionedCall/deeplabv3plus/reshape_12/Reshape/shape/3"], "attr": {"T": {"type": "DT_INT32"}, "axis": {"i": "0"}, "N": {"i": "4"}}}, {"name": "StatefulPartitionedCall/deeplabv3plus/reshape_12/Reshape", "op": "Reshape", "input": ["StatefulPartitionedCall/deeplabv3plus/expanded_conv_10/squeeze_excite/AvgPool/Mean", "StatefulPartitionedCall/deeplabv3plus/reshape_12/Reshape/shape"], "attr": {"T": {"type": "DT_FLOAT"}, "Tshape": {"type": "DT_INT32"}}}, {"name": "StatefulPartitionedCall/deeplabv3plus/expanded_conv_10/squeeze_excite/Relu/Relu", "op": "_FusedConv2D", "input": ["StatefulPartitionedCall/deeplabv3plus/reshape_12/Reshape", "StatefulPartitionedCall/deeplabv3plus/expanded_conv_10/squeeze_excite/Conv/Conv2D/ReadVariableOp", "StatefulPartitionedCall/deeplabv3plus/expanded_conv_10/squeeze_excite/Conv/BiasAdd/ReadVariableOp"], "device": "/device:CPU:0", "attr": {"dilations": {"list": {"i": ["1", "1", "1", "1"]}}, "T": {"type": "DT_FLOAT"}, "data_format": {"s": "TkhXQw=="}, "strides": {"list": {"i": ["1", "1", "1", "1"]}}, "explicit_paddings": {"list": {}}, "use_cudnn_on_gpu": {"b": true}, "num_args": {"i": "1"}, "epsilon": {"f": 0.0}, "padding": {"s": "U0FNRQ=="}, "fused_ops": {"list": {"s": ["Qmlhc0FkZA==", "UmVsdQ=="]}}}}, {"name": "StatefulPartitionedCall/deeplabv3plus/expanded_conv_10/squeeze_excite/Conv_1/BiasAdd", "op": "_FusedConv2D", "input": ["StatefulPartitionedCall/deeplabv3plus/expanded_conv_10/squeeze_excite/Relu/Relu", "StatefulPartitionedCall/deeplabv3plus/expanded_conv_10/squeeze_excite/Conv_1/Conv2D/ReadVariableOp", "StatefulPartitionedCall/deeplabv3plus/expanded_conv_10/squeeze_excite/Conv_1/BiasAdd/ReadVariableOp"], "device": "/device:CPU:0", "attr": {"dilations": {"list": {"i": ["1", "1", "1", "1"]}}, "T": {"type": "DT_FLOAT"}, "data_format": {"s": "TkhXQw=="}, "strides": {"list": {"i": ["1", "1", "1", "1"]}}, "explicit_paddings": {"list": {}}, "use_cudnn_on_gpu": {"b": true}, "num_args": {"i": "1"}, "epsilon": {"f": 0.0}, "padding": {"s": "U0FNRQ=="}, "fused_ops": {"list": {"s": ["Qmlhc0FkZA=="]}}}}, {"name": "StatefulPartitionedCall/deeplabv3plus/expanded_conv_10/squeeze_excite/HardSigmoid/add", "op": "AddV2", "input": ["StatefulPartitionedCall/deeplabv3plus/expanded_conv_10/squeeze_excite/Conv_1/BiasAdd", "StatefulPartitionedCall/deeplabv3plus/expanded_conv_10/squeeze_excite/HardSigmoid/add/y"], "attr": {"T": {"type": "DT_FLOAT"}}}, {"name": "StatefulPartitionedCall/deeplabv3plus/expanded_conv_10/squeeze_excite/HardSigmoid/re_lu_32/Relu6", "op": "Relu6", "input": ["StatefulPartitionedCall/deeplabv3plus/expanded_conv_10/squeeze_excite/HardSigmoid/add"], "attr": {"T": {"type": "DT_FLOAT"}}}, {"name": "StatefulPartitionedCall/deeplabv3plus/expanded_conv_10/squeeze_excite/HardSigmoid/mul", "op": "Mul", "input": ["StatefulPartitionedCall/deeplabv3plus/expanded_conv_10/squeeze_excite/HardSigmoid/mul/y", "StatefulPartitionedCall/deeplabv3plus/expanded_conv_10/squeeze_excite/HardSigmoid/re_lu_32/Relu6"], "attr": {"_grappler_ArithmeticOptimizer_MinimizeBroadcasts": {"b": true}, "T": {"type": "DT_FLOAT"}}}, {"name": "StatefulPartitionedCall/deeplabv3plus/expanded_conv_10/squeeze_excite/Mul/mul", "op": "Mul", "input": ["StatefulPartitionedCall/deeplabv3plus/expanded_conv_10/squeeze_excite/HardSigmoid/mul", "StatefulPartitionedCall/deeplabv3plus/expanded_conv_10/depthwise/HardSwish/mul"], "attr": {"_grappler_ArithmeticOptimizer_MinimizeBroadcasts": {"b": true}, "T": {"type": "DT_FLOAT"}}}, {"name": "StatefulPartitionedCall/deeplabv3plus/expanded_conv_10/project/BatchNorm/FusedBatchNormV3", "op": "_FusedConv2D", "input": ["StatefulPartitionedCall/deeplabv3plus/expanded_conv_10/squeeze_excite/Mul/mul", "StatefulPartitionedCall/deeplabv3plus/expanded_conv_10/project/Conv2D_weights", "StatefulPartitionedCall/deeplabv3plus/expanded_conv_10/project/Conv2D_bn_offset"], "device": "/device:CPU:0", "attr": {"dilations": {"list": {"i": ["1", "1", "1", "1"]}}, "T": {"type": "DT_FLOAT"}, "data_format": {"s": "TkhXQw=="}, "strides": {"list": {"i": ["1", "1", "1", "1"]}}, "explicit_paddings": {"list": {}}, "use_cudnn_on_gpu": {"b": true}, "num_args": {"i": "1"}, "epsilon": {"f": 0.0}, "padding": {"s": "U0FNRQ=="}, "fused_ops": {"list": {"s": ["Qmlhc0FkZA=="]}}}}, {"name": "StatefulPartitionedCall/deeplabv3plus/expanded_conv_11/expand/BatchNorm/FusedBatchNormV3", "op": "_FusedConv2D", "input": ["StatefulPartitionedCall/deeplabv3plus/expanded_conv_10/project/BatchNorm/FusedBatchNormV3", "StatefulPartitionedCall/deeplabv3plus/expanded_conv_11/expand/Conv2D_weights", "StatefulPartitionedCall/deeplabv3plus/expanded_conv_11/expand/Conv2D_bn_offset"], "device": "/device:CPU:0", "attr": {"dilations": {"list": {"i": ["1", "1", "1", "1"]}}, "T": {"type": "DT_FLOAT"}, "data_format": {"s": "TkhXQw=="}, "strides": {"list": {"i": ["1", "1", "1", "1"]}}, "explicit_paddings": {"list": {}}, "use_cudnn_on_gpu": {"b": true}, "num_args": {"i": "1"}, "epsilon": {"f": 0.0}, "padding": {"s": "U0FNRQ=="}, "fused_ops": {"list": {"s": ["Qmlhc0FkZA=="]}}}}, {"name": "StatefulPartitionedCall/deeplabv3plus/expanded_conv_11/expand/HardSwish/hard_sigmoid_24/add", "op": "AddV2", "input": ["StatefulPartitionedCall/deeplabv3plus/expanded_conv_11/expand/BatchNorm/FusedBatchNormV3", "StatefulPartitionedCall/deeplabv3plus/expanded_conv_11/expand/HardSwish/hard_sigmoid_24/add/y"], "attr": {"T": {"type": "DT_FLOAT"}}}, {"name": "StatefulPartitionedCall/deeplabv3plus/expanded_conv_11/expand/HardSwish/hard_sigmoid_24/re_lu_33/Relu6", "op": "Relu6", "input": ["StatefulPartitionedCall/deeplabv3plus/expanded_conv_11/expand/HardSwish/hard_sigmoid_24/add"], "attr": {"T": {"type": "DT_FLOAT"}}}, {"name": "StatefulPartitionedCall/deeplabv3plus/expanded_conv_11/expand/HardSwish/hard_sigmoid_24/mul", "op": "Mul", "input": ["StatefulPartitionedCall/deeplabv3plus/expanded_conv_11/expand/HardSwish/hard_sigmoid_24/mul/y", "StatefulPartitionedCall/deeplabv3plus/expanded_conv_11/expand/HardSwish/hard_sigmoid_24/re_lu_33/Relu6"], "attr": {"_grappler_ArithmeticOptimizer_MinimizeBroadcasts": {"b": true}, "T": {"type": "DT_FLOAT"}}}, {"name": "StatefulPartitionedCall/deeplabv3plus/expanded_conv_11/expand/HardSwish/mul", "op": "Mul", "input": ["StatefulPartitionedCall/deeplabv3plus/expanded_conv_11/expand/HardSwish/hard_sigmoid_24/mul", "StatefulPartitionedCall/deeplabv3plus/expanded_conv_11/expand/BatchNorm/FusedBatchNormV3"], "attr": {"_grappler_ArithmeticOptimizer_MinimizeBroadcasts": {"b": true}, "T": {"type": "DT_FLOAT"}}}, {"name": "StatefulPartitionedCall/deeplabv3plus/expanded_conv_11/depthwise/depthwise/SpaceToBatchND", "op": "SpaceToBatchND", "input": ["StatefulPartitionedCall/deeplabv3plus/expanded_conv_11/expand/HardSwish/mul", "StatefulPartitionedCall/deeplabv3plus/expanded_conv_11/depthwise/depthwise/SpaceToBatchND/block_shape", "StatefulPartitionedCall/deeplabv3plus/expanded_conv_11/depthwise/depthwise/SpaceToBatchND/paddings"], "attr": {"T": {"type": "DT_FLOAT"}, "Tpaddings": {"type": "DT_INT32"}, "Tblock_shape": {"type": "DT_INT32"}}}, {"name": "StatefulPartitionedCall/deeplabv3plus/expanded_conv_11/depthwise/depthwise", "op": "DepthwiseConv2dNative", "input": ["StatefulPartitionedCall/deeplabv3plus/expanded_conv_11/depthwise/depthwise/SpaceToBatchND", "StatefulPartitionedCall/deeplabv3plus/expanded_conv_11/depthwise/depthwise/ReadVariableOp"], "attr": {"dilations": {"list": {"i": ["1", "1", "1", "1"]}}, "T": {"type": "DT_FLOAT"}, "data_format": {"s": "TkhXQw=="}, "strides": {"list": {"i": ["1", "1", "1", "1"]}}, "explicit_paddings": {"list": {}}, "padding": {"s": "VkFMSUQ="}}}, {"name": "StatefulPartitionedCall/deeplabv3plus/expanded_conv_11/depthwise/depthwise/BatchToSpaceND", "op": "BatchToSpaceND", "input": ["StatefulPartitionedCall/deeplabv3plus/expanded_conv_11/depthwise/depthwise", "StatefulPartitionedCall/deeplabv3plus/expanded_conv_11/depthwise/depthwise/BatchToSpaceND/block_shape", "StatefulPartitionedCall/deeplabv3plus/expanded_conv_11/depthwise/depthwise/BatchToSpaceND/crops"], "attr": {"Tcrops": {"type": "DT_INT32"}, "T": {"type": "DT_FLOAT"}, "Tblock_shape": {"type": "DT_INT32"}}}, {"name": "StatefulPartitionedCall/deeplabv3plus/expanded_conv_11/depthwise/BatchNorm/FusedBatchNormV3/Mul", "op": "Mul", "input": ["StatefulPartitionedCall/deeplabv3plus/expanded_conv_11/depthwise/depthwise/BatchToSpaceND", "StatefulPartitionedCall/deeplabv3plus/expanded_conv_11/depthwise/BatchNorm/FusedBatchNormV3/Scaled"], "attr": {"T": {"type": "DT_FLOAT"}}}, {"name": "StatefulPartitionedCall/deeplabv3plus/expanded_conv_11/depthwise/BatchNorm/FusedBatchNormV3", "op": "Add", "input": ["StatefulPartitionedCall/deeplabv3plus/expanded_conv_11/depthwise/BatchNorm/FusedBatchNormV3/Mul", "StatefulPartitionedCall/deeplabv3plus/expanded_conv_11/depthwise/BatchNorm/FusedBatchNormV3/Offset"], "attr": {"T": {"type": "DT_FLOAT"}}}, {"name": "StatefulPartitionedCall/deeplabv3plus/expanded_conv_11/depthwise/HardSwish/hard_sigmoid_25/add", "op": "AddV2", "input": ["StatefulPartitionedCall/deeplabv3plus/expanded_conv_11/depthwise/BatchNorm/FusedBatchNormV3", "StatefulPartitionedCall/deeplabv3plus/expanded_conv_11/depthwise/HardSwish/hard_sigmoid_25/add/y"], "attr": {"T": {"type": "DT_FLOAT"}}}, {"name": "StatefulPartitionedCall/deeplabv3plus/expanded_conv_11/depthwise/HardSwish/hard_sigmoid_25/re_lu_34/Relu6", "op": "Relu6", "input": ["StatefulPartitionedCall/deeplabv3plus/expanded_conv_11/depthwise/HardSwish/hard_sigmoid_25/add"], "attr": {"T": {"type": "DT_FLOAT"}}}, {"name": "StatefulPartitionedCall/deeplabv3plus/expanded_conv_11/depthwise/HardSwish/hard_sigmoid_25/mul", "op": "Mul", "input": ["StatefulPartitionedCall/deeplabv3plus/expanded_conv_11/depthwise/HardSwish/hard_sigmoid_25/mul/y", "StatefulPartitionedCall/deeplabv3plus/expanded_conv_11/depthwise/HardSwish/hard_sigmoid_25/re_lu_34/Relu6"], "attr": {"_grappler_ArithmeticOptimizer_MinimizeBroadcasts": {"b": true}, "T": {"type": "DT_FLOAT"}}}, {"name": "StatefulPartitionedCall/deeplabv3plus/expanded_conv_11/depthwise/HardSwish/mul", "op": "Mul", "input": ["StatefulPartitionedCall/deeplabv3plus/expanded_conv_11/depthwise/HardSwish/hard_sigmoid_25/mul", "StatefulPartitionedCall/deeplabv3plus/expanded_conv_11/depthwise/BatchNorm/FusedBatchNormV3"], "attr": {"_grappler_ArithmeticOptimizer_MinimizeBroadcasts": {"b": true}, "T": {"type": "DT_FLOAT"}}}, {"name": "StatefulPartitionedCall/deeplabv3plus/expanded_conv_11/squeeze_excite/AvgPool/Mean", "op": "Mean", "input": ["StatefulPartitionedCall/deeplabv3plus/expanded_conv_11/depthwise/HardSwish/mul", "StatefulPartitionedCall/deeplabv3plus/expanded_conv_11/squeeze_excite/AvgPool/Mean/reduction_indices"], "attr": {"keep_dims": {"b": false}, "Tidx": {"type": "DT_INT32"}, "T": {"type": "DT_FLOAT"}}}, {"name": "StatefulPartitionedCall/deeplabv3plus/reshape_13/Shape", "op": "Shape", "input": ["StatefulPartitionedCall/deeplabv3plus/expanded_conv_11/squeeze_excite/AvgPool/Mean"], "attr": {"T": {"type": "DT_FLOAT"}, "out_type": {"type": "DT_INT32"}}}, {"name": "StatefulPartitionedCall/deeplabv3plus/reshape_13/strided_slice", "op": "StridedSlice", "input": ["StatefulPartitionedCall/deeplabv3plus/reshape_13/Shape", "StatefulPartitionedCall/deeplabv3plus/reshape_13/strided_slice/stack", "StatefulPartitionedCall/deeplabv3plus/reshape_13/strided_slice/stack_1", "StatefulPartitionedCall/deeplabv3plus/reshape_13/strided_slice/stack_2"], "attr": {"T": {"type": "DT_INT32"}, "Index": {"type": "DT_INT32"}, "shrink_axis_mask": {"i": "1"}, "ellipsis_mask": {"i": "0"}, "begin_mask": {"i": "0"}, "new_axis_mask": {"i": "0"}, "end_mask": {"i": "0"}}}, {"name": "StatefulPartitionedCall/deeplabv3plus/reshape_13/Reshape/shape", "op": "Pack", "input": ["StatefulPartitionedCall/deeplabv3plus/reshape_13/strided_slice", "StatefulPartitionedCall/deeplabv3plus/reshape_13/Reshape/shape/1", "StatefulPartitionedCall/deeplabv3plus/reshape_13/Reshape/shape/2", "StatefulPartitionedCall/deeplabv3plus/reshape_13/Reshape/shape/3"], "attr": {"T": {"type": "DT_INT32"}, "axis": {"i": "0"}, "N": {"i": "4"}}}, {"name": "StatefulPartitionedCall/deeplabv3plus/reshape_13/Reshape", "op": "Reshape", "input": ["StatefulPartitionedCall/deeplabv3plus/expanded_conv_11/squeeze_excite/AvgPool/Mean", "StatefulPartitionedCall/deeplabv3plus/reshape_13/Reshape/shape"], "attr": {"T": {"type": "DT_FLOAT"}, "Tshape": {"type": "DT_INT32"}}}, {"name": "StatefulPartitionedCall/deeplabv3plus/expanded_conv_11/squeeze_excite/Relu/Relu", "op": "_FusedConv2D", "input": ["StatefulPartitionedCall/deeplabv3plus/reshape_13/Reshape", "StatefulPartitionedCall/deeplabv3plus/expanded_conv_11/squeeze_excite/Conv/Conv2D/ReadVariableOp", "StatefulPartitionedCall/deeplabv3plus/expanded_conv_11/squeeze_excite/Conv/BiasAdd/ReadVariableOp"], "device": "/device:CPU:0", "attr": {"dilations": {"list": {"i": ["1", "1", "1", "1"]}}, "T": {"type": "DT_FLOAT"}, "data_format": {"s": "TkhXQw=="}, "strides": {"list": {"i": ["1", "1", "1", "1"]}}, "explicit_paddings": {"list": {}}, "use_cudnn_on_gpu": {"b": true}, "num_args": {"i": "1"}, "epsilon": {"f": 0.0}, "padding": {"s": "U0FNRQ=="}, "fused_ops": {"list": {"s": ["Qmlhc0FkZA==", "UmVsdQ=="]}}}}, {"name": "StatefulPartitionedCall/deeplabv3plus/expanded_conv_11/squeeze_excite/Conv_1/BiasAdd", "op": "_FusedConv2D", "input": ["StatefulPartitionedCall/deeplabv3plus/expanded_conv_11/squeeze_excite/Relu/Relu", "StatefulPartitionedCall/deeplabv3plus/expanded_conv_11/squeeze_excite/Conv_1/Conv2D/ReadVariableOp", "StatefulPartitionedCall/deeplabv3plus/expanded_conv_11/squeeze_excite/Conv_1/BiasAdd/ReadVariableOp"], "device": "/device:CPU:0", "attr": {"dilations": {"list": {"i": ["1", "1", "1", "1"]}}, "T": {"type": "DT_FLOAT"}, "data_format": {"s": "TkhXQw=="}, "strides": {"list": {"i": ["1", "1", "1", "1"]}}, "explicit_paddings": {"list": {}}, "use_cudnn_on_gpu": {"b": true}, "num_args": {"i": "1"}, "epsilon": {"f": 0.0}, "padding": {"s": "U0FNRQ=="}, "fused_ops": {"list": {"s": ["Qmlhc0FkZA=="]}}}}, {"name": "StatefulPartitionedCall/deeplabv3plus/expanded_conv_11/squeeze_excite/HardSigmoid/add", "op": "AddV2", "input": ["StatefulPartitionedCall/deeplabv3plus/expanded_conv_11/squeeze_excite/Conv_1/BiasAdd", "StatefulPartitionedCall/deeplabv3plus/expanded_conv_11/squeeze_excite/HardSigmoid/add/y"], "attr": {"T": {"type": "DT_FLOAT"}}}, {"name": "StatefulPartitionedCall/deeplabv3plus/expanded_conv_11/squeeze_excite/HardSigmoid/re_lu_35/Relu6", "op": "Relu6", "input": ["StatefulPartitionedCall/deeplabv…
 "StatefulPartitionedCall/deeplabv3plus/concatenate_12/concat", "op": "ConcatV2", "input": ["StatefulPartitionedCall/deeplabv3plus/lambda_11/resize/ResizeBilinear", "StatefulPartitionedCall/deeplabv3plus/aspp0_activation/Relu", "StatefulPartitionedCall/deeplabv3plus/activation_18/Relu", "StatefulPartitionedCall/deeplabv3plus/activation_20/Relu", "StatefulPartitionedCall/deeplabv3plus/activation_22/Relu", "StatefulPartitionedCall/deeplabv3plus/concatenate_12/concat/axis"], "attr": {"Tidx": {"type": "DT_INT32"}, "T": {"type": "DT_FLOAT"}, "N": {"i": "5"}}}, {"name": "StatefulPartitionedCall/deeplabv3plus/concat_projection/Conv2D", "op": "Conv2D", "input": ["StatefulPartitionedCall/deeplabv3plus/concatenate_12/concat", "StatefulPartitionedCall/deeplabv3plus/concat_projection/Conv2D/ReadVariableOp"], "device": "/device:CPU:0", "attr": {"dilations": {"list": {"i": ["1", "1", "1", "1"]}}, "T": {"type": "DT_FLOAT"}, "data_format": {"s": "TkhXQw=="}, "strides": {"list": {"i": ["1", "1", "1", "1"]}}, "use_cudnn_on_gpu": {"b": true}, "explicit_paddings": {"list": {}}, "padding": {"s": "U0FNRQ=="}}}, {"name": "StatefulPartitionedCall/deeplabv3plus/global_average_pooling2d_4/Mean", "op": "Mean", "input": ["StatefulPartitionedCall/deeplabv3plus/concat_projection/Conv2D", "StatefulPartitionedCall/deeplabv3plus/global_average_pooling2d_4/Mean/reduction_indices"], "attr": {"keep_dims": {"b": false}, "Tidx": {"type": "DT_INT32"}, "T": {"type": "DT_FLOAT"}}}, {"name": "StatefulPartitionedCall/deeplabv3plus/reshape_14/Shape", "op": "Shape", "input": ["StatefulPartitionedCall/deeplabv3plus/global_average_pooling2d_4/Mean"], "attr": {"T": {"type": "DT_FLOAT"}, "out_type": {"type": "DT_INT32"}}}, {"name": "StatefulPartitionedCall/deeplabv3plus/reshape_14/strided_slice", "op": "StridedSlice", "input": ["StatefulPartitionedCall/deeplabv3plus/reshape_14/Shape", "StatefulPartitionedCall/deeplabv3plus/reshape_14/strided_slice/stack", "StatefulPartitionedCall/deeplabv3plus/reshape_14/strided_slice/stack_1", "StatefulPartitionedCall/deeplabv3plus/reshape_14/strided_slice/stack_2"], "attr": {"T": {"type": "DT_INT32"}, "Index": {"type": "DT_INT32"}, "shrink_axis_mask": {"i": "1"}, "ellipsis_mask": {"i": "0"}, "begin_mask": {"i": "0"}, "new_axis_mask": {"i": "0"}, "end_mask": {"i": "0"}}}, {"name": "StatefulPartitionedCall/deeplabv3plus/reshape_14/Reshape/shape", "op": "Pack", "input": ["StatefulPartitionedCall/deeplabv3plus/reshape_14/strided_slice", "StatefulPartitionedCall/deeplabv3plus/reshape_14/Reshape/shape/1", "StatefulPartitionedCall/deeplabv3plus/reshape_14/Reshape/shape/2"], "attr": {"T": {"type": "DT_INT32"}, "axis": {"i": "0"}, "N": {"i": "3"}}}, {"name": "StatefulPartitionedCall/deeplabv3plus/reshape_14/Reshape", "op": "Reshape", "input": ["StatefulPartitionedCall/deeplabv3plus/global_average_pooling2d_4/Mean", "StatefulPartitionedCall/deeplabv3plus/reshape_14/Reshape/shape"], "attr": {"T": {"type": "DT_FLOAT"}, "Tshape": {"type": "DT_INT32"}}}, {"name": "StatefulPartitionedCall/deeplabv3plus/conv1d_2/conv1d/ExpandDims", "op": "ExpandDims", "input": ["StatefulPartitionedCall/deeplabv3plus/reshape_14/Reshape", "StatefulPartitionedCall/deeplabv3plus/conv1d_2/conv1d/ExpandDims/dim"], "attr": {"Tdim": {"type": "DT_INT32"}, "T": {"type": "DT_FLOAT"}}}, {"name": "StatefulPartitionedCall/deeplabv3plus/conv1d_2/conv1d", "op": "Conv2D", "input": ["StatefulPartitionedCall/deeplabv3plus/conv1d_2/conv1d/ExpandDims", "StatefulPartitionedCall/deeplabv3plus/conv1d_2/conv1d/ExpandDims_1"], "device": "/device:CPU:0", "attr": {"dilations": {"list": {"i": ["1", "1", "1", "1"]}}, "T": {"type": "DT_FLOAT"}, "data_format": {"s": "TkhXQw=="}, "strides": {"list": {"i": ["1", "1", "1", "1"]}}, "use_cudnn_on_gpu": {"b": true}, "explicit_paddings": {"list": {}}, "padding": {"s": "U0FNRQ=="}}}, {"name": "StatefulPartitionedCall/deeplabv3plus/conv1d_2/conv1d/Squeeze", "op": "Squeeze", "input": ["StatefulPartitionedCall/deeplabv3plus/conv1d_2/conv1d"], "attr": {"squeeze_dims": {"list": {"i": ["-3"]}}, "T": {"type": "DT_FLOAT"}}}, {"name": "StatefulPartitionedCall/deeplabv3plus/activation_24/Sigmoid", "op": "Sigmoid", "input": ["StatefulPartitionedCall/deeplabv3plus/conv1d_2/conv1d/Squeeze"], "attr": {"T": {"type": "DT_FLOAT"}}}, {"name": "StatefulPartitionedCall/deeplabv3plus/reshape_15/Shape", "op": "Shape", "input": ["StatefulPartitionedCall/deeplabv3plus/activation_24/Sigmoid"], "attr": {"T": {"type": "DT_FLOAT"}, "out_type": {"type": "DT_INT32"}}}, {"name": "StatefulPartitionedCall/deeplabv3plus/reshape_15/strided_slice", "op": "StridedSlice", "input": ["StatefulPartitionedCall/deeplabv3plus/reshape_15/Shape", "StatefulPartitionedCall/deeplabv3plus/reshape_15/strided_slice/stack", "StatefulPartitionedCall/deeplabv3plus/reshape_15/strided_slice/stack_1", "StatefulPartitionedCall/deeplabv3plus/reshape_15/strided_slice/stack_2"], "attr": {"T": {"type": "DT_INT32"}, "Index": {"type": "DT_INT32"}, "shrink_axis_mask": {"i": "1"}, "ellipsis_mask": {"i": "0"}, "begin_mask": {"i": "0"}, "new_axis_mask": {"i": "0"}, "end_mask": {"i": "0"}}}, {"name": "StatefulPartitionedCall/deeplabv3plus/reshape_15/Reshape/shape", "op": "Pack", "input": ["StatefulPartitionedCall/deeplabv3plus/reshape_15/strided_slice", "StatefulPartitionedCall/deeplabv3plus/reshape_15/Reshape/shape/1", "StatefulPartitionedCall/deeplabv3plus/reshape_15/Reshape/shape/2", "StatefulPartitionedCall/deeplabv3plus/reshape_15/Reshape/shape/3"], "attr": {"T": {"type": "DT_INT32"}, "axis": {"i": "0"}, "N": {"i": "4"}}}, {"name": "StatefulPartitionedCall/deeplabv3plus/reshape_15/Reshape", "op": "Reshape", "input": ["StatefulPartitionedCall/deeplabv3plus/activation_24/Sigmoid", "StatefulPartitionedCall/deeplabv3plus/reshape_15/Reshape/shape"], "attr": {"T": {"type": "DT_FLOAT"}, "Tshape": {"type": "DT_INT32"}}}, {"name": "StatefulPartitionedCall/deeplabv3plus/multiply_4/mul", "op": "Mul", "input": ["StatefulPartitionedCall/deeplabv3plus/concat_projection/Conv2D", "StatefulPartitionedCall/deeplabv3plus/reshape_15/Reshape"], "attr": {"T": {"type": "DT_FLOAT"}}}, {"name": "StatefulPartitionedCall/deeplabv3plus/lambda_12/Mean", "op": "Mean", "input": ["StatefulPartitionedCall/deeplabv3plus/multiply_4/mul", "StatefulPartitionedCall/deeplabv3plus/lambda_12/Mean/reduction_indices"], "attr": {"keep_dims": {"b": true}, "Tidx": {"type": "DT_INT32"}, "T": {"type": "DT_FLOAT"}}}, {"name": "StatefulPartitionedCall/deeplabv3plus/lambda_13/Max", "op": "Max", "input": ["StatefulPartitionedCall/deeplabv3plus/multiply_4/mul", "StatefulPartitionedCall/deeplabv3plus/lambda_13/Max/reduction_indices"], "attr": {"keep_dims": {"b": true}, "Tidx": {"type": "DT_INT32"}, "T": {"type": "DT_FLOAT"}}}, {"name": "StatefulPartitionedCall/deeplabv3plus/concatenate_13/concat", "op": "ConcatV2", "input": ["StatefulPartitionedCall/deeplabv3plus/lambda_12/Mean", "StatefulPartitionedCall/deeplabv3plus/lambda_13/Max", "StatefulPartitionedCall/deeplabv3plus/concatenate_13/concat/axis"], "attr": {"Tidx": {"type": "DT_INT32"}, "T": {"type": "DT_FLOAT"}, "N": {"i": "2"}}}, {"name": "StatefulPartitionedCall/deeplabv3plus/conv2d_4/Conv2D", "op": "Conv2D", "input": ["StatefulPartitionedCall/deeplabv3plus/concatenate_13/concat", "StatefulPartitionedCall/deeplabv3plus/conv2d_4/Conv2D/ReadVariableOp"], "device": "/device:CPU:0", "attr": {"dilations": {"list": {"i": ["1", "1", "1", "1"]}}, "T": {"type": "DT_FLOAT"}, "data_format": {"s": "TkhXQw=="}, "strides": {"list": {"i": ["1", "1", "1", "1"]}}, "use_cudnn_on_gpu": {"b": true}, "explicit_paddings": {"list": {}}, "padding": {"s": "U0FNRQ=="}}}, {"name": "StatefulPartitionedCall/deeplabv3plus/activation_25/Sigmoid", "op": "Sigmoid", "input": ["StatefulPartitionedCall/deeplabv3plus/conv2d_4/Conv2D"], "attr": {"T": {"type": "DT_FLOAT"}}}, {"name": "StatefulPartitionedCall/deeplabv3plus/multiply_5/mul", "op": "Mul", "input": ["StatefulPartitionedCall/deeplabv3plus/concat_projection_BN/FusedBatchNormV3/Scaled", "StatefulPartitionedCall/deeplabv3plus/activation_25/Sigmoid"], "attr": {"_grappler_ArithmeticOptimizer_MinimizeBroadcasts": {"b": true}, "T": {"type": "DT_FLOAT"}}}, {"name": "StatefulPartitionedCall/deeplabv3plus/concat_projection_BN/FusedBatchNormV3/Mul", "op": "Mul", "input": ["StatefulPartitionedCall/deeplabv3plus/multiply_5/mul", "StatefulPartitionedCall/deeplabv3plus/multiply_4/mul"], "attr": {"_grappler_ArithmeticOptimizer_MinimizeBroadcasts": {"b": true}, "T": {"type": "DT_FLOAT"}}}, {"name": "StatefulPartitionedCall/deeplabv3plus/concat_projection_BN/FusedBatchNormV3", "op": "Add", "input": ["StatefulPartitionedCall/deeplabv3plus/concat_projection_BN/FusedBatchNormV3/Mul", "StatefulPartitionedCall/deeplabv3plus/concat_projection_BN/FusedBatchNormV3/Offset"], "attr": {"T": {"type": "DT_FLOAT"}}}, {"name": "StatefulPartitionedCall/deeplabv3plus/activation_26/Relu", "op": "Relu", "input": ["StatefulPartitionedCall/deeplabv3plus/concat_projection_BN/FusedBatchNormV3"], "attr": {"T": {"type": "DT_FLOAT"}}}, {"name": "StatefulPartitionedCall/deeplabv3plus/lambda_14/resize/ResizeBilinear", "op": "ResizeBilinear", "input": ["StatefulPartitionedCall/deeplabv3plus/activation_26/Relu", "StatefulPartitionedCall/deeplabv3plus/lambda_14/resize/size"], "attr": {"align_corners": {"b": false}, "half_pixel_centers": {"b": true}, "T": {"type": "DT_FLOAT"}}}, {"name": "StatefulPartitionedCall/deeplabv3plus/concatenate_15/concat", "op": "ConcatV2", "input": ["StatefulPartitionedCall/deeplabv3plus/lambda_14/resize/ResizeBilinear", "StatefulPartitionedCall/deeplabv3plus/activation_29/Relu", "StatefulPartitionedCall/deeplabv3plus/concatenate_15/concat/axis"], "attr": {"Tidx": {"type": "DT_INT32"}, "T": {"type": "DT_FLOAT"}, "N": {"i": "2"}}}, {"name": "StatefulPartitionedCall/deeplabv3plus/decoder_conv0_depthwise/depthwise", "op": "FusedDepthwiseConv2dNative", "input": ["StatefulPartitionedCall/deeplabv3plus/concatenate_15/concat", "StatefulPartitionedCall/deeplabv3plus/decoder_conv0_depthwise/depthwise_weights", "StatefulPartitionedCall/deeplabv3plus/decoder_conv0_depthwise/depthwise_bn_offset"], "attr": {"dilations": {"list": {"i": ["1", "1", "1", "1"]}}, "T": {"type": "DT_FLOAT"}, "data_format": {"s": "TkhXQw=="}, "strides": {"list": {"i": ["1", "1", "1", "1"]}}, "explicit_paddings": {"list": {}}, "padding": {"s": "U0FNRQ=="}, "num_args": {"i": "1"}, "fused_ops": {"list": {"s": ["Qmlhc0FkZA==", "UmVsdQ=="]}}}}, {"name": "StatefulPartitionedCall/deeplabv3plus/activation_31/Relu", "op": "_FusedConv2D", "input": ["StatefulPartitionedCall/deeplabv3plus/decoder_conv0_depthwise/depthwise", "StatefulPartitionedCall/deeplabv3plus/decoder_conv0_pointwise/Conv2D_weights", "StatefulPartitionedCall/deeplabv3plus/decoder_conv0_pointwise/Conv2D_bn_offset"], "device": "/device:CPU:0", "attr": {"dilations": {"list": {"i": ["1", "1", "1", "1"]}}, "T": {"type": "DT_FLOAT"}, "data_format": {"s": "TkhXQw=="}, "strides": {"list": {"i": ["1", "1", "1", "1"]}}, "explicit_paddings": {"list": {}}, "use_cudnn_on_gpu": {"b": true}, "num_args": {"i": "1"}, "epsilon": {"f": 0.0}, "padding": {"s": "U0FNRQ=="}, "fused_ops": {"list": {"s": ["Qmlhc0FkZA==", "UmVsdQ=="]}}}}, {"name": "StatefulPartitionedCall/deeplabv3plus/decoder_conv1_depthwise/depthwise", "op": "FusedDepthwiseConv2dNative", "input": ["StatefulPartitionedCall/deeplabv3plus/activation_31/Relu", "StatefulPartitionedCall/deeplabv3plus/decoder_conv1_depthwise/depthwise_weights", "StatefulPartitionedCall/deeplabv3plus/decoder_conv1_depthwise/depthwise_bn_offset"], "attr": {"dilations": {"list": {"i": ["1", "1", "1", "1"]}}, "T": {"type": "DT_FLOAT"}, "data_format": {"s": "TkhXQw=="}, "strides": {"list": {"i": ["1", "1", "1", "1"]}}, "explicit_paddings": {"list": {}}, "padding": {"s": "U0FNRQ=="}, "num_args": {"i": "1"}, "fused_ops": {"list": {"s": ["Qmlhc0FkZA==", "UmVsdQ=="]}}}}, {"name": "StatefulPartitionedCall/deeplabv3plus/activation_33/Relu", "op": "_FusedConv2D", "input": ["StatefulPartitionedCall/deeplabv3plus/decoder_conv1_depthwise/depthwise", "StatefulPartitionedCall/deeplabv3plus/decoder_conv1_pointwise/Conv2D_weights", "StatefulPartitionedCall/deeplabv3plus/decoder_conv1_pointwise/Conv2D_bn_offset"], "device": "/device:CPU:0", "attr": {"dilations": {"list": {"i": ["1", "1", "1", "1"]}}, "T": {"type": "DT_FLOAT"}, "data_format": {"s": "TkhXQw=="}, "strides": {"list": {"i": ["1", "1", "1", "1"]}}, "explicit_paddings": {"list": {}}, "use_cudnn_on_gpu": {"b": true}, "num_args": {"i": "1"}, "epsilon": {"f": 0.0}, "padding": {"s": "U0FNRQ=="}, "fused_ops": {"list": {"s": ["Qmlhc0FkZA==", "UmVsdQ=="]}}}}, {"name": "StatefulPartitionedCall/deeplabv3plus/conv2d_6/BiasAdd", "op": "_FusedConv2D", "input": ["StatefulPartitionedCall/deeplabv3plus/activation_33/Relu", "StatefulPartitionedCall/deeplabv3plus/conv2d_6/Conv2D/ReadVariableOp", "StatefulPartitionedCall/deeplabv3plus/conv2d_6/BiasAdd/ReadVariableOp"], "device": "/device:CPU:0", "attr": {"dilations": {"list": {"i": ["1", "1", "1", "1"]}}, "T": {"type": "DT_FLOAT"}, "data_format": {"s": "TkhXQw=="}, "strides": {"list": {"i": ["1", "1", "1", "1"]}}, "explicit_paddings": {"list": {}}, "use_cudnn_on_gpu": {"b": true}, "num_args": {"i": "1"}, "epsilon": {"f": 0.0}, "padding": {"s": "U0FNRQ=="}, "fused_ops": {"list": {"s": ["Qmlhc0FkZA=="]}}}}, {"name": "StatefulPartitionedCall/deeplabv3plus/lambda_17/resize/ResizeBilinear", "op": "ResizeBilinear", "input": ["StatefulPartitionedCall/deeplabv3plus/conv2d_6/BiasAdd", "StatefulPartitionedCall/deeplabv3plus/lambda_17/resize/size"], "attr": {"align_corners": {"b": false}, "half_pixel_centers": {"b": true}, "T": {"type": "DT_FLOAT"}}}, {"name": "StatefulPartitionedCall/deeplabv3plus/conv2d_7/BiasAdd", "op": "_FusedConv2D", "input": ["StatefulPartitionedCall/deeplabv3plus/lambda_17/resize/ResizeBilinear", "StatefulPartitionedCall/deeplabv3plus/conv2d_7/Conv2D/ReadVariableOp", "StatefulPartitionedCall/deeplabv3plus/conv2d_7/BiasAdd/ReadVariableOp"], "device": "/device:CPU:0", "attr": {"dilations": {"list": {"i": ["1", "1", "1", "1"]}}, "T": {"type": "DT_FLOAT"}, "data_format": {"s": "TkhXQw=="}, "strides": {"list": {"i": ["1", "1", "1", "1"]}}, "explicit_paddings": {"list": {}}, "use_cudnn_on_gpu": {"b": true}, "num_args": {"i": "1"}, "epsilon": {"f": 0.0}, "padding": {"s": "U0FNRQ=="}, "fused_ops": {"list": {"s": ["Qmlhc0FkZA=="]}}}}, {"name": "Identity", "op": "Identity", "input": ["StatefulPartitionedCall/deeplabv3plus/conv2d_7/BiasAdd"], "attr": {"T": {"type": "DT_FLOAT"}}}], "library": {}, "versions": {"producer": 716}}, "weightsManifest": [{"paths": ["group1-shard1of3.bin", "group1-shard2of3.bin", "group1-shard3of3.bin"], "weights": [{"name": "StatefulPartitionedCall/deeplabv3plus/lambda_12/Mean/reduction_indices", "shape": [], "dtype": "int32"}, {"name": "StatefulPartitionedCall/deeplabv3plus/concatenate_11/concat/axis", "shape": [], "dtype": "int32"}, {"name": "StatefulPartitionedCall/deeplabv3plus/global_average_pooling2d_3/Mean/reduction_indices", "shape": [2], "dtype": "int32"}, {"name": "StatefulPartitionedCall/deeplabv3plus/lambda_9/ExpandDims/dim", "shape": [], "dtype": "int32"}, {"name": "StatefulPartitionedCall/deeplabv3plus/lambda_10/ExpandDims/dim", "shape": [], "dtype": "int32"}, {"name": "StatefulPartitionedCall/deeplabv3plus/lambda_11/resize/size", "shape": [2], "dtype": "int32"}, {"name": "StatefulPartitionedCall/deeplabv3plus/expanded_conv_11/squeeze_excite/HardSigmoid/mul/y", "shape": [], "dtype": "float32"}, {"name": "StatefulPartitionedCall/deeplabv3plus/expanded_conv_11/squeeze_excite/AvgPool/Mean/reduction_indices", "shape": [2], "dtype": "int32"}, {"name": "StatefulPartitionedCall/deeplabv3plus/reshape_13/strided_slice/stack", "shape": [1], "dtype": "int32"}, {"name": "StatefulPartitionedCall/deeplabv3plus/reshape_13/strided_slice/stack_1", "shape": [1], "dtype": "int32"}, {"name": "StatefulPartitionedCall/deeplabv3plus/reshape_13/strided_slice/stack_2", "shape": [1], "dtype": "int32"}, {"name": "StatefulPartitionedCall/deeplabv3plus/reshape_13/Reshape/shape/1", "shape": [], "dtype": "int32"}, {"name": "StatefulPartitionedCall/deeplabv3plus/reshape_13/Reshape/shape/2", "shape": [], "dtype": "int32"}, {"name": "StatefulPartitionedCall/deeplabv3plus/reshape_13/Reshape/shape/3", "shape": [], "dtype": "int32"}, {"name": "StatefulPartitionedCall/deeplabv3plus/expanded_conv_11/squeeze_excite/Conv/Conv2D/ReadVariableOp", "shape": [1, 1, 672, 168], "dtype": "float32"}, {"name": "StatefulPartitionedCall/deeplabv3plus/expanded_conv_11/squeeze_excite/Conv/BiasAdd/ReadVariableOp", "shape": [168], "dtype": "float32"}, {"name": "StatefulPartitionedCall/deeplabv3plus/expanded_conv_11/squeeze_excite/Conv_1/Conv2D/ReadVariableOp", "shape": [1, 1, 168, 672], "dtype": "float32"}, {"name": "StatefulPartitionedCall/deeplabv3plus/expanded_conv_11/squeeze_excite/Conv_1/BiasAdd/ReadVariableOp", "shape": [672], "dtype": "float32"}, {"name": "StatefulPartitionedCall/deeplabv3plus/expanded_conv_11/squeeze_excite/HardSigmoid/add/y", "shape": [], "dtype": "float32"}, {"name": "StatefulPartitionedCall/deeplabv3plus/expanded_conv_11/depthwise/HardSwish/hard_sigmoid_25/mul/y", "shape": [], "dtype": "float32"}, {"name": "StatefulPartitionedCall/deeplabv3plus/expanded_conv_11/depthwise/HardSwish/hard_sigmoid_25/add/y", "shape": [], "dtype": "float32"}, {"name": "StatefulPartitionedCall/deeplabv3plus/expanded_conv_11/expand/HardSwish/hard_sigmoid_24/mul/y", "shape": [], "dtype": "float32"}, {"name": "StatefulPartitionedCall/deeplabv3plus/expanded_conv_11/expand/HardSwish/hard_sigmoid_24/add/y", "shape": [], "dtype": "float32"}, {"name": "StatefulPartitionedCall/deeplabv3plus/expanded_conv_10/squeeze_excite/HardSigmoid/mul/y", "shape": [], "dtype": "float32"}, {"name": "StatefulPartitionedCall/deeplabv3plus/expanded_conv_10/squeeze_excite/AvgPool/Mean/reduction_indices", "shape": [2], "dtype": "int32"}, {"name": "StatefulPartitionedCall/deeplabv3plus/reshape_12/strided_slice/stack", "shape": [1], "dtype": "int32"}, {"name": "StatefulPartitionedCall/deeplabv3plus/reshape_12/strided_slice/stack_1", "shape": [1], "dtype": "int32"}, {"name": "StatefulPartitionedCall/deeplabv3plus/reshape_12/strided_slice/stack_2", "shape": [1], "dtype": "int32"}, {"name": "StatefulPartitionedCall/deeplabv3plus/reshape_12/Reshape/shape/1", "shape": [], "dtype": "int32"}, {"name": "StatefulPartitionedCall/deeplabv3plus/reshape_12/Reshape/shape/2", "shape": [], "dtype": "int32"}, {"name": "StatefulPartitionedCall/deeplabv3plus/reshape_12/Reshape/shape/3", "shape": [], "dtype": "int32"}, {"name": "StatefulPartitionedCall/deeplabv3plus/expanded_conv_10/squeeze_excite/Conv/Conv2D/ReadVariableOp", "shape": [1, 1, 480, 120], "dtype": "float32"}, {"name": "StatefulPartitionedCall/deeplabv3plus/expanded_conv_10/squeeze_excite/Conv/BiasAdd/ReadVariableOp", "shape": [120], "dtype": "float32"}, {"name": "StatefulPartitionedCall/deeplabv3plus/expanded_conv_10/squeeze_excite/Conv_1/Conv2D/ReadVariableOp", "shape": [1, 1, 120, 480], "dtype": "float32"}, {"name": "StatefulPartitionedCall/deeplabv3plus/expanded_conv_10/squeeze_excite/Conv_1/BiasAdd/ReadVariableOp", "shape": [480], "dtype": "float32"}, {"name": "StatefulPartitionedCall/deeplabv3plus/expanded_conv_10/squeeze_excite/HardSigmoid/add/y", "shape": [], "dtype": "float32"}, {"name": "StatefulPartitionedCall/deeplabv3plus/expanded_conv_10/depthwise/HardSwish/hard_sigmoid_23/mul/y", "shape": [], "dtype": "float32"}, {"name": "StatefulPartitionedCall/deeplabv3plus/expanded_conv_10/depthwise/HardSwish/hard_sigmoid_23/add/y", "shape": [], "dtype": "float32"}, {"name": "StatefulPartitionedCall/deeplabv3plus/expanded_conv_10/expand/HardSwish/hard_sigmoid_22/mul/y", "shape": [], "dtype": "float32"}, {"name": "StatefulPartitionedCall/deeplabv3plus/expanded_conv_10/expand/HardSwish/hard_sigmoid_22/add/y", "shape": [], "dtype": "float32"}, {"name": "StatefulPartitionedCall/deeplabv3plus/expanded_conv_9/depthwise/HardSwish/hard_sigmoid_21/mul/y", "shape": [], "dtype": "float32"}, {"name": "StatefulPartitionedCall/deeplabv3plus/expanded_conv_9/depthwise/HardSwish/hard_sigmoid_21/add/y", "shape": [], "dtype": "float32"}, {"name": "StatefulPartitionedCall/deeplabv3plus/expanded_conv_9/expand/HardSwish/hard_sigmoid_20/mul/y", "shape": [], "dtype": "float32"}, {"name": "StatefulPartitionedCall/deeplabv3plus/expanded_conv_9/expand/HardSwish/hard_sigmoid_20/add/y", "shape": [], "dtype": "float32"}, {"name": "StatefulPartitionedCall/deeplabv3plus/expanded_conv_8/depthwise/HardSwish/hard_sigmoid_19/mul/y", "shape": [], "dtype": "float32"}, {"name": "StatefulPartitionedCall/deeplabv3plus/expanded_conv_8/depthwise/HardSwish/hard_sigmoid_19/add/y", "shape": [], "dtype": "float32"}, {"name": "StatefulPartitionedCall/deeplabv3plus/expanded_conv_8/expand/HardSwish/hard_sigmoid_18/mul/y", "shape": [], "dtype": "float32"}, {"name": "StatefulPartitionedCall/deeplabv3plus/expanded_conv_8/expand/HardSwish/hard_sigmoid_18/add/y", "shape": [], "dtype": "float32"}, {"name": "StatefulPartitionedCall/deeplabv3plus/expanded_conv_7/depthwise/HardSwish/hard_sigmoid_17/mul/y", "shape": [], "dtype": "float32"}, {"name": "StatefulPartitionedCall/deeplabv3plus/expanded_conv_7/depthwise/HardSwish/hard_sigmoid_17/add/y", "shape": [], "dtype": "float32"}, {"name": "StatefulPartitionedCall/deeplabv3plus/expanded_conv_7/expand/HardSwish/hard_sigmoid_16/mul/y", "shape": [], "dtype": "float32"}, {"name": "StatefulPartitionedCall/deeplabv3plus/expanded_conv_7/expand/HardSwish/hard_sigmoid_16/add/y", "shape": [], "dtype": "float32"}, {"name": "StatefulPartitionedCall/deeplabv3plus/expanded_conv_6/depthwise/HardSwish/hard_sigmoid_15/mul/y", "shape": [], "dtype": "float32"}, {"name": "StatefulPartitionedCall/deeplabv3plus/expanded_conv_6/depthwise/HardSwish/hard_sigmoid_15/add/y", "shape": [], "dtype": "float32"}, {"name": "StatefulPartitionedCall/deeplabv3plus/expanded_conv_6/expand/HardSwish/hard_sigmoid_14/mul/y", "shape": [], "dtype": "float32"}, {"name": "StatefulPartitionedCall/deeplabv3plus/expanded_conv_6/expand/HardSwish/hard_sigmoid_14/add/y", "shape": [], "dtype": "float32"}, {"name": "StatefulPartitionedCall/deeplabv3plus/expanded_conv_5/squeeze_excite/HardSigmoid/mul/y", "shape": [], "dtype": "float32"}, {"name": "StatefulPartitionedCall/deeplabv3plus/expanded_conv_5/squeeze_excite/AvgPool/Mean/reduction_indices", "shape": [2], "dtype": "int32"}, {"name": "StatefulPartitionedCall/deeplabv3plus/reshape_11/strided_slice/stack", "shape": [1], "dtype": "int32"}, {"name": "StatefulPartitionedCall/deeplabv3plus/reshape_11/strided_slice/stack_1", "shape": [1], "dtype": "int32"}, {"name": "StatefulPartitionedCall/deeplabv3plus/reshape_11/strided_slice/stack_2", "shape": [1], "dtype": "int32"}, {"name": "StatefulPartitionedCall/deeplabv3plus/reshape_11/Reshape/shape/1", "shape": [], "dtype": "int32"}, {"name": "StatefulPartitionedCall/deeplabv3plus/reshape_11/Reshape/shape/2", "shape": [], "dtype": "int32"}, {"name": "StatefulPartitionedCall/deeplabv3plus/reshape_11/Reshape/shape/3", "shape": [], "dtype": "int32"}, {"name": "StatefulPartitionedCall/deeplabv3plus/expanded_conv_5/squeeze_excite/Conv/Conv2D/ReadVariableOp", "shape": [1, 1, 120, 32], "dtype": "float32"}, {"name": "StatefulPartitionedCall/deeplabv3plus/expanded_conv_5/squeeze_excite/Conv/BiasAdd/ReadVariableOp", "shape": [32], "dtype": "float32"}, {"name": "StatefulPartitionedCall/deeplabv3plus/expanded_conv_5/squeeze_excite/Conv_1/Conv2D/ReadVariableOp", "shape": [1, 1, 32, 120], "dtype": "float32"}, {"name": "StatefulPartitionedCall/deeplabv3plus/expanded_conv_5/squeeze_excite/Conv_1/BiasAdd/ReadVariableOp", "shape": [120], "dtype": "float32"}, {"name": "StatefulPartitionedCall/deeplabv3plus/expanded_conv_5/squeeze_excite/HardSigmoid/add/y", "shape": [], "dtype": "float32"}, {"name": "StatefulPartitionedCall/deeplabv3plus/expanded_conv_4/squeeze_excite/HardSigmoid/mul/y", "shape": [], "dtype": "float32"}, {"name": "StatefulPartitionedCall/deeplabv3plus/expanded_conv_4/squeeze_excite/AvgPool/Mean/reduction_indices", "shape": [2], "dtype": "int32"}, {"name": "StatefulPartitionedCall/deeplabv3plus/reshape_10/strided_slice/stack", "shape": [1], "dtype": "int32"}, {"name": "StatefulPartitionedCall/deeplabv3plus/reshape_10/strided_slice/stack_1", "shape": [1], "dtype": "int32"}, {"name": "StatefulPartitionedCall/deeplabv3plus/reshape_10/strided_slice/stack_2", "shape": [1], "dtype": "int32"}, {"name": "StatefulPartitionedCall/deeplabv3plus/reshape_10/Reshape/shape/1", "shape": [], "dtype": "int32"}, {"name": "StatefulPartitionedCall/deeplabv3plus/reshape_10/Reshape/shape/2", "shape": [], "dtype": "int32"}, {"name": "StatefulPartitionedCall/deeplabv3plus/reshape_10/Reshape/shape/3", "shape": [], "dtype": "int32"}, {"name": "StatefulPartitionedCall/deeplabv3plus/expanded_conv_4/squeeze_excite/Conv/Conv2D/ReadVariableOp", "shape": [1, 1, 120, 32], "dtype": "float32"}, {"name": "StatefulPartitionedCall/deeplabv3plus/expanded_conv_4/squeeze_excite/Conv/BiasAdd/ReadVariableOp", "shape": [32], "dtype": "float32"}, {"name": "StatefulPartitionedCall/deeplabv3plus/expanded_conv_4/squeeze_excite/Conv_1/Conv2D/ReadVariableOp", "shape": [1, 1, 32, 120], "dtype": "float32"}, {"name": "StatefulPartitionedCall/deeplabv3plus/expanded_conv_4/squeeze_excite/Conv_1/BiasAdd/ReadVariableOp", "shape": [120], "dtype": "float32"}, {"name": "StatefulPartitionedCall/deeplabv3plus/expanded_conv_4/squeeze_excite/HardSigmoid/add/y", "shape": [], "dtype": "float32"}, {"name": "StatefulPartitionedCall/deeplabv3plus/expanded_conv_3/squeeze_excite/HardSigmoid/mul/y", "shape": [], "dtype": "float32"}, {"name": "StatefulPartitionedCall/deeplabv3plus/expanded_conv_3/squeeze_excite/AvgPool/Mean/reduction_indices", "shape": [2], "dtype": "int32"}, {"name": "StatefulPartitionedCall/deeplabv3plus/reshape_9/strided_slice/stack", "shape": [1], "dtype": "int32"}, {"name": "StatefulPartitionedCall/deeplabv3plus/reshape_9/strided_slice/stack_1", "shape": [1], "dtype": "int32"}, {"name": "StatefulPartitionedCall/deeplabv3plus/reshape_9/strided_slice/stack_2", "shape": [1], "dtype": "int32"}, {"name": "StatefulPartitionedCall/deeplabv3plus/reshape_9/Reshape/shape/1", "shape": [], "dtype": "int32"}, {"name": "StatefulPartitionedCall/deeplabv3plus/reshape_9/Reshape/shape/2", "shape": [], "dtype": "int32"}, {"name": "StatefulPartitionedCall/deeplabv3plus/reshape_9/Reshape/shape/3", "shape": [], "dtype": "int32"}, {"name": "StatefulPartitionedCall/deeplabv3plus/expanded_conv_3/squeeze_excite/Conv/Conv2D/ReadVariableOp", "shape": [1, 1, 72, 24], "dtype": "float32"}, {"name": "StatefulPartitionedCall/deeplabv3plus/expanded_conv_3/squeeze_excite/Conv/BiasAdd/ReadVariableOp", "shape": [24], "dtype": "float32"}, {"name": "StatefulPartitionedCall/deeplabv3plus/expanded_conv_3/squeeze_excite/Conv_1/Conv2D/ReadVariableOp", "shape": [1, 1, 24, 72], "dtype": "float32"}, {"name": "StatefulPartitionedCall/deeplabv3plus/expanded_conv_3/squeeze_excite/Conv_1/BiasAdd/ReadVariableOp", "shape": [72], "dtype": "float32"}, {"name": "StatefulPartitionedCall/deeplabv3plus/expanded_conv_3/squeeze_excite/HardSigmoid/add/y", "shape": [], "dtype": "float32"}, {"name": "StatefulPartitionedCall/deeplabv3plus/expanded_conv_3/depthwise/pad/Pad/paddings", "shape": [4, 2], "dtype": "int32"}, {"name": "StatefulPartitionedCall/deeplabv3plus/expanded_conv_6/depthwise/pad/Pad/paddings", "shape": [4, 2], "dtype": "int32"}, {"name": "StatefulPartitionedCall/deeplabv3plus/expanded_conv_10/depthwise/depthwise/SpaceToBatchND/block_shape", "shape": [2], "dtype": "int32"}, {"name": "StatefulPartitionedCall/deeplabv3plus/expanded_conv_10/depthwise/depthwise/SpaceToBatchND/paddings", "shape": [2, 2], "dtype": "int32"}, {"name": "StatefulPartitionedCall/deeplabv3plus/expanded_conv_10/depthwise/depthwise/ReadVariableOp", "shape": [3, 3, 480, 1], "dtype": "float32"}, {"name": "StatefulPartitionedCall/deeplabv3plus/expanded_conv_10/depthwise/depthwise/BatchToSpaceND/block_shape", "shape": [2], "dtype": "int32"}, {"name": "StatefulPartitionedCall/deeplabv3plus/expanded_conv_10/depthwise/depthwise/BatchToSpaceND/crops", "shape": [2, 2], "dtype": "int32"}, {"name": "StatefulPartitionedCall/deeplabv3plus/expanded_conv_11/depthwise/depthwise/SpaceToBatchND/block_shape", "shape": [2], "dtype": "int32"}, {"name": "StatefulPartitionedCall/deeplabv3plus/expanded_conv_11/depthwise/depthwise/SpaceToBatchND/paddings", "shape": [2, 2], "dtype": "int32"}, {"name": "StatefulPartitionedCall/deeplabv3plus/expanded_conv_11/depthwise/depthwise/ReadVariableOp", "shape": [3, 3, 672, 1], "dtype": "float32"}, {"name": "StatefulPartitionedCall/deeplabv3plus/expanded_conv_11/depthwise/depthwise/BatchToSpaceND/block_shape", "shape": [2], "dtype": "int32"}, {"name": "StatefulPartitionedCall/deeplabv3plus/expanded_conv_11/depthwise/depthwise/BatchToSpaceND/crops", "shape": [2, 2], "dtype": "int32"}, {"name": "StatefulPartitionedCall/deeplabv3plus/concatenate_8/concat/axis", "shape": [], "dtype": "int32"}, {"name": "StatefulPartitionedCall/deeplabv3plus/aspp1_depthwise/depthwise/SpaceToBatchND/block_shape", "shape": [2], "dtype": "int32"}, {"name": "StatefulPartitionedCall/deeplabv3plus/aspp1_depthwise/depthwise/SpaceToBatchND/paddings", "shape": [2, 2], "dtype": "int32"}, {"name": "StatefulPartitionedCall/deeplabv3plus/aspp1_depthwise/depthwise/ReadVariableOp", "shape": [3, 3, 368, 1], "dtype": "float32"}, {"name": "StatefulPartitionedCall/deeplabv3plus/aspp1_depthwise/depthwise/BatchToSpaceND/block_shape", "shape": [2], "dtype": "int32"}, {"name": "StatefulPartitionedCall/deeplabv3plus/aspp1_depthwise/depthwise/BatchToSpaceND/crops", "shape": [2, 2], "dtype": "int32"}, {"name": "StatefulPartitionedCall/deeplabv3plus/concatenate_9/concat/axis", "shape": [], "dtype": "int32"}, {"name": "StatefulPartitionedCall/deeplabv3plus/aspp2_depthwise/depthwise/SpaceToBatchND/block_shape", "shape": [2], "dtype": "int32"}, {"name": "StatefulPartitionedCall/deeplabv3plus/aspp2_depthwise/depthwise/SpaceToBatchND/paddings", "shape": [2, 2], "dtype": "int32"}, {"name": "StatefulPartitionedCall/deeplabv3plus/aspp2_depthwise/depthwise/ReadVariableOp", "shape": [3, 3, 624, 1], "dtype": "float32"}, {"name": "StatefulPartitionedCall/deeplabv3plus/aspp2_depthwise/depthwise/BatchToSpaceND/block_shape", "shape": [2], "dtype": "int32"}, {"name": "StatefulPartitionedCall/deeplabv3plus/aspp2_depthwise/depthwise/BatchToSpaceND/crops", "shape": [2, 2], "dtype": "int32"}, {"name": "StatefulPartitionedCall/deeplabv3plus/concatenate_10/concat/axis", "shape": [], "dtype": "int32"}, {"name": "StatefulPartitionedCall/deeplabv3plus/aspp3_depthwise/depthwise/SpaceToBatchND/block_shape", "shape": [2], "dtype": "int32"}, {"name": "StatefulPartitionedCall/deeplabv3plus/aspp3_depthwise/depthwise/SpaceToBatchND/paddings", "shape": [2, 2], "dtype": "int32"}, {"name": "StatefulPartitionedCall/deeplabv3plus/aspp3_depthwise/depthwise/ReadVariableOp", "shape": [3, 3, 880, 1], "dtype": "float32"}, {"name": "StatefulPartitionedCall/deeplabv3plus/aspp3_depthwise/depthwise/BatchToSpaceND/block_shape", "shape": [2], "dtype": "int32"}, {"name": "StatefulPartitionedCall/deeplabv3plus/aspp3_depthwise/depthwise/BatchToSpaceND/crops", "shape": [2, 2], "dtype": "int32"}, {"name": "StatefulPartitionedCall/deeplabv3plus/concatenate_12/concat/axis", "shape": [], "dtype": "int32"}, {"name": "StatefulPartitionedCall/deeplabv3plus/concat_projection/Conv2D/ReadVariableOp", "shape": [1, 1, 1280, 256], "dtype": "float32"}, {"name": "StatefulPartitionedCall/deeplabv3plus/global_average_pooling2d_4/Mean/reduction_indices", "shape": [2], "dtype": "int32"}, {"name": "StatefulPartitionedCall/deeplabv3plus/reshape_14/strided_slice/stack", "shape": [1], "dtype": "int32"}, {"name": "StatefulPartitionedCall/deeplabv3plus/reshape_14/strided_slice/stack_1", "shape": [1], "dtype": "int32"}, {"name": "StatefulPartitionedCall/deeplabv3plus/reshape_14/strided_slice/stack_2", "shape": [1], "dtype": "int32"}, {"name": "StatefulPartitionedCall/deeplabv3plus/reshape_14/Reshape/shape/1", "shape": [], "dtype": "int32"}, {"name": "StatefulPartitionedCall/deeplabv3plus/reshape_14/Reshape/shape/2", "shape": [], "dtype": "int32"}, {"name": "StatefulPartitionedCall/deeplabv3plus/conv1d_2/conv1d/ExpandDims/dim", "shape": [], "dtype": "int32"}, {"name": "StatefulPartitionedCall/deeplabv3plus/conv1d_2/conv1d/ExpandDims_1", "shape": [1, 5, 1, 1], "dtype": "float32"}, {"name": "StatefulPartitionedCall/deeplabv3plus/reshape_15/strided_slice/stack", "shape": [1], "dtype": "int32"}, {"name": "StatefulPartitionedCall/deeplabv3plus/reshape_15/strided_slice/stack_1", "shape": [1], "dtype": "int32"}, {"name": "StatefulPartitionedCall/deeplabv3plus/reshape_15/strided_slice/stack_2", "shape": [1], "dtype": "int32"}, {"name": "StatefulPartitionedCall/deeplabv3plus/reshape_15/Reshape/shape/1", "shape": [], "dtype": "int32"}, {"name": "StatefulPartitionedCall/deeplabv3plus/reshape_15/Reshape/shape/2", "shape": [], "dtype": "int32"}, {"name": "StatefulPartitionedCall/deeplabv3plus/reshape_15/Reshape/shape/3", "shape": [], "dtype": "int32"}, {"name": "StatefulPartitionedCall/deeplabv3plus/lambda_13/Max/reduction_indices", "shape": [], "dtype": "int32"}, {"name": "StatefulPartitionedCall/deeplabv3plus/concatenate_13/concat/axis", "shape": [], "dtype": "int32"}, {"name": "StatefulPartitionedCall/deeplabv3plus/conv2d_4/Conv2D/ReadVariableOp", "shape": [7, 7, 2, 1], "dtype": "float32"}, {"name": "StatefulPartitionedCall/deeplabv3plus/lambda_14/resize/size", "shape": [2], "dtype": "int32"}, {"name": "StatefulPartitionedCall/deeplabv3plus/lambda_15/Mean/reduction_indices", "shape": [], "dtype": "int32"}, {"name": "StatefulPartitionedCall/deeplabv3plus/Conv/HardSwish/hard_sigmoid_13/mul/y", "shape": [], "dtype": "float32"}, {"name": "StatefulPartitionedCall/deeplabv3plus/Conv/HardSwish/hard_sigmoid_13/add/y", "shape": [], "dtype": "float32"}, {"name": "StatefulPartitionedCall/deeplabv3plus/expanded_conv_1/depthwise/pad/Pad/paddings", "shape": [4, 2], "dtype": "int32"}, {"name": "StatefulPartitionedCall/deeplabv3plus/feature_projection0/Conv2D/ReadVariableOp", "shape": [1, 1, 24, 48], "dtype": "float32"}, {"name": "StatefulPartitionedCall/deeplabv3plus/global_average_pooling2d_5/Mean/reduction_indices", "shape": [2], "dtype": "int32"}, {"name": "StatefulPartitionedCall/deeplabv3plus/reshape_16/strided_slice/stack", "shape": [1], "dtype": "int32"}, {"name": "StatefulPartitionedCall/deeplabv3plus/reshape_16/strided_slice/stack_1", "shape": [1], "dtype": "int32"}, {"name": "StatefulPartitionedCall/deeplabv3plus/reshape_16/strided_slice/stack_2", "shape": [1], "dtype": "int32"}, {"name": "StatefulPartitionedCall/deeplabv3plus/reshape_16/Reshape/shape/1", "shape": [], "dtype": "int32"}, {"name": "StatefulPartitionedCall/deeplabv3plus/reshape_16/Reshape/shape/2", "shape": [], "dtype": "int32"}, {"name": "StatefulPartitionedCall/deeplabv3plus/conv1d_3/conv1d/ExpandDims/dim", "shape": [], "dtype": "int32"}, {"name": "StatefulPartitionedCall/deeplabv3plus/conv1d_3/conv1d/ExpandDims_1", "shape": [1, 3, 1, 1], "dtype": "float32"}, {"name": "StatefulPartitionedCall/deeplabv3plus/reshape_17/strided_slice/stack", "shape": [1], "dtype": "int32"}, {"name": "StatefulPartitionedCall/deeplabv3plus/reshape_17/strided_slice/stack_1", "shape": [1], "dtype": "int32"}, {"name": "StatefulPartitionedCall/deeplabv3plus/reshape_17/strided_slice/stack_2", "shape": [1], "dtype": "int32"}, {"name": "StatefulPartitionedCall/deeplabv3plus/reshape_17/Reshape/shape/1", "shape": [], "dtype": "int32"}, {"name": "StatefulPartitionedCall/deeplabv3plus/reshape_17/Reshape/shape/2", "shape": [], "dtype": "int32"}, {"name": "StatefulPartitionedCall/deeplabv3plus/reshape_17/Reshape/shape/3", "shape": [], "dtype": "int32"}, {"name": "StatefulPartitionedCall/deeplabv3plus/lambda_16/Max/reduction_indices", "shape": [], "dtype": "int32"}, {"name": "StatefulPartitionedCall/deeplabv3plus/concatenate_14/concat/axis", "shape": [], "dtype": "int32"}, {"name": "StatefulPartitionedCall/deeplabv3plus/conv2d_5/Conv2D/ReadVariableOp", "shape": [7, 7, 2, 1], "dtype": "float32"}, {"name": "StatefulPartitionedCall/deeplabv3plus/concatenate_15/concat/axis", "shape": [], "dtype": "int32"}, {"name": "StatefulPartitionedCall/deeplabv3plus/conv2d_6/Conv2D/ReadVariableOp", "shape": [3, 3, 256, 256], "dtype": "float32"}, {"name": "StatefulPartitionedCall/deeplabv3plus/conv2d_6/BiasAdd/ReadVariableOp", "shape": [256], "dtype": "float32"}, {"name": "StatefulPartitionedCall/deeplabv3plus/lambda_17/resize/size", "shape": [2], "dtype": "int32"}, {"name": "StatefulPartitionedCall/deeplabv3plus/conv2d_7/Conv2D/ReadVariableOp", "shape": [1, 1, 256, 2], "dtype": "float32"}, {"name": "StatefulPartitionedCall/deeplabv3plus/conv2d_7/BiasAdd/ReadVariableOp", "shape": [2], "dtype": "float32"}, {"name": "StatefulPartitionedCall/deeplabv3plus/Conv/Conv2D_weights", "shape": [3, 3, 3, 16], "dtype": "float32"}, {"name": "StatefulPartitionedCall/deeplabv3plus/decoder_conv1_pointwise/Conv2D_weights", "shape": [1, 1, 256, 256], "dtype": "float32"}, {"name": "StatefulPartitionedCall/deeplabv3plus/Conv/Conv2D_bn_offset", "shape": [16], "dtype": "float32"}, {"name": "StatefulPartitionedCall/deeplabv3plus/expanded_conv/depthwise/depthwise_weights", "shape": [3, 3, 16, 1], "dtype": "float32"}, {"name": "StatefulPartitionedCall/deeplabv3plus/expanded_conv/depthwise/depthwise_bn_offset", "shape": [16], "dtype": "float32"}, {"name": "StatefulPartitionedCall/deeplabv3plus/expanded_conv/project/Conv2D_weights", "shape": [1, 1, 16, 16], "dtype": "float32"}, {"name": "StatefulPartitionedCall/deeplabv3plus/feature_projection0_BN/FusedBatchNormV3/Scaled", "shape": [48], "dtype": "float32"}, {"name": "StatefulPartitionedCall/deeplabv3plus/expanded_conv/project/Conv2D_bn_offset", "shape": [16], "dtype": "float32"}, {"name": "StatefulPartitionedCall/deeplabv3plus/expanded_conv_1/expand/Conv2D_weights", "shape": [1, 1, 16, 64], "dtype": "float32"}, {"name": "StatefulPartitionedCall/deeplabv3plus/decoder_conv1_pointwise/Conv2D_bn_offset", "shape": [256], "dtype": "float32"}, {"name": "StatefulPartitionedCall/deeplabv3plus/expanded_conv_1/expand/Conv2D_bn_offset", "shape": [64], "dtype": "float32"}, {"name": "StatefulPartitionedCall/deeplabv3plus/expanded_conv_1/depthwise/depthwise_weights", "shape": [3, 3, 64, 1], "dtype": "float32"}, {"name": "StatefulPartitionedCall/deeplabv3plus/expanded_conv_1/depthwise/depthwise_bn_offset", "shape": [64], "dtype": "float32"}, {"name": "StatefulPartitionedCall/deeplabv3plus/expanded_conv_1/project/Conv2D_weights", "shape": [1, 1, 64, 24], "dtype": "float32"}, {"name": "StatefulPartitionedCall/deeplabv3plus/expanded_conv_1/project/Conv2D_bn_offset", "shape": [24], "dtype": "float32"}, {"name": "StatefulPartitionedCall/deeplabv3plus/expanded_conv_2/expand/Conv2D_weights", "shape": [1, 1, 24, 72], "dtype": "float32"}, {"name": "StatefulPartitionedCall/deeplabv3plus/expanded_conv_2/expand/Conv2D_bn_offset", "shape": [72], "dtype": "float32"}, {"name": "StatefulPartitionedCall/deeplabv3plus/expanded_conv_2/depthwise/depthwise_weights", "shape": [3, 3, 72, 1], "dtype": "float32"}, {"name": "StatefulPartitionedCall/deeplabv3plus/expanded_conv_2/depthwise/depthwise_bn_offset", "shape": [72], "dtype": "float32"}, {"name": "StatefulPartitionedCall/deeplabv3plus/expanded_conv_2/project/Conv2D_weights", "shape": [1, 1, 72, 24], "dtype": "float32"}, {"name": "StatefulPartitionedCall/deeplabv3plus/expanded_conv_2/project/Conv2D_bn_offset", "shape": [24], "dtype": "float32"}, {"name": "StatefulPartitionedCall/deeplabv3plus/expanded_conv_3/expand/Conv2D_weights", "shape": [1, 1, 24, 72], "dtype": "float32"}, {"name": "StatefulPartitionedCall/deeplabv3plus/feature_projection0_BN/FusedBatchNormV3/Offset", "shape": [48], "dtype": "float32"}, {"name": "StatefulPartitionedCall/deeplabv3plus/expanded_conv_3/expand/Conv2D_bn_offset", "shape": [72], "dtype": "float32"}, {"name": "StatefulPartitionedCall/deeplabv3plus/expanded_conv_3/depthwise/depthwise_weights", "shape": [5, 5, 72, 1], "dtype": "float32"}, {"name": "StatefulPartitionedCall/deeplabv3plus/expanded_conv_3/depthwise/depthwise_bn_offset", "shape": [72], "dtype": "float32"}, {"name": "StatefulPartitionedCall/deeplabv3plus/expanded_conv_3/project/Conv2D_weights", "shape": [1, 1, 72, 40], "dtype": "float32"}, {"name": "StatefulPartitionedCall/deeplabv3plus/expanded_conv_3/project/Conv2D_bn_offset", "shape": [40], "dtype": "float32"}, {"name": "StatefulPartitionedCall/deeplabv3plus/expanded_conv_4/expand/Conv2D_weights", "shape": [1, 1, 40, 120], "dtype": "float32"}, {"name": "StatefulPartitionedCall/deeplabv3plus/concat_projection_BN/FusedBatchNormV3/Scaled", "shape": [256], "dtype": "float32"}, {"name": "StatefulPartitionedCall/deeplabv3plus/expanded_conv_4/expand/Conv2D_bn_offset", "shape": [120], "dtype": "float32"}, {"name": "StatefulPartitionedCall/deeplabv3plus/expanded_conv_4/depthwise/depthwise_weights", "shape": [5, 5, 120, 1], "dtype": "float32"}, {"name": "StatefulPartitionedCall/deeplabv3plus/expanded_conv_4/depthwise/depthwise_bn_offset", "shape": [120], "dtype": "float32"}, {"name": "StatefulPartitionedCall/deeplabv3plus/concat_projection_BN/FusedBatchNormV3/Offset", "shape": [256], "dtype": "float32"}, {"name": "StatefulPartitionedCall/deeplabv3plus/expanded_conv_4/project/Conv2D_weights", "shape": [1, 1, 120, 40], "dtype": "float32"}, {"name": "StatefulPartitionedCall/deeplabv3plus/expanded_conv_4/project/Conv2D_bn_offset", "shape": [40], "dtype": "float32"}, {"name": "StatefulPartitionedCall/deeplabv3plus/expanded_conv_5/expand/Conv2D_weights", "shape": [1, 1, 40, 120], "dtype": "float32"}, {"name": "StatefulPartitionedCall/deeplabv3plus/expanded_conv_5/expand/Conv2D_bn_offset", "shape": [120], "dtype": "float32"}, {"name": "StatefulPartitionedCall/deeplabv3plus/aspp3_depthwise_BN/FusedBatchNormV3/Scaled", "shape": [880], "dtype": "float32"}, {"name": "StatefulPartitionedCall/deeplabv3plus/expanded_conv_5/depthwise/depthwise_weights", "shape": [5, 5, 120, 1], "dtype": "float32"}, {"name": "StatefulPartitionedCall/deeplabv3plus/expanded_conv_5/depthwise/depthwise_bn_offset", "shape": [120], "dtype": "float32"}, {"name": "StatefulPartitionedCall/deeplabv3plus/aspp3_depthwise_BN/FusedBatchNormV3/Offset", "shape": [880], "dtype": "float32"}, {"name": "StatefulPartitionedCall/deeplabv3plus/expanded_conv_5/project/Conv2D_weights", "shape": [1, 1, 120, 40], "dtype": "float32"}, {"name": "StatefulPartitionedCall/deeplabv3plus/expanded_conv_5/project/Conv2D_bn_offset", "shape": [40], "dtype": "float32"}, {"name": "StatefulPartitionedCall/deeplabv3plus/expanded_conv_6/expand/Conv2D_weights", "shape": [1, 1, 40, 240], "dtype": "float32"}, {"name": "StatefulPartitionedCall/deeplabv3plus/expanded_conv_6/expand/Conv2D_bn_offset", "shape": [240], "dtype": "float32"}, {"name": "StatefulPartitionedCall/deeplabv3plus/expanded_conv_6/depthwise/depthwise_weights", "shape": [3, 3, 240, 1], "dtype": "float32"}, {"name": "StatefulPartitionedCall/deeplabv3plus/expanded_conv_6/depthwise/depthwise_bn_offset", "shape": [240], "dtype": "float32"}, {"name": "StatefulPartitionedCall/deeplabv3plus/expanded_conv_6/project/Conv2D_weights", "shape": [1, 1, 240, 80], "dtype": "float32"}, {"name": "StatefulPartitionedCall/deeplabv3plus/expanded_conv_6/project/Conv2D_bn_offset", "shape": [80], "dtype": "float32"}, {"name": "StatefulPartitionedCall/deeplabv3plus/expanded_conv_7/expand/Conv2D_weights", "shape": [1, 1, 80, 200], "dtype": "float32"}, {"name": "StatefulPartitionedCall/deeplabv3plus/aspp2_depthwise_BN/FusedBatchNormV3/Scaled", "shape": [624], "dtype": "float32"}, {"name": "StatefulPartitionedCall/deeplabv3plus/expanded_conv_7/expand/Conv2D_bn_offset", "shape": [200], "dtype": "float32"}, {"name": "StatefulPartitionedCall/deeplabv3plus/expanded_conv_7/depthwise/depthwise_weights", "shape": [3, 3, 200, 1], "dtype": "float32"}, {"name": "StatefulPartitionedCall/deeplabv3plus/expanded_conv_7/depthwise/depthwise_bn_offset", "shape": [200], "dtype": "float32"}, {"name": "StatefulPartitionedCall/deeplabv3plus/expanded_conv_7/project/Conv2D_weights", "shape": [1, 1, 200, 80], "dtype": "float32"}, {"name": "StatefulPartitionedCall/deeplabv3plus/expanded_conv_7/project/Conv2D_bn_offset", "shape": [80], "dtype": "float32"}, {"name": "StatefulPartitionedCall/deeplabv3plus/expanded_conv_8/expand/Conv2D_weights", "shape": [1, 1, 80, 184], "dtype": "float32"}, {"name": "StatefulPartitionedCall/deeplabv3plus/expanded_conv_8/expand/Conv2D_bn_offset", "shape": [184], "dtype": "float32"}, {"name": "StatefulPartitionedCall/deeplabv3plus/expanded_conv_8/depthwise/depthwise_weights", "shape": [3, 3, 184, 1], "dtype": "float32"}, {"name": "StatefulPartitionedCall/deeplabv3plus/expanded_conv_8/depthwise/depthwise_bn_offset", "shape": [184], "dtype": "float32"}, {"name": "StatefulPartitionedCall/deeplabv3plus/expanded_conv_8/project/Conv2D_weights", "shape": [1, 1, 184, 80], "dtype": "float32"}, {"name": "StatefulPartitionedCall/deeplabv3plus/aspp2_depthwise_BN/FusedBatchNormV3/Offset", "shape": [624], "dtype": "float32"}, {"name": "StatefulPartitionedCall/deeplabv3plus/expanded_conv_8/project/Conv2D_bn_offset", "shape": [80], "dtype": "float32"}, {"name": "StatefulPartitionedCall/deeplabv3plus/expanded_conv_9/expand/Conv2D_weights", "shape": [1, 1, 80, 184], "dtype": "float32"}, {"name": "StatefulPartitionedCall/deeplabv3plus/expanded_conv_9/expand/Conv2D_bn_offset", "shape": [184], "dtype": "float32"}, {"name": "StatefulPartitionedCall/deeplabv3plus/expanded_conv_9/depthwise/depthwise_weights", "shape": [3, 3, 184, 1], "dtype": "float32"}, {"name": "StatefulPartitionedCall/deeplabv3plus/expanded_conv_9/depthwise/depthwise_bn_offset", "shape": [184], "dtype": "float32"}, {"name": "StatefulPartitionedCall/deeplabv3plus/expanded_conv_9/project/Conv2D_weights", "shape": [1, 1, 184, 80], "dtype": "float32"}, {"name": "StatefulPartitionedCall/deeplabv3plus/expanded_conv_9/project/Conv2D_bn_offset", "shape": [80], "dtype": "float32"}, {"name": "StatefulPartitionedCall/deeplabv3plus/expanded_conv_10/expand/Conv2D_weights", "shape": [1, 1, 80, 480], "dtype": "float32"}, {"name": "StatefulPartitionedCall/deeplabv3plus/expanded_conv_10/expand/Conv2D_bn_offset", "shape": [480], "dtype": "float32"}, {"name": "StatefulPartitionedCall/deeplabv3plus/aspp1_depthwise_BN/FusedBatchNormV3/Scaled", "shape": [368], "dtype": "float32"}, {"name": "StatefulPartitionedCall/deeplabv3plus/expanded_conv_10/project/Conv2D_weights", "shape": [1, 1, 480, 112], "dtype": "float32"}, {"name": "StatefulPartitionedCall/deeplabv3plus/aspp1_depthwise_BN/FusedBatchNormV3/Offset", "shape": [368], "dtype": "float32"}, {"name": "StatefulPartitionedCall/deeplabv3plus/expanded_conv_10/project/Conv2D_bn_offset", "shape": [112], "dtype": "float32"}, {"name": "StatefulPartitionedCall/deeplabv3plus/expanded_conv_11/expand/Conv2D_weights", "shape": [1, 1, 112, 672], "dtype": "float32"}, {"name": "StatefulPartitionedCall/deeplabv3plus/expanded_conv_11/expand/Conv2D_bn_offset", "shape": [672], "dtype": "float32"}, {"name": "StatefulPartitionedCall/deeplabv3plus/expanded_conv_11/depthwise/BatchNorm/FusedBatchNormV3/Scaled", "shape": [672], "dtype": "float32"}, {"name": "StatefulPartitionedCall/deeplabv3plus/expanded_conv_11/project/Conv2D_weights", "shape": [1, 1, 672, 112], "dtype": "float32"}, {"name": "StatefulPartitionedCall/deeplabv3plus/expanded_conv_11/project/Conv2D_bn_offset", "shape": [112], "dtype": "float32"}, {"name": "StatefulPartitionedCall/deeplabv3plus/aspp0/Conv2D_weights", "shape": [1, 1, 112, 256], "dtype": "float32"}, {"name": "StatefulPartitionedCall/deeplabv3plus/aspp0/Conv2D_bn_offset", "shape": [256], "dtype": "float32"}, {"name": "StatefulPartitionedCall/deeplabv3plus/expanded_conv_11/depthwise/BatchNorm/FusedBatchNormV3/Offset", "shape": [672], "dtype": "float32"}, {"name": "StatefulPartitionedCall/deeplabv3plus/aspp1_pointwise/Conv2D_weights", "shape": [1, 1, 368, 256], "dtype": "float32"}, {"name": "StatefulPartitionedCall/deeplabv3plus/aspp1_pointwise/Conv2D_bn_offset", "shape": [256], "dtype": "float32"}, {"name": "StatefulPartitionedCall/deeplabv3plus/aspp2_pointwise/Conv2D_weights", "shape": [1, 1, 624, 256], "dtype": "float32"}, {"name": "StatefulPartitionedCall/deeplabv3plus/aspp2_pointwise/Conv2D_bn_offset", "shape": [256], "dtype": "float32"}, {"name": "StatefulPartitionedCall/deeplabv3plus/expanded_conv_10/depthwise/BatchNorm/FusedBatchNormV3/Scaled", "shape": [480], "dtype": "float32"}, {"name": "StatefulPartitionedCall/deeplabv3plus/aspp3_pointwise/Conv2D_weights", "shape": [1, 1, 880, 256], "dtype": "float32"}, {"name": "StatefulPartitionedCall/deeplabv3plus/aspp3_pointwise/Conv2D_bn_offset", "shape": [256], "dtype": "float32"}, {"name": "StatefulPartitionedCall/deeplabv3plus/image_pooling/Conv2D_weights", "shape": [1, 1, 1136, 256], "dtype": "float32"}, {"name": "StatefulPartitionedCall/deeplabv3plus/expanded_conv_10/depthwise/BatchNorm/FusedBatchNormV3/Offset", "shape": [480], "dtype": "float32"}, {"name": "StatefulPartitionedCall/deeplabv3plus/image_pooling/Conv2D_bn_offset", "shape": [256], "dtype": "float32"}, {"name": "StatefulPartitionedCall/deeplabv3plus/decoder_conv0_depthwise/depthwise_weights", "shape": [3, 3, 304, 1], "dtype": "float32"}, {"name": "StatefulPartitionedCall/deeplabv3plus/decoder_conv0_depthwise/depthwise_bn_offset", "shape": [304], "dtype": "float32"}, {"name": "StatefulPartitionedCall/deeplabv3plus/decoder_conv0_pointwise/Conv2D_weights", "shape": [1, 1, 304, 256], "dtype": "float32"}, {"name": "StatefulPartitionedCall/deeplabv3plus/decoder_conv0_pointwise/Conv2D_bn_offset", "shape": [256], "dtype": "float32"}, {"name": "StatefulPartitionedCall/deeplabv3plus/decoder_conv1_depthwise/depthwise_weights", "shape": [3, 3, 256, 1], "dtype": "float32"}, {"name": "StatefulPartitionedCall/deeplabv3plus/decoder_conv1_depthwise/depthwise_bn_offset", "shape": [256], "dtype": "float32"}]}]}