{"format": "graph-model", "generatedBy": "2.5.0", "convertedBy": "TensorFlow.js Converter v3.9.0", "signature": {"inputs": {"input_4": {"name": "input_4:0", "dtype": "DT_FLOAT", "tensorShape": {"dim": [{"size": "-1"}, {"size": "256"}, {"size": "256"}, {"size": "3"}]}}}, "outputs": {"conv2d_7": {"name": "Identity:0", "dtype": "DT_FLOAT", "tensorShape": {"dim": [{"size": "-1"}, {"size": "256"}, {"size": "256"}, {"size": "2"}]}}}}, "modelTopology": {"node": [{"name": "StatefulPartitionedCall/deeplabv3plus/lambda_12/Mean/reduction_indices", "op": "Const", "attr": {"value": {"tensor": {"dtype": "DT_INT32", "tensorShape": {}}}, "dtype": {"type": "DT_INT32"}}}, {"name": "StatefulPartitionedCall/deeplabv3plus/concatenate_11/concat/axis", "op": "Const", "attr": {"value": {"tensor": {"dtype": "DT_INT32", "tensorShape": {}}}, "dtype": {"type": "DT_INT32"}}}, {"name": "StatefulPartitionedCall/deeplabv3plus/global_average_pooling2d_3/Mean/reduction_indices", "op": "Const", "attr": {"value": {"tensor": {"dtype": "DT_INT32", "tensorShape": {"dim": [{"size": "2"}]}}}, "dtype": {"type": "DT_INT32"}}}, {"name": "StatefulPartitionedCall/deeplabv3plus/lambda_9/ExpandDims/dim", "op": "Const", "attr": {"value": {"tensor": {"dtype": "DT_INT32", "tensorShape": {}}}, "dtype": {"type": "DT_INT32"}}}, {"name": "StatefulPartitionedCall/deeplabv3plus/lambda_10/ExpandDims/dim", "op": "Const", "attr": {"value": {"tensor": {"dtype": "DT_INT32", "tensorShape": {}}}, "dtype": {"type": "DT_INT32"}}}, {"name": "StatefulPartitionedCall/deeplabv3plus/lambda_11/resize/size", "op": "Const", "attr": {"value": {"tensor": {"dtype": "DT_INT32", "tensorShape": {"dim": [{"size": "2"}]}}}, "dtype": {"type": "DT_INT32"}}}, {"name": "StatefulPartitionedCall/deeplabv3plus/stage3_7/split/split/split_dim", "op": "Const", "attr": {"value": {"tensor": {"dtype": "DT_INT32", "tensorShape": {}}}, "dtype": {"type": "DT_INT32"}}}, {"name": "StatefulPartitionedCall/deeplabv3plus/stage3_6/split/split/split_dim", "op": "Const", "attr": {"value": {"tensor": {"dtype": "DT_INT32", "tensorShape": {}}}, "dtype": {"type": "DT_INT32"}}}, {"name": "StatefulPartitionedCall/deeplabv3plus/stage3_5/split/split/split_dim", "op": "Const", "attr": {"value": {"tensor": {"dtype": "DT_INT32", "tensorShape": {}}}, "dtype": {"type": "DT_INT32"}}}, {"name": "StatefulPartitionedCall/deeplabv3plus/stage3_4/split/split/split_dim", "op": "Const", "attr": {"value": {"tensor": {"dtype": "DT_INT32", "tensorShape": {}}}, "dtype": {"type": "DT_INT32"}}}, {"name": "StatefulPartitionedCall/deeplabv3plus/stage3_3/split/split/split_dim", "op": "Const", "attr": {"value": {"tensor": {"dtype": "DT_INT32", "tensorShape": {}}}, "dtype": {"type": "DT_INT32"}}}, {"name": "StatefulPartitionedCall/deeplabv3plus/stage3_2/split/split/split_dim", "op": "Const", "attr": {"value": {"tensor": {"dtype": "DT_INT32", "tensorShape": {}}}, "dtype": {"type": "DT_INT32"}}}, {"name": "StatefulPartitionedCall/deeplabv3plus/stage3_1/split/split/split_dim", "op": "Const", "attr": {"value": {"tensor": {"dtype": "DT_INT32", "tensorShape": {}}}, "dtype": {"type": "DT_INT32"}}}, {"name": "StatefulPartitionedCall/deeplabv3plus/stage2_3/split/split/split_dim", "op": "Const", "attr": {"value": {"tensor": {"dtype": "DT_INT32", "tensorShape": {}}}, "dtype": {"type": "DT_INT32"}}}, {"name": "StatefulPartitionedCall/deeplabv3plus/stage2_2/split/split/split_dim", "op": "Const", "attr": {"value": {"tensor": {"dtype": "DT_INT32", "tensorShape": {}}}, "dtype": {"type": "DT_INT32"}}}, {"name": "StatefulPartitionedCall/deeplabv3plus/stage2_1/split/split/split_dim", "op": "Const", "attr": {"value": {"tensor": {"dtype": "DT_INT32", "tensorShape": {}}}, "dtype": {"type": "DT_INT32"}}}, {"name": "StatefulPartitionedCall/deeplabv3plus/stage2_0/concat/concat/axis", "op": "Const", "attr": {"value": {"tensor": {"dtype": "DT_INT32", "tensorShape": {}}}, "dtype": {"type": "DT_INT32"}}}, {"name": "StatefulPartitionedCall/deeplabv3plus/stage2_0/channelshuffle/reshape_28/strided_slice/stack", "op": "Const", "attr": {"value": {"tensor": {"dtype": "DT_INT32", "tensorShape": {"dim": [{"size": "1"}]}}}, "dtype": {"type": "DT_INT32"}}}, {"name": "StatefulPartitionedCall/deeplabv3plus/stage2_0/channelshuffle/reshape_28/strided_slice/stack_1", "op": "Const", "attr": {"value": {"tensor": {"dtype": "DT_INT32", "tensorShape": {"dim": [{"size": "1"}]}}}, "dtype": {"type": "DT_INT32"}}}, {"name": "StatefulPartitionedCall/deeplabv3plus/stage2_0/channelshuffle/reshape_28/strided_slice/stack_2", "op": "Const", "attr": {"value": {"tensor": {"dtype": "DT_INT32", "tensorShape": {"dim": [{"size": "1"}]}}}, "dtype": {"type": "DT_INT32"}}}, {"name": "StatefulPartitionedCall/deeplabv3plus/stage2_0/channelshuffle/reshape_28/Reshape/shape/1", "op": "Const", "attr": {"value": {"tensor": {"dtype": "DT_INT32", "tensorShape": {}}}, "dtype": {"type": "DT_INT32"}}}, {"name": "StatefulPartitionedCall/deeplabv3plus/stage2_0/channelshuffle/reshape_28/Reshape/shape/2", "op": "Const", "attr": {"value": {"tensor": {"dtype": "DT_INT32", "tensorShape": {}}}, "dtype": {"type": "DT_INT32"}}}, {"name": "StatefulPartitionedCall/deeplabv3plus/stage2_0/channelshuffle/reshape_28/Reshape/shape/3", "op": "Const", "attr": {"value": {"tensor": {"dtype": "DT_INT32", "tensorShape": {}}}, "dtype": {"type": "DT_INT32"}}}, {"name": "StatefulPartitionedCall/deeplabv3plus/stage2_0/channelshuffle/reshape_28/Reshape/shape/4", "op": "Const", "attr": {"value": {"tensor": {"dtype": "DT_INT32", "tensorShape": {}}}, "dtype": {"type": "DT_INT32"}}}, {"name": "StatefulPartitionedCall/deeplabv3plus/stage2_0/channelshuffle/transpose/perm", "op": "Const", "attr": {"value": {"tensor": {"dtype": "DT_INT32", "tensorShape": {"dim": [{"size": "5"}]}}}, "dtype": {"type": "DT_INT32"}}}, {"name": "StatefulPartitionedCall/deeplabv3plus/stage2_0/channelshuffle/reshape_29/strided_slice/stack", "op": "Const", "attr": {"value": {"tensor": {"dtype": "DT_INT32", "tensorShape": {"dim": [{"size": "1"}]}}}, "dtype": {"type": "DT_INT32"}}}, {"name": "StatefulPartitionedCall/deeplabv3plus/stage2_0/channelshuffle/reshape_29/strided_slice/stack_1", "op": "Const", "attr": {"value": {"tensor": {"dtype": "DT_INT32", "tensorShape": {"dim": [{"size": "1"}]}}}, "dtype": {"type": "DT_INT32"}}}, {"name": "StatefulPartitionedCall/deeplabv3plus/stage2_0/channelshuffle/reshape_29/strided_slice/stack_2", "op": "Const", "attr": {"value": {"tensor": {"dtype": "DT_INT32", "tensorShape": {"dim": [{"size": "1"}]}}}, "dtype": {"type": "DT_INT32"}}}, {"name": "StatefulPartitionedCall/deeplabv3plus/stage2_0/channelshuffle/reshape_29/Reshape/shape/1", "op": "Const", "attr": {"value": {"tensor": {"dtype": "DT_INT32", "tensorShape": {}}}, "dtype": {"type": "DT_INT32"}}}, {"name": "StatefulPartitionedCall/deeplabv3plus/stage2_0/channelshuffle/reshape_29/Reshape/shape/2", "op": "Const", "attr": {"value": {"tensor": {"dtype": "DT_INT32", "tensorShape": {}}}, "dtype": {"type": "DT_INT32"}}}, {"name": "StatefulPartitionedCall/deeplabv3plus/stage2_0/channelshuffle/reshape_29/Reshape/shape/3", "op": "Const", "attr": {"value": {"tensor": {"dtype": "DT_INT32", "tensorShape": {}}}, "dtype": {"type": "DT_INT32"}}}, {"name": "StatefulPartitionedCall/deeplabv3plus/stage2_1/concat/concat/axis", "op": "Const", "attr": {"value": {"tensor": {"dtype": "DT_INT32", "tensorShape": {}}}, "dtype": {"type": "DT_INT32"}}}, {"name": "StatefulPartitionedCall/deeplabv3plus/stage2_1/channelshuffle/reshape_30/strided_slice/stack", "op": "Const", "attr": {"value": {"tensor": {"dtype": "DT_INT32", "tensorShape": {"dim": [{"size": "1"}]}}}, "dtype": {"type": "DT_INT32"}}}, {"name": "StatefulPartitionedCall/deeplabv3plus/stage2_1/channelshuffle/reshape_30/strided_slice/stack_1", "op": "Const", "attr": {"value": {"tensor": {"dtype": "DT_INT32", "tensorShape": {"dim": [{"size": "1"}]}}}, "dtype": {"type": "DT_INT32"}}}, {"name": "StatefulPartitionedCall/deeplabv3plus/stage2_1/channelshuffle/reshape_30/strided_slice/stack_2", "op": "Const", "attr": {"value": {"tensor": {"dtype": "DT_INT32", "tensorShape": {"dim": [{"size": "1"}]}}}, "dtype": {"type": "DT_INT32"}}}, {"name": "StatefulPartitionedCall/deeplabv3plus/stage2_1/channelshuffle/reshape_30/Reshape/shape/1", "op": "Const", "attr": {"value": {"tensor": {"dtype": "DT_INT32", "tensorShape": {}}}, "dtype": {"type": "DT_INT32"}}}, {"name": "StatefulPartitionedCall/deeplabv3plus/stage2_1/channelshuffle/reshape_30/Reshape/shape/2", "op": "Const", "attr": {"value": {"tensor": {"dtype": "DT_INT32", "tensorShape": {}}}, "dtype": {"type": "DT_INT32"}}}, {"name": "StatefulPartitionedCall/deeplabv3plus/stage2_1/channelshuffle/reshape_30/Reshape/shape/3", "op": "Const", "attr": {"value": {"tensor": {"dtype": "DT_INT32", "tensorShape": {}}}, "dtype": {"type": "DT_INT32"}}}, {"name": "StatefulPartitionedCall/deeplabv3plus/stage2_1/channelshuffle/reshape_30/Reshape/shape/4", "op": "Const", "attr": {"value": {"tensor": {"dtype": "DT_INT32", "tensorShape": {}}}, "dtype": {"type": "DT_INT32"}}}, {"name": "StatefulPartitionedCall/deeplabv3plus/stage2_1/channelshuffle/transpose/perm", "op": "Const", "attr": {"value": {"tensor": {"dtype": "DT_INT32", "tensorShape": {"dim": [{"size": "5"}]}}}, "dtype": {"type": "DT_INT32"}}}, {"name": "StatefulPartitionedCall/deeplabv3plus/stage2_1/channelshuffle/reshape_31/strided_slice/stack", "op": "Const", "attr": {"value": {"tensor": {"dtype": "DT_INT32", "tensorShape": {"dim": [{"size": "1"}]}}}, "dtype": {"type": "DT_INT32"}}}, {"name": "StatefulPartitionedCall/deeplabv3plus/stage2_1/channelshuffle/reshape_31/strided_slice/stack_1", "op": "Const", "attr": {"value": {"tensor": {"dtype": "DT_INT32", "tensorShape": {"dim": [{"size": "1"}]}}}, "dtype": {"type": "DT_INT32"}}}, {"name": "StatefulPartitionedCall/deeplabv3plus/stage2_1/channelshuffle/reshape_31/strided_slice/stack_2", "op": "Const", "attr": {"value": {"tensor": {"dtype": "DT_INT32", "tensorShape": {"dim": [{"size": "1"}]}}}, "dtype": {"type": "DT_INT32"}}}, {"name": "StatefulPartitionedCall/deeplabv3plus/stage2_1/channelshuffle/reshape_31/Reshape/shape/1", "op": "Const", "attr": {"value": {"tensor": {"dtype": "DT_INT32", "tensorShape": {}}}, "dtype": {"type": "DT_INT32"}}}, {"name": "StatefulPartitionedCall/deeplabv3plus/stage2_1/channelshuffle/reshape_31/Reshape/shape/2", "op": "Const", "attr": {"value": {"tensor": {"dtype": "DT_INT32", "tensorShape": {}}}, "dtype": {"type": "DT_INT32"}}}, {"name": "StatefulPartitionedCall/deeplabv3plus/stage2_1/channelshuffle/reshape_31/Reshape/shape/3", "op": "Const", "attr": {"value": {"tensor": {"dtype": "DT_INT32", "tensorShape": {}}}, "dtype": {"type": "DT_INT32"}}}, {"name": "StatefulPartitionedCall/deeplabv3plus/stage2_2/concat/concat/axis", "op": "Const", "attr": {"value": {"tensor": {"dtype": "DT_INT32", "tensorShape": {}}}, "dtype": {"type": "DT_INT32"}}}, {"name": "StatefulPartitionedCall/deeplabv3plus/stage2_2/channelshuffle/reshape_32/strided_slice/stack", "op": "Const", "attr": {"value": {"tensor": {"dtype": "DT_INT32", "tensorShape": {"dim": [{"size": "1"}]}}}, "dtype": {"type": "DT_INT32"}}}, {"name": "StatefulPartitionedCall/deeplabv3plus/stage2_2/channelshuffle/reshape_32/strided_slice/stack_1", "op": "Const", "attr": {"value": {"tensor": {"dtype": "DT_INT32", "tensorShape": {"dim": [{"size": "1"}]}}}, "dtype": {"type": "DT_INT32"}}}, {"name": "StatefulPartitionedCall/deeplabv3plus/stage2_2/channelshuffle/reshape_32/strided_slice/stack_2", "op": "Const", "attr": {"value": {"tensor": {"dtype": "DT_INT32", "tensorShape": {"dim": [{"size": "1"}]}}}, "dtype": {"type": "DT_INT32"}}}, {"name": "StatefulPartitionedCall/deeplabv3plus/stage2_2/channelshuffle/reshape_32/Reshape/shape/1", "op": "Const", "attr": {"value": {"tensor": {"dtype": "DT_INT32", "tensorShape": {}}}, "dtype": {"type": "DT_INT32"}}}, {"name": "StatefulPartitionedCall/deeplabv3plus/stage2_2/channelshuffle/reshape_32/Reshape/shape/2", "op": "Const", "attr": {"value": {"tensor": {"dtype": "DT_INT32", "tensorShape": {}}}, "dtype": {"type": "DT_INT32"}}}, {"name": "StatefulPartitionedCall/deeplabv3plus/stage2_2/channelshuffle/reshape_32/Reshape/shape/3", "op": "Const", "attr": {"value": {"tensor": {"dtype": "DT_INT32", "tensorShape": {}}}, "dtype": {"type": "DT_INT32"}}}, {"name": "StatefulPartitionedCall/deeplabv3plus/stage2_2/channelshuffle/reshape_32/Reshape/shape/4", "op": "Const", "attr": {"value": {"tensor": {"dtype": "DT_INT32", "tensorShape": {}}}, "dtype": {"type": "DT_INT32"}}}, {"name": "StatefulPartitionedCall/deeplabv3plus/stage2_2/channelshuffle/transpose/perm", "op": "Const", "attr": {"value": {"tensor": {"dtype": "DT_INT32", "tensorShape": {"dim": [{"size": "5"}]}}}, "dtype": {"type": "DT_INT32"}}}, {"name": "StatefulPartitionedCall/deeplabv3plus/stage2_2/channelshuffle/reshape_33/strided_slice/stack", "op": "Const", "attr": {"value": {"tensor": {"dtype": "DT_INT32", "tensorShape": {"dim": [{"size": "1"}]}}}, "dtype": {"type": "DT_INT32"}}}, {"name": "StatefulPartitionedCall/deeplabv3plus/stage2_2/channelshuffle/reshape_33/strided_slice/stack_1", "op": "Const", "attr": {"value": {"tensor": {"dtype": "DT_INT32", "tensorShape": {"dim": [{"size": "1"}]}}}, "dtype": {"type": "DT_INT32"}}}, {"name": "StatefulPartitionedCall/deeplabv3plus/stage2_2/channelshuffle/reshape_33/strided_slice/stack_2", "op": "Const", "attr": {"value": {"tensor": {"dtype": "DT_INT32", "tensorShape": {"dim": [{"size": "1"}]}}}, "dtype": {"type": "DT_INT32"}}}, {"name": "StatefulPartitionedCall/deeplabv3plus/stage2_2/channelshuffle/reshape_33/Reshape/shape/1", "op": "Const", "attr": {"value": {"tensor": {"dtype": "DT_INT32", "tensorShape": {}}}, "dtype": {"type": "DT_INT32"}}}, {"name": "StatefulPartitionedCall/deeplabv3plus/stage2_2/channelshuffle/reshape_33/Reshape/shape/2", "op": "Const", "attr": {"value": {"tensor": {"dtype": "DT_INT32", "tensorShape": {}}}, "dtype": {"type": "DT_INT32"}}}, {"name": "StatefulPartitionedCall/deeplabv3plus/stage2_2/channelshuffle/reshape_33/Reshape/shape/3", "op": "Const", "attr": {"value": {"tensor": {"dtype": "DT_INT32", "tensorShape": {}}}, "dtype": {"type": "DT_INT32"}}}, {"name": "StatefulPartitionedCall/deeplabv3plus/stage2_3/concat/concat/axis", "op": "Const", "attr": {"value": {"tensor": {"dtype": "DT_INT32", "tensorShape": {}}}, "dtype": {"type": "DT_INT32"}}}, {"name": "StatefulPartitionedCall/deeplabv3plus/stage2_3/channelshuffle/reshape_34/strided_slice/stack", "op": "Const", "attr": {"value": {"tensor": {"dtype": "DT_INT32", "tensorShape": {"dim": [{"size": "1"}]}}}, "dtype": {"type": "DT_INT32"}}}, {"name": "StatefulPartitionedCall/deeplabv3plus/stage2_3/channelshuffle/reshape_34/strided_slice/stack_1", "op": "Const", "attr": {"value": {"tensor": {"dtype": "DT_INT32", "tensorShape": {"dim": [{"size": "1"}]}}}, "dtype": {"type": "DT_INT32"}}}, {"name": "StatefulPartitionedCall/deeplabv3plus/stage2_3/channelshuffle/reshape_34/strided_slice/stack_2", "op": "Const", "attr": {"value": {"tensor": {"dtype": "DT_INT32", "tensorShape": {"dim": [{"size": "1"}]}}}, "dtype": {"type": "DT_INT32"}}}, {"name": "StatefulPartitionedCall/deeplabv3plus/stage2_3/channelshuffle/reshape_34/Reshape/shape/1", "op": "Const", "attr": {"value": {"tensor": {"dtype": "DT_INT32", "tensorShape": {}}}, "dtype": {"type": "DT_INT32"}}}, {"name": "StatefulPartitionedCall/deeplabv3plus/stage2_3/channelshuffle/reshape_34/Reshape/shape/2", "op": "Const", "attr": {"value": {"tensor": {"dtype": "DT_INT32", "tensorShape": {}}}, "dtype": {"type": "DT_INT32"}}}, {"name": "StatefulPartitionedCall/deeplabv3plus/stage2_3/channelshuffle/reshape_34/Reshape/shape/3", "op": "Const", "attr": {"value": {"tensor": {"dtype": "DT_INT32", "tensorShape": {}}}, "dtype": {"type": "DT_INT32"}}}, {"name": "StatefulPartitionedCall/deeplabv3plus/stage2_3/channelshuffle/reshape_34/Reshape/shape/4", "op": "Const", "attr": {"value": {"tensor": {"dtype": "DT_INT32", "tensorShape": {}}}, "dtype": {"type": "DT_INT32"}}}, {"name": "StatefulPartitionedCall/deeplabv3plus/stage2_3/channelshuffle/transpose/perm", "op": "Const", "attr": {"value": {"tensor": {"dtype": "DT_INT32", "tensorShape": {"dim": [{"size": "5"}]}}}, "dtype": {"type": "DT_INT32"}}}, {"name": "StatefulPartitionedCall/deeplabv3plus/stage2_3/channelshuffle/reshape_35/strided_slice/stack", "op": "Const", "attr": {"value": {"tensor": {"dtype": "DT_INT32", "tensorShape": {"dim": [{"size": "1"}]}}}, "dtype": {"type": "DT_INT32"}}}, {"name": "StatefulPartitionedCall/deeplabv3plus/stage2_3/channelshuffle/reshape_35/strided_slice/stack_1", "op": "Const", "attr": {"value": {"tensor": {"dtype": "DT_INT32", "tensorShape": {"dim": [{"size": "1"}]}}}, "dtype": {"type": "DT_INT32"}}}, {"name": "StatefulPartitionedCall/deeplabv3plus/stage2_3/channelshuffle/reshape_35/strided_slice/stack_2", "op": "Const", "attr": {"value": {"tensor": {"dtype": "DT_INT32", "tensorShape": {"dim": [{"size": "1"}]}}}, "dtype": {"type": "DT_INT32"}}}, {"name": "StatefulPartitionedCall/deeplabv3plus/stage2_3/channelshuffle/reshape_35/Reshape/shape/1", "op": "Const", "attr": {"value": {"tensor": {"dtype": "DT_INT32", "tensorShape": {}}}, "dtype": {"type": "DT_INT32"}}}, {"name": "StatefulPartitionedCall/deeplabv3plus/stage2_3/channelshuffle/reshape_35/Reshape/shape/2", "op": "Const", "attr": {"value": {"tensor": {"dtype": "DT_INT32", "tensorShape": {}}}, "dtype": {"type": "DT_INT32"}}}, {"name": "StatefulPartitionedCall/deeplabv3plus/stage2_3/channelshuffle/reshape_35/Reshape/shape/3", "op": "Const", "attr": {"value": {"tensor": {"dtype": "DT_INT32", "tensorShape": {}}}, "dtype": {"type": "DT_INT32"}}}, {"name": "StatefulPartitionedCall/deeplabv3plus/stage3_0/concat/concat/axis", "op": "Const", "attr": {"value": {"tensor": {"dtype": "DT_INT32", "tensorShape": {}}}, "dtype": {"type": "DT_INT32"}}}, {"name": "StatefulPartitionedCall/deeplabv3plus/stage3_0/channelshuffle/reshape_36/strided_slice/stack", "op": "Const", "attr": {"value": {"tensor": {"dtype": "DT_INT32", "tensorShape": {"dim": [{"size": "1"}]}}}, "dtype": {"type": "DT_INT32"}}}, {"name": "StatefulPartitionedCall/deeplabv3plus/stage3_0/channelshuffle/reshape_36/strided_slice/stack_1", "op": "Const", "attr": {"value": {"tensor": {"dtype": "DT_INT32", "tensorShape": {"dim": [{"size": "1"}]}}}, "dtype": {"type": "DT_INT32"}}}, {"name": "StatefulPartitionedCall/deeplabv3plus/stage3_0/channelshuffle/reshape_36/strided_slice/stack_2", "op": "Const", "attr": {"value": {"tensor": {"dtype": "DT_INT32", "tensorShape": {"dim": [{"size": "1"}]}}}, "dtype": {"type": "DT_INT32"}}}, {"name": "StatefulPartitionedCall/deeplabv3plus/stage3_0/channelshuffle/reshape_36/Reshape/shape/1", "op": "Const", "attr": {"value": {"tensor": {"dtype": "DT_INT32", "tensorShape": {}}}, "dtype": {"type": "DT_INT32"}}}, {"name": "StatefulPartitionedCall/deeplabv3plus/stage3_0/channelshuffle/reshape_36/Reshape/shape/2", "op": "Const", "attr": {"value": {"tensor": {"dtype": "DT_INT32", "tensorShape": {}}}, "dtype": {"type": "DT_INT32"}}}, {"name": "StatefulPartitionedCall/deeplabv3plus/stage3_0/channelshuffle/reshape_36/Reshape/shape/3", "op": "Const", "attr": {"value": {"tensor": {"dtype": "DT_INT32", "tensorShape": {}}}, "dtype": {"type": "DT_INT32"}}}, {"name": "StatefulPartitionedCall/deeplabv3plus/stage3_0/channelshuffle/reshape_36/Reshape/shape/4", "op": "Const", "attr": {"value": {"tensor": {"dtype": "DT_INT32", "tensorShape": {}}}, "dtype": {"type": "DT_INT32"}}}, {"name": "StatefulPartitionedCall/deeplabv3plus/stage3_0/channelshuffle/transpose/perm", "op": "Const", "attr": {"value": {"tensor": {"dtype": "DT_INT32", "tensorShape": {"dim": [{"size": "5"}]}}}, "dtype": {"type": "DT_INT32"}}}, {"name": "StatefulPartitionedCall/deeplabv3plus/stage3_0/channelshuffle/reshape_37/strided_slice/stack", "op": "Const", "attr": {"value": {"tensor": {"dtype": "DT_INT32", "tensorShape": {"dim": [{"size": "1"}]}}}, "dtype": {"type": "DT_INT32"}}}, {"name": "StatefulPartitionedCall/deeplabv3plus/stage3_0/channelshuffle/reshape_37/strided_slice/stack_1", "op": "Const", "attr": {"value": {"tensor": {"dtype": "DT_INT32", "tensorShape": {"dim": [{"size": "1"}]}}}, "dtype": {"type": "DT_INT32"}}}, {"name": "StatefulPartitionedCall/deeplabv3plus/stage3_0/channelshuffle/reshape_37/strided_slice/stack_2", "op": "Const", "attr": {"value": {"tensor": {"dtype": "DT_INT32", "tensorShape": {"dim": [{"size": "1"}]}}}, "dtype": {"type": "DT_INT32"}}}, {"name": "StatefulPartitionedCall/deeplabv3plus/stage3_0/channelshuffle/reshape_37/Reshape/shape/1", "op": "Const", "attr": {"value": {"tensor": {"dtype": "DT_INT32", "tensorShape": {}}}, "dtype": {"type": "DT_INT32"}}}, {"name": "StatefulPartitionedCall/deeplabv3plus/stage3_0/channelshuffle/reshape_37/Reshape/shape/2", "op": "Const", "attr": {"value": {"tensor": {"dtype": "DT_INT32", "tensorShape": {}}}, "dtype": {"type": "DT_INT32"}}}, {"name": "StatefulPartitionedCall/deeplabv3plus/stage3_0/channelshuffle/reshape_37/Reshape/shape/3", "op": "Const", "attr": {"value": {"tensor": {"dtype": "DT_INT32", "tensorShape": {}}}, "dtype": {"type": "DT_INT32"}}}, {"name": "StatefulPartitionedCall/deeplabv3plus/stage3_1/concat/concat/axis", "op": "Const", "attr": {"value": {"tensor": {"dtype": "DT_INT32", "tensorShape": {}}}, "dtype": {"type": "DT_INT32"}}}, {"name": "StatefulPartitionedCall/deeplabv3plus/stage3_1/channelshuffle/reshape_38/strided_slice/stack", "op": "Const", "attr": {"value": {"tensor": {"dtype": "DT_INT32", "tensorShape": {"dim": [{"size": "1"}]}}}, "dtype": {"type": "DT_INT32"}}}, {"name": "StatefulPartitionedCall/deeplabv3plus/stage3_1/channelshuffle/reshape_38/strided_slice/stack_1", "op": "Const", "attr": {"value": {"tensor": {"dtype": "DT_INT32", "tensorShape": {"dim": [{"size": "1"}]}}}, "dtype": {"type": "DT_INT32"}}}, {"name": "StatefulPartitionedCall/deeplabv3plus/stage3_1/channelshuffle/reshape_38/strided_slice/stack_2", "op": "Const", "attr": {"value": {"tensor": {"dtype": "DT_INT32", "tensorShape": {"dim": [{"size": "1"}]}}}, "dtype": {"type": "DT_INT32"}}}, {"name": "StatefulPartitionedCall/deeplabv3plus/stage3_1/channelshuffle/reshape_38/Reshape/shape/1", "op": "Const", "attr": {"value": {"tensor": {"dtype": "DT_INT32", "tensorShape": {}}}, "dtype": {"type": "DT_INT32"}}}, {"name": "StatefulPartitionedCall/deeplabv3plus/stage3_1/channelshuffle/reshape_38/Reshape/shape/2", "op": "Const", "attr": {"value": {"tensor": {"dtype": "DT_INT32", "tensorShape": {}}}, "dtype": {"type": "DT_INT32"}}}, {"name": "StatefulPartitionedCall/deeplabv3plus/stage3_1/channelshuffle/reshape_38/Reshape/shape/3", "op": "Const", "attr": {"value": {"tensor": {"dtype": "DT_INT32", "tensorShape": {}}}, "dtype": {"type": "DT_INT32"}}}, {"name": "StatefulPartitionedCall/deeplabv3plus/stage3_1/channelshuffle/reshape_38/Reshape/shape/4", "op": "Const", "attr": {"value": {"tensor": {"dtype": "DT_INT32", "tensorShape": {}}}, "dtype": {"type": "DT_INT32"}}}, {"name": "StatefulPartitionedCall/deeplabv3plus/stage3_1/channelshuffle/transpose/perm", "op": "Const", "attr": {"value": {"tensor": {"dtype": "DT_INT32", "tensorShape": {"dim": [{"size": "5"}]}}}, "dtype": {"type": "DT_INT32"}}}, {"name": "StatefulPartitionedCall/deeplabv3plus/stage3_1/channelshuffle/reshape_39/strided_slice/stack", "op": "Const", "attr": {"value": {"tensor": {"dtype": "DT_INT32", "tensorShape": {"dim": [{"size": "1"}]}}}, "dtype": {"type": "DT_INT32"}}}, {"name": "StatefulPartitionedCall/deeplabv3plus/stage3_1/channelshuffle/reshape_39/strided_slice/stack_1", "op": "Const", "attr": {"value": {"tensor": {"dtype": "DT_INT32", "tensorShape": {"dim": [{"size": "1"}]}}}, "dtype": {"type": "DT_INT32"}}}, {"name": "StatefulPartitionedCall/deeplabv3plus/stage3_1/channelshuffle/reshape_39/strided_slice/stack_2", "op": "Const", "attr": {"value": {"tensor": {"dtype": "DT_INT32", "tensorShape": {"dim": [{"size": "1"}]}}}, "dtype": {"type": "DT_INT32"}}}, {"name": "StatefulPartitionedCall/deeplabv3plus/stage3_1/channelshuffle/reshape_39/Reshape/shape/1", "op": "Const", "attr": {"value": {"tensor": {"dtype": "DT_INT32", "tensorShape": {}}}, "dtype": {"type": "DT_INT32"}}}, {"name": "StatefulPartitionedCall/deeplabv3plus/stage3_1/channelshuffle/reshape_39/Reshape/shape/2", "op": "Const", "attr": {"value": {"tensor": {"dtype": "DT_INT32", "tensorShape": {}}}, "dtype": {"type": "DT_INT32"}}}, {"name": "StatefulPartitionedCall/deeplabv3plus/stage3_1/channelshuffle/reshape_39/Reshape/shape/3", "op": "Const", "attr": {"value": {"tensor": {"dtype": "DT_INT32", "tensorShape": {}}}, "dtype": {"type": "DT_INT32"}}}, {"name": "StatefulPartitionedCall/deeplabv3plus/stage3_2/concat/concat/axis", "op": "Const", "attr": {"value": {"tensor": {"dtype": "DT_INT32", "tensorShape": {}}}, "dtype": {"type": "DT_INT32"}}}, {"name": "StatefulPartitionedCall/deeplabv3plus/stage3_2/channelshuffle/reshape_40/strided_slice/stack", "op": "Const", "attr": {"value": {"tensor": {"dtype": "DT_INT32", "tensorShape": {"dim": [{"size": "1"}]}}}, "dtype": {"type": "DT_INT32"}}}, {"name": "StatefulPartitionedCall/deeplabv3plus/stage3_2/channelshuffle/reshape_40/strided_slice/stack_1", "op": "Const", "attr": {"value": {"tensor": {"dtype": "DT_INT32", "tensorShape": {"dim": [{"size": "1"}]}}}, "dtype": {"type": "DT_INT32"}}}, {"name": "StatefulPartitionedCall/deeplabv3plus/stage3_2/channelshuffle/reshape_40/strided_slice/stack_2", "op": "Const", "attr": {"value": {"tensor": {"dtype": "DT_INT32", "tensorShape": {"dim": [{"size": "1"}]}}}, "dtype": {"type": "DT_INT32"}}}, {"name": "StatefulPartitionedCall/deeplabv3plus/stage3_2/channelshuffle/reshape_40/Reshape/shape/1", "op": "Const", "attr": {"value": {"tensor": {"dtype": "DT_INT32", "tensorShape": {}}}, "dtype": {"type": "DT_INT32"}}}, {"name": "StatefulPartitionedCall/deeplabv3plus/stage3_2/channelshuffle/reshape_40/Reshape/shape/2", "op": "Const", "attr": {"value": {"tensor": {"dtype": "DT_INT32", "tensorShape": {}}}, "dtype": {"type": "DT_INT32"}}}, {"name": "StatefulPartitionedCall/deeplabv3plus/stage3_2/channelshuffle/reshape_40/Reshape/shape/3", "op": "Const", "attr": {"value": {"tensor": {"dtype": "DT_INT32", "tensorShape": {}}}, "dtype": {"type": "DT_INT32"}}}, {"name": "StatefulPartitionedCall/deeplabv3plus/stage3_2/channelshuffle/reshape_40/Reshape/shape/4", "op": "Const", "attr": {"value": {"tensor": {"dtype": "DT_INT32", "tensorShape": {}}}, "dtype": {"type": "DT_INT32"}}}, {"name": "StatefulPartitionedCall/deeplabv3plus/stage3_2/channelshuffle/transpose/perm", "op": "Const", "attr": {"value": {"tensor": {"dtype": "DT_INT32", "tensorShape": {"dim": [{"size": "5"}]}}}, "dtype": {"type": "DT_INT32"}}}, {"name": "StatefulPartitionedCall/deeplabv3plus/stage3_2/channelshuffle/reshape_41/strided_slice/stack", "op": "Const", "attr": {"value": {"tensor": {"dtype": "DT_INT32", "tensorShape": {"dim": [{"size": "1"}]}}}, "dtype": {"type": "DT_INT32"}}}, {"name": "StatefulPartitionedCall/deeplabv3plus/stage3_2/channelshuffle/reshape_41/strided_slice/stack_1", "op": "Const", "attr": {"value": {"tensor": {"dtype": "DT_INT32", "tensorShape": {"dim": [{"size": "1"}]}}}, "dtype": {"type": "DT_INT32"}}}, {"name": "StatefulPartitionedCall/deeplabv3plus/stage3_2/channelshuffle/reshape_41/strided_slice/stack_2", "op": "Const", "attr": {"value": {"tensor": {"dtype": "DT_INT32", "tensorShape": {"dim": [{"size": "1"}]}}}, "dtype": {"type": "DT_INT32"}}}, {"name": "StatefulPartitionedCall/deeplabv3plus/stage3_2/channelshuffle/reshape_41/Reshape/shape/1", "op": "Const", "attr": {"value": {"tensor": {"dtype": "DT_INT32", "tensorShape": {}}}, "dtype": {"type": "DT_INT32"}}}, {"name": "StatefulPartitionedCall/deeplabv3plus/stage3_2/channelshuffle/reshape_41/Reshape/shape/2", "op": "Const", "attr": {"value": {"tensor": {"dtype": "DT_INT32", "tensorShape": {}}}, "dtype": {"type": "DT_INT32"}}}, {"name": "StatefulPartitionedCall/deeplabv3plus/stage3_2/channelshuffle/reshape_41/Reshape/shape/3", "op": "Const", "attr": {"value": {"tensor": {"dtype": "DT_INT32", "tensorShape": {}}}, "dtype": {"type": "DT_INT32"}}}, {"name": "StatefulPartitionedCall/deeplabv3plus/stage3_3/concat/concat/axis", "op": "Const", "attr": {"value": {"tensor": {"dtype": "DT_INT32", "tensorShape": {}}}, "dtype": {"type": "DT_INT32"}}}, {"name": "StatefulPartitionedCall/deeplabv3plus/stage3_3/channelshuffle/reshape_42/strided_slice/stack", "op": "Const", "attr": {"value": {"tensor": {"dtype": "DT_INT32", "tensorShape": {"dim": [{"size": "1"}]}}}, "dtype": {"type": "DT_INT32"}}}, {"name": "StatefulPartitionedCall/deeplabv3plus/stage3_3/channelshuffle/reshape_42/strided_slice/stack_1", "op": "Const", "attr": {"value": {"tensor": {"dtype": "DT_INT32", "tensorShape": {"dim": [{"size": "1"}]}}}, "dtype": {"type": "DT_INT32"}}}, {"name": "StatefulPartitionedCall/deeplabv3plus/stage3_3/channelshuffle/reshape_42/strided_slice/stack_2", "op": "Const", "attr": {"value": {"tensor": {"dtype": "DT_INT32", "tensorShape": {"dim": [{"size": "1"}]}}}, "dtype": {"type": "DT_INT32"}}}, {"name": "StatefulPartitionedCall/deeplabv3plus/stage3_3/channelshuffle/reshape_42/Reshape/shape/1", "op": "Const", "attr": {"value": {"tensor": {"dtype": "DT_INT32", "tensorShape": {}}}, "dtype": {"type": "DT_INT32"}}}, {"name": "StatefulPartitionedCall/deeplabv3plus/stage3_3/channelshuffle/reshape_42/Reshape/shape/2", "op": "Const", "attr": {"value": {"tensor": {"dtype": "DT_INT32", "tensorShape": {}}}, "dtype": {"type": "DT_INT32"}}}, {"name": "StatefulPartitionedCall/deeplabv3plus/stage3_3/channelshuffle/reshape_42/Reshape/shape/3", "op": "Const", "attr": {"value": {"tensor": {"dtype": "DT_INT32", "tensorShape": {}}}, "dtype": {"type": "DT_INT32"}}}, {"name": "StatefulPartitionedCall/deeplabv3plus/stage3_3/channelshuffle/reshape_42/Reshape/shape/4", "op": "Const", "attr": {"value": {"tensor": {"dtype": "DT_INT32", "tensorShape": {}}}, "dtype": {"type": "DT_INT32"}}}, {"name": "StatefulPartitionedCall/deeplabv3plus/stage3_3/channelshuffle/transpose/perm", "op": "Const", "attr": {"value": {"tensor": {"dtype": "DT_INT32", "tensorShape": {"dim": [{"size": "5"}]}}}, "dtype": {"type": "DT_INT32"}}}, {"name": "StatefulPartitionedCall/deeplabv3plus/stage3_3/channelshuffle/reshape_43/strided_slice/stack", "op": "Const", "attr": {"value": {"tensor": {"dtype": "DT_INT32", "tensorShape": {"dim": [{"size": "1"}]}}}, "dtype": {"type": "DT_INT32"}}}, {"name": "StatefulPartitionedCall/deeplabv3plus/stage3_3/channelshuffle/reshape_43/strided_slice/stack_1", "op": "Const", "attr": {"value": {"tensor": {"dtype": "DT_INT32", "tensorShape": {"dim": [{"size": "1"}]}}}, "dtype": {"type": "DT_INT32"}}}, {"name": "StatefulPartitionedCall/deeplabv3plus/stage3_3/channelshuffle/reshape_43/strided_slice/stack_2", "op": "Const", "attr": {"value": {"tensor": {"dtype": "DT_INT32", "tensorShape": {"dim": [{"size": "1"}]}}}, "dtype": {"type": "DT_INT32"}}}, {"name": "StatefulPartitionedCall/deeplabv3plus/stage3_3/channelshuffle/reshape_43/Reshape/shape/1", "op": "Const", "attr": {"value": {"tensor": {"dtype": "DT_INT32", "tensorShape": {}}}, "dtype": {"type": "DT_INT32"}}}, {"name": "StatefulPartitionedCall/deeplabv3plus/stage3_3/channelshuffle/reshape_43/Reshape/shape/2", "op": "Const", "attr": {"value": {"tensor": {"dtype": "DT_INT32", "tensorShape": {}}}, "dtype": {"type": "DT_INT32"}}}, {"name": "StatefulPartitionedCall/deeplabv3plus/stage3_3/channelshuffle/reshape_43/Reshape/shape/3", "op": "Const", "attr": {"value": {"tensor": {"dtype": "DT_INT32", "tensorShape": {}}}, "dtype": {"type": "DT_INT32"}}}, {"name": "StatefulPartitionedCall/deeplabv3plus/stage3_4/concat/concat/axis", "op": "Const", "attr": {"value": {"tensor": {"dtype": "DT_INT32", "tensorShape": {}}}, "dtype": {"type": "DT_INT32"}}}, {"name": "StatefulPartitionedCall/deeplabv3plus/stage3_4/channelshuffle/reshape_44/strided_slice/stack", "op": "Const", "attr": {"value": {"tensor": {"dtype": "DT_INT32", "tensorShape": {"dim": [{"size": "1"}]}}}, "dtype": {"type": "DT_INT32"}}}, {"name": "StatefulPartitionedCall/deeplabv3plus/stage3_4/channelshuffle/reshape_44/strided_slice/stack_1", "op": "Const", "attr": {"value": {"tensor": {"dtype": "DT_INT32", "tensorShape": {"dim": [{"size": "1"}]}}}, "dtype": {"type": "DT_INT32"}}}, {"name": "StatefulPartitionedCall/deeplabv3plus/stage3_4/channelshuffle/reshape_44/strided_slice/stack_2", "op": "Const", "attr": {"value": {"tensor": {"dtype": "DT_INT32", "tensorShape": {"dim": [{"size": "1"}]}}}, "dtype": {"type": "DT_INT32"}}}, {"name": "StatefulPartitionedCall/deeplabv3plus/stage3_4/channelshuffle/reshape_44/Reshape/shape/1", "op": "Const", "attr": {"value": {"tensor": {"dtype": "DT_INT32", "tensorShape": {}}}, "dtype": {"type": "DT_INT32"}}}, {"name": "StatefulPartitionedCall/deeplabv3plus/stage3_4/channelshuffle/reshape_44/Reshape/shape/2", "op": "Const", "attr": {"value": {"tensor": {"dtype": "DT_INT32", "tensorShape": {}}}, "dtype": {"type": "DT_INT32"}}}, {"name": "StatefulPartitionedCall/deeplabv3plus/stage3_4/channelshuffle/reshape_44/Reshape/shape/3", "op": "Const", "attr": {"value": {"tensor": {"dtype": "DT_INT32", "tensorShape": {}}}, "dtype": {"type": "DT_INT32"}}}, {"name": "StatefulPartitionedCall/deeplabv3plus/stage3_4/channelshuffle/reshape_44/Reshape/shape/4", "op": "Const", "attr": {"value": {"tensor": {"dtype": "DT_INT32", "tensorShape": {}}}, "dtype": {"type": "DT_INT32"}}}, {"name": "StatefulPartitionedCall/deeplabv3plus/stage3_4/channelshuffle/transpose/perm", "op": "Const", "attr": {"value": {"tensor": {"dtype": "DT_INT32", "tensorShape": {"dim": [{"size": "5"}]}}}, "dtype": {"type": "DT_INT32"}}}, {"name": "StatefulPartitionedCall/deeplabv3plus/stage3_4/channelshuffle/reshape_45/strided_slice/stack", "op": "Const", "attr": {"value": {"tensor": {"dtype": "DT_INT32", "tensorShape": {"dim": [{"size": "1"}]}}}, "dtype": {"type": "DT_INT32"}}}, {"name": "StatefulPartitionedCall/deeplabv3plus/stage3_4/channelshuffle/reshape_45/strided_slice/stack_1", "op": "Const", "attr": {"value": {"tensor": {"dtype": "DT_INT32", "tensorShape": {"dim": [{"size": "1"}]}}}, "dtype": {"type": "DT_INT32"}}}, {"name": "StatefulPartitionedCall/deeplabv3plus/stage3_4/channelshuffle/reshape_45/strided_slice/stack_2", "op": "Const", "attr": {"value": {"tensor": {"dtype": "DT_INT32", "tensorShape": {"dim": [{"size": "1"}]}}}, "dtype": {"type": "DT_INT32"}}}, {"name": "StatefulPartitionedCall/deeplabv3plus/stage3_4/channelshuffle/reshape_45/Reshape/shape/1", "op": "Const", "attr": {"value": {"tensor": {"dtype": "DT_INT32", "tensorShape": {}}}, "dtype": {"type": "DT_INT32"}}}, {"name": "StatefulPartitionedCall/deeplabv3plus/stage3_4/channelshuffle/reshape_45/Reshape/shape/2", "op": "Const", "attr": {"value": {"tensor": {"dtype": "DT_INT32", "tensorShape": {}}}, "dtype": {"type": "DT_INT32"}}}, {"name": "StatefulPartitionedCall/deeplabv3plus/stage3_4/channelshuffle/reshape_45/Reshape/shape/3", "op": "Const", "attr": {"value": {"tensor": {"dtype": "DT_INT32", "tensorShape": {}}}, "dtype": {"type": "DT_INT32"}}}, {"name": "StatefulPartitionedCall/deeplabv3plus/stage3_5/concat/concat/axis", "op": "Const", "attr": {"value": {"tensor": {"dtype": "DT_INT32", "tensorShape": {}}}, "dtype": {"type": "DT_INT32"}}}, {"name": "StatefulPartitionedCall/deeplabv3plus/stage3_5/channelshuffle/reshape_46/strided_slice/stack", "op": "Const", "attr": {"value": {"tensor": {"dtype": "DT_INT32", "tensorShape": {"dim": [{"size": "1"}]}}}, "dtype": {"type": "DT_INT32"}}}, {"name": "StatefulPartitionedCall/deeplabv3plus/stage3_5/channelshuffle/reshape_46/strided_slice/stack_1", "op": "Const", "attr": {"value": {"tensor": {"dtype": "DT_INT32", "tensorShape": {"dim": [{"size": "1"}]}}}, "dtype": {"type": "DT_INT32"}}}, {"name": "StatefulPartitionedCall/deeplabv3plus/stage3_5/channelshuffle/reshape_46/strided_slice/stack_2", "op": "Const", "attr": {"value": {"tensor": {"dtype": "DT_INT32", "tensorShape": {"dim": [{"size": "1"}]}}}, "dtype": {"type": "DT_INT32"}}}, {"name": "StatefulPartitionedCall/deeplabv3plus/stage3_5/channelshuffle/reshape_46/Reshape/shape/1", "op": "Const", "attr": {"value": {"tensor": {"dtype": "DT_INT32", "tensorShape": {}}}, "dtype": {"type": "DT_INT32"}}}, {"name": "StatefulPartitionedCall/deeplabv3plus/stage3_5/channelshuffle/reshape_46/Reshape/shape/2", "op": "Const", "attr": {"value": {"tensor": {"dtype": "DT_INT32", "tensorShape": {}}}, "dtype": {"type": "DT_INT32"}}}, {"name": "StatefulPartitionedCall/deeplabv3plus/stage3_5/channelshuffle/reshape_46/Reshape/shape/3", "op": "Const", "attr": {"value": {"tensor": {"dtype": "DT_INT32", "tensorShape": {}}}, "dtype": {"type": "DT_INT32"}}}, {"name": "StatefulPartitionedCall/deeplabv3plus/stage3_5/channelshuffle/reshape_46/Reshape/shape/4", "op": "Const", "attr": {"value": {"tensor": {"dtype": "DT_INT32", "tensorShape": {}}}, "dtype": {"type": "DT_INT32"}}}, {"name": "StatefulPartitionedCall/deeplabv3plus/stage3_5/channelshuffle/transpose/perm", "op": "Const", "attr": {"value": {"tensor": {"dtype": "DT_INT32", "tensorShape": {"dim": [{"size": "5"}]}}}, "dtype": {"type": "DT_INT32"}}}, {"name": "StatefulPartitionedCall/deeplabv3plus/stage3_5/channelshuffle/reshape_47/strided_slice/stack", "op": "Const", "attr": {"value": {"tensor": {"dtype": "DT_INT32", "tensorShape": {"dim": [{"size": "1"}]}}}, "dtype": {"type": "DT_INT32"}}}, {"name": "StatefulPartitionedCall/deeplabv3plus/stage3_5/channelshuffle/reshape_47/strided_slice/stack_1", "op": "Const", "attr": {"value": {"tensor": {"dtype": "DT_INT32", "tensorShape": {"dim": [{"size": "1"}]}}}, "dtype": {"type": "DT_INT32"}}}, {"name": "StatefulPartitionedCall/deeplabv3plus/stage3_5/channelshuffle/reshape_47/strided_slice/stack_2", "op": "Const", "attr": {"value": {"tensor": {"dtype": "DT_INT32", "tensorShape": {"dim": [{"size": "1"}]}}}, "dtype": {"type": "DT_INT32"}}}, {"name": "StatefulPartitionedCall/deeplabv3plus/stage3_5/channelshuffle/reshape_47/Reshape/shape/1", "op": "Const", "attr": {"value": {"tensor": {"dtype": "DT_INT32", "tensorShape": {}}}, "dtype": {"type": "DT_INT32"}}}, {"name": "StatefulPartitionedCall/deeplabv3plus/stage3_5/channelshuffle/reshape_47/Reshape/shape/2", "op": "Const", "attr": {"value": {"tensor": {"dtype": "DT_INT32", "tensorShape": {}}}, "dtype": {"type": "DT_INT32"}}}, {"name": "StatefulPartitionedCall/deeplabv3plus/stage3_5/channelshuffle/reshape_47/Reshape/shape/3", "op": "Const", "attr": {"value": {"tensor": {"dtype": "DT_INT32", "tensorShape": {}}}, "dtype": {"type": "DT_INT32"}}}, {"name": "StatefulPartitionedCall/deeplabv3plus/stage3_6/concat/concat/axis", "op": "Const", "attr": {"value": {"tensor": {"dtype": "DT_INT32", "tensorShape": {}}}, "dtype": {"type": "DT_INT32"}}}, {"name": "StatefulPartitionedCall/deeplabv3plus/stage3_6/channelshuffle/reshape_48/strided_slice/stack", "op": "Const", "attr": {"value": {"tensor": {"dtype": "DT_INT32", "tensorShape": {"dim": [{"size": "1"}]}}}, "dtype": {"type": "DT_INT32"}}}, {"name": "StatefulPartitionedCall/deeplabv3plus/stage3_6/channelshuffle/reshape_48/strided_slice/stack_1", "op": "Const", "attr": {"value": {"tensor": {"dtype": "DT_INT32", "tensorShape": {"dim": [{"size": "1"}]}}}, "dtype": {"type": "DT_INT32"}}}, {"name": "StatefulPartitionedCall/deeplabv3plus/stage3_6/channelshuffle/reshape_48/strided_slice/stack_2", "op": "Const", "attr": {"value": {"tensor": {"dtype": "DT_INT32", "tensorShape": {"dim": [{"size": "1"}]}}}, "dtype": {"type": "DT_INT32"}}}, {"name": "StatefulPartitionedCall/deeplabv3plus/stage3_6/channelshuffle/reshape_48/Reshape/shape/1", "op": "Const", "attr": {"value": {"tensor": {"dtype": "DT_INT32", "tensorShape": {}}}, "dtype": {"type": "DT_INT32"}}}, {"name": "StatefulPartitionedCall/deeplabv3plus/stage3_6/channelshuffle/reshape_48/Reshape/shape/2", "op": "Const", "attr": {"value": {"tensor": {"dtype": "DT_INT32", "tensorShape": {}}}, "dtype": {"type": "DT_INT32"}}}, {"name": "StatefulPartitionedCall/deeplabv3plus/stage3_6/channelshuffle/reshape_48/Reshape/shape/3", "op": "Const", "attr": {"value": {"tensor": {"dtype": "DT_INT32", "tensorShape": {}}}, "dtype": {"type": "DT_INT32"}}}, {"name": "StatefulPartitionedCall/deeplabv3plus/stage3_6/channelshuffle/reshape_48/Reshape/shape/4", "op": "Const", "attr": {"value": {"tensor": {"dtype": "DT_INT32", "tensorShape": {}}}, "dtype": {"type": "DT_INT32"}}}, {"name": "StatefulPartitionedCall/deeplabv3plus/stage3_6/channelshuffle/transpose/perm", "op": "Const", "attr": {"value": {"tensor": {"dtype": "DT_INT32", "tensorShape": {"dim": [{"size": "5"}]}}}, "dtype": {"type": "DT_INT32"}}}, {"name": "StatefulPartitionedCall/deeplabv3plus/stage3_6/channelshuffle/reshape_49/strided_slice/stack", "op": "Const", "attr": {"value": {"tensor": {"dtype": "DT_INT32", "tensorShape": {"dim": [{"size": "1"}]}}}, "dtype": {"type": "DT_INT32"}}}, {"name": "StatefulPartitionedCall/deeplabv3plus/stage3_6/channelshuffle/reshape_49/strided_slice/stack_1", "op": "Const", "attr": {"value": {"tensor": {"dtype": "DT_INT32", "tensorShape": {"dim": [{"size": "1"}]}}}, "dtype": {"type": "DT_INT32"}}}, {"name": "StatefulPartitionedCall/deeplabv3plus/stage3_6/channelshuffle/reshape_49/strided_slice/stack_2", "op": "Const", "attr": {"value": {"tensor": {"dtype": "DT_INT32", "tensorShape": {"dim": [{"size": "1"}]}}}, "dtype": {"type": "DT_INT32"}}}, {"name": "StatefulPartitionedCall/deeplabv3plus/stage3_6/channelshuffle/reshape_49/Reshape/shape/1", "op": "Const", "attr": {"value": {"tensor": {"dtype": "DT_INT32", "tensorShape": {}}}, "dtype": {"type": "DT_INT32"}}}, {"name": "StatefulPartitionedCall/deeplabv3plus/stage3_6/channelshuffle/reshape_49/Reshape/shape/2", "op": "Const", "attr": {"value": {"tensor": {"dtype": "DT_INT32", "tensorShape": {}}}, "dtype": {"type": "DT_INT32"}}}, {"name": "StatefulPartitionedCall/deeplabv3plus/stage3_6/channelshuffle/reshape_49/Reshape/shape/3", "op": "Const", "attr": {"value": {"tensor": {"dtype": "DT_INT32", "tensorShape": {}}}, "dtype": {"type": "DT_INT32"}}}, {"name": "StatefulPartitionedCall/deeplabv3plus/stage3_7/concat/concat/axis", "op": "Const", "attr": {"value": {"tensor": {"dtype": "DT_INT32", "tensorShape": {}}}, "dtype": {"type": "DT_INT32"}}}, {"name": "StatefulPartitionedCall/deeplabv3plus/stage3_7/channelshuffle/reshape_50/strided_slice/stack", "op": "Const", "attr": {"value": {"tensor": {"dtype": "DT_INT32", "tensorShape": {"dim": [{"size": "1"}]}}}, "dtype": {"type": "DT_INT32"}}}, {"name": "StatefulPartitionedCall/deeplabv3plus/stage3_7/channelshuffle/reshape_50/strided_slice/stack_1", "op": "Const", "attr": {"value": {"tensor": {"dtype": "DT_INT32", "tensorShape": {"dim": [{"size": "1"}]}}}, "dtype": {"type": "DT_INT32"}}}, {"name": "StatefulPartitionedCall/deeplabv3plus/stage3_7/channelshuffle/reshape_50/strided_slice/stack_2", "op": "Const", "attr": {"value": {"tensor": {"dtype": "DT_INT32", "tensorShape": {"dim": [{"size": "1"}]}}}, "dtype": {"type": "DT_INT32"}}}, {"name": "StatefulPartitionedCall/deeplabv3plus/stage3_7/channelshuffle/reshape_50/Reshape/shape/1", "op": "Const", "attr": {"value": {"tensor": {"dtype": "DT_INT32", "tensorShape": {}}}, "dtype": {"type": "DT_INT32"}}}, {"name": "StatefulPartitionedCall/deeplabv3plus/stage3_7/channelshuffle/reshape_50/Reshape/shape/2", "op": "Const", "attr": {"value": {"tensor": {"dtype": "DT_INT32", "tensorShape": {}}}, "dtype": {"type": "DT_INT32"}}}, {"name": "StatefulPartitionedCall/deeplabv3plus/stage3_7/channelshuffle/reshape_50/Reshape/shape/3", "op": "Const", "attr": {"value": {"tensor": {"dtype": "DT_INT32", "tensorShape": {}}}, "dtype": {"type": "DT_INT32"}}}, {"name": "StatefulPartitionedCall/deeplabv3plus/stage3_7/channelshuffle/reshape_50/Reshape/shape/4", "op": "Const", "attr": {"value": {"tensor": {"dtype": "DT_INT32", "tensorShape": {}}}, "dtype": {"type": "DT_INT32"}}}, {"name": "StatefulPartitionedCall/deeplabv3plus/stage3_7/channelshuffle/transpose/perm", "op": "Const", "attr": {"value": {"tensor": {"dtype": "DT_INT32", "tensorShape": {"dim": [{"size": "5"}]}}}, "dtype": {"type": "DT_INT32"}}}, {"name": "StatefulPartitionedCall/deeplabv3plus/stage3_7/channelshuffle/reshape_51/strided_slice/stack", "op": "Const", "attr": {"value": {"tensor": {"dtype": "DT_INT32", "tensorShape": {"dim": [{"size": "1"}]}}}, "dtype": {"type": "DT_INT32"}}}, {"name": "StatefulPartitionedCall/deeplabv3plus/stage3_7/channelshuffle/reshape_51/strided_slice/stack_1", "op": "Const", "attr": {"value": {"tensor": {"dtype": "DT_INT32", "tensorShape": {"dim": [{"size": "1"}]}}}, "dtype": {"type": "DT_INT32"}}}, {"name": "StatefulPartitionedCall/deeplabv3plus/stage3_7/channelshuffle/reshape_51/strided_slice/stack_2", "op": "Const", "attr": {"value": {"tensor": {"dtype": "DT_INT32", "tensorShape": {"dim": [{"size": "1"}]}}}, "dtype": {"type": "DT_INT32"}}}, {"name": "StatefulPartitionedCall/deeplabv3plus/stage3_7/channelshuffle/reshape_51/Reshape/shape/1", "op": "Const", "attr": {"value": {"tensor": {"dtype": "DT_INT32", "tensorShape": {}}}, "dtype": {"type": "DT_INT32"}}}, {"name": "StatefulPartitionedCall/deeplabv3plus/stage3_7/channelshuffle/reshape_51/Reshape/shape/2", "op": "Const", "attr": {"value": {"tensor": {"dtype": "DT_INT32", "tensorShape": {}}}, "dtype": {"type": "DT_INT32"}}}, {"name": "StatefulPartitionedCall/deeplabv3plus/stage3_7/channelshuffle/reshape_51/Reshape/shape/3", "op": "Const", "attr": {"value": {"tensor": {"dtype": "DT_INT32", "tensorShape": {}}}, "dtype": {"type": "DT_INT32"}}}, {"name": "StatefulPartitionedCall/deeplabv3plus/concatenate_8/concat/axis", "op": "Const", "attr": {"value": {"tensor": {"dtype": "DT_INT32", "tensorShape": {}}}, "dtype": {"type": "DT_INT32"}}}, {"name": "StatefulPartitionedCall/deeplabv3plus/aspp1_depthwise/depthwise/SpaceToBatchND/block_shape", "op": "Const", "attr": {"value": {"tensor": {"dtype": "DT_INT32", "tensorShape": {"dim": [{"size": "2"}]}}}, "dtype": {"type": "DT_INT32"}}}, {"name": "StatefulPartitionedCall/deeplabv3plus/aspp1_depthwise/depthwise/SpaceToBatchND/paddings", "op": "Const", "attr": {"value": {"tensor": {"dtype": "DT_INT32", "tensorShape": {"dim": [{"size": "2"}, {"size": "2"}]}}}, "dtype": {"type": "DT_INT32"}}}, {"name": "StatefulPartitionedCall/deeplabv3plus/aspp1_depthwise/depthwise/ReadVariableOp", "op": "Const", "attr": {"value": {"tensor": {"dtype": "DT_FLOAT", "tensorShape": {"dim": [{"size": "3"}, {"size": "3"}, {"size": "2304"}, {"size": "1"}]}}}, "dtype": {"type": "DT_FLOAT"}}}, {"name": "StatefulPartitionedCall/deeplabv3plus/aspp1_depthwise/depthwise/BatchToSpaceND/block_shape", "op": "Const", "attr": {"value": {"tensor": {"dtype": "DT_INT32", "tensorShape": {"dim": [{"size": "2"}]}}}, "dtype": {"type": "DT_INT32"}}}, {"name": "StatefulPartitionedCall/deeplabv3plus/aspp1_depthwise/depthwise/BatchToSpaceND/crops", "op": "Const", "attr": {"value": {"tensor": {"dtype": "DT_INT32", "tensorShape": {"dim": [{"size": "2"}, {"size": "2"}]}}}, "dtype": {"type": "DT_INT32"}}}, {"name": "StatefulPartitionedCall/deeplabv3plus/concatenate_9/concat/axis", "op": "Const", "attr": {"value": {"tensor": {"dtype": "DT_INT32", "tensorShape": {}}}, "dtype": {"type": "DT_INT32"}}}, {"name": "StatefulPartitionedCall/deeplabv3plus/aspp2_depthwise/depthwise/SpaceToBatchND/block_shape", "op": "Const", "attr": {"value": {"tensor": {"dtype": "DT_INT32", "tensorShape": {"dim": [{"size": "2"}]}}}, "dtype": {"type": "DT_INT32"}}}, {"name": "StatefulPartitionedCall/deeplabv3plus/aspp2_depthwise/depthwise/SpaceToBatchND/paddings", "op": "Const", "attr": {"value": {"tensor": {"dtype": "DT_INT32", "tensorShape": {"dim": [{"size": "2"}, {"size": "2"}]}}}, "dtype": {"type": "DT_INT32"}}}, {"name": "StatefulPartitionedCall/deeplabv3plus/aspp2_depthwise/depthwise/ReadVariableOp", "op": "Const", "attr": {"value": {"tensor": {"dtype": "DT_FLOAT", "tensorShape": {"dim": [{"size": "3"}, {"size": "3"}, {"size": "2560"}, {"size": "1"}]}}}, "dtype": {"type": "DT_FLOAT"}}}, {"name": "StatefulPartitionedCall/deeplabv3plus/aspp2_depthwise/depthwise/BatchToSpaceND/block_shape", "op": "Const", "attr": {"value": {"tensor": {"dtype": "DT_INT32", "tensorShape": {"dim": [{"size": "2"}]}}}, "dtype": {"type": "DT_INT32"}}}, {"name": "StatefulPartitionedCall/deeplabv3plus/aspp2_depthwise/depthwise/BatchToSpaceND/crops", "op": "Const", "attr": {"value": {"tensor": {"dtype": "DT_INT32", "tensorShape": {"dim": [{"size": "2"}, {"size": "2"}]}}}, "dtype": {"type": "DT_INT32"}}}, {"name": "StatefulPartitionedCall/deeplabv3plus/concatenate_10/concat/axis", "op": "Const", "attr": {"value": {"tensor": {"dtype": "DT_INT32", "tensorShape": {}}}, "dtype": {"type": "DT_INT32"}}}, {"name": "StatefulPartitionedCall/deeplabv3plus/aspp3_depthwise/depthwise/SpaceToBatchND/block_shape", "op": "Const", "attr": {"value": {"tensor": {"dtype": "DT_INT32", "tensorShape": {"dim": [{"size": "2"}]}}}, "dtype": {"type": "DT_INT32"}}}, {"name": "StatefulPartitionedCall/deeplabv3plus/aspp3_depthwise/depthwise/SpaceToBatchND/paddings", "op": "Const", "attr": {"value": {"tensor": {"dtype": "DT_INT32", "tensorShape": {"dim": [{"size": "2"}, {"size": "2"}]}}}, "dtype": {"type": "DT_INT32"}}}, {"name": "StatefulPartitionedCall/deeplabv3plus/aspp3_depthwise/depthwise/ReadVariableOp", "op": "Const", "attr": {"value": {"tensor": {"dtype": "DT_FLOAT", "tensorShape": {"dim": [{"size": "3"}, {"size": "3"}, {"size": "2816"}, {"size": "1"}]}}}, "dtype": {"type": "DT_FLOAT"}}}, {"name": "StatefulPartitionedCall/deeplabv3plus/aspp3_depthwise/depthwise/BatchToSpaceND/block_shape", "op": "Const", "attr": {"value": {"tensor": {"dtype": "DT_INT32", "tensorShape": {"dim": [{"size": "2"}]}}}, "dtype": {"type": "DT_INT32"}}}, {"name": "StatefulPartitionedCall/deeplabv3plus/aspp3_depthwise/depthwise/BatchToSpaceND/crops", "op": "Const", "attr": {"value": {"tensor": {"dtype": "DT_INT32", "tensorShape": {"dim": [{"size": "2"}, {"size": "2"}]}}}, "dtype": {"type": "DT_INT32"}}}, {"name": "StatefulPartitionedCall/deeplabv3plus/concatenate_12/concat/axis", "op": "Const", "attr": {"value": {"tensor": {"dtype": "DT_INT32", "tensorShape": {}}}, "dtype": {"type": "DT_INT32"}}}, {"name": "StatefulPartitionedCall/deeplabv3plus/concat_projection/Conv2D/ReadVariableOp", "op": "Const", "attr": {"value": {"tensor": {"dtype": "DT_FLOAT", "tensorShape": {"dim": [{"size": "1"}, {"size": "1"}, {"size": "1280"}, {"size": "256"}]}}}, "dtype": {"type": "DT_FLOAT"}}}, {"name": "StatefulPartitionedCall/deeplabv3plus/global_average_pooling2d_4/Mean/reduction_indices", "op": "Const", "attr": {"value": {"tensor": {"dtype": "DT_INT32", "tensorShape": {"dim": [{"size": "2"}]}}}, "dtype": {"type": "DT_INT32"}}}, {"name": "StatefulPartitionedCall/deeplabv3plus/reshape_52/strided_slice/stack", "op": "Const", "attr": {"value": {"tensor": {"dtype": "DT_INT32", "tensorShape": {"dim": [{"size": "1"}]}}}, "dtype": {"type": "DT_INT32"}}}, {"name": "StatefulPartitionedCall/deeplabv3plus/reshape_52/strided_slice/stack_1", "op": "Const", "attr": {"value": {"tensor": {"dtype": "DT_INT32", "tensorShape": {"dim": [{"size": "1"}]}}}, "dtype": {"type": "DT_INT32"}}}, {"name": "StatefulPartitionedCall/deeplabv3plus/reshape_52/strided_slice/stack_2", "op": "Const", "attr": {"value": {"tensor": {"dtype": "DT_INT32", "tensorShape": {"dim": [{"size": "1"}]}}}, "dtype": {"type": "DT_INT32"}}}, {"name": "StatefulPartitionedCall/deeplabv3plus/reshape_52/Reshape/shape/1", "op": "Const", "attr": {"value": {"tensor": {"dtype": "DT_INT32", "tensorShape": {}}}, "dtype": {"type": "DT_INT32"}}}, {"name": "StatefulPartitionedCall/deeplabv3plus/reshape_52/Reshape/shape/2", "op": "Const", "attr": {"value": {"tensor": {"dtype": "DT_INT32", "tensorShape": {}}}, "dtype": {"type": "DT_INT32"}}}, {"name": "StatefulPartitionedCall/deeplabv3plus/conv1d_2/conv1d/ExpandDims/dim", "op": "Const", "attr": {"value": {"tensor": {"dtype": "DT_INT32", "tensorShape": {}}}, "dtype": {"type": "DT_INT32"}}}, {"name": "StatefulPartitionedCall/deeplabv3plus/conv1d_2/conv1d/ExpandDims_1", "op": "Const", "attr": {"value": {"tensor": {"dtype": "DT_FLOAT", "tensorShape": {"dim": [{"size": "1"}, {"size": "5"}, {"size": "1"}, {"size": "1"}]}}}, "dtype": {"type": "DT_FLOAT"}}}, {"name": "StatefulPartitionedCall/deeplabv3plus/reshape_53/strided_slice/stack", "op": "Const", "attr": {"value": {"tensor": {"dtype": "DT_INT32", "tensorShape": {"dim": [{"size": "1"}]}}}, "dtype": {"type": "DT_INT32"}}}, {"name": "StatefulPartitionedCall/deeplabv3plus/reshape_53/strided_slice/stack_1", "op": "Const", "attr": {"value": {"tensor": {"dtype": "DT_INT32", "tensorShape": {"dim": [{"size": "1"}]}}}, "dtype": {"type": "DT_INT32"}}}, {"name": "StatefulPartitionedCall/deeplabv3plus/reshape_53/strided_slice/stack_2", "op": "Const", "attr": {"value": {"tensor": {"dtype": "DT_INT32", "tensorShape": {"dim": [{"size": "1"}]}}}, "dtype": {"type": "DT_INT32"}}}, {"name": "StatefulPartitionedCall/deeplabv3plus/reshape_53/Reshape/shape/1", "op": "Const", "attr": {"value": {"tensor": {"dtype": "DT_INT32", "tensorShape": {}}}, "dtype": {"type": "DT_INT32"}}}, {"name": "StatefulPartitionedCall/deeplabv3plus/reshape_53/Reshape/shape/2", "op": "Const", "attr": {"value": {"tensor": {"dtype": "DT_INT32", "tensorShape": {}}}, "dtype": {"type": "DT_INT32"}}}, {"name": "StatefulPartitionedCall/deeplabv3plus/reshape_53/Reshape/shape/3", "op": "Const", "attr": {"value": {"tensor": {"dtype": "DT_INT32", "tensorShape": {}}}, "dtype": {"type": "DT_INT32"}}}, {"name": "StatefulPartitionedCall/deeplabv3plus/lambda_13/Max/reduction_indices", "op": "Const", "attr": {"value": {"tensor": {"dtype": "DT_INT32", "tensorShape": {}}}, "dtype": {"type": "DT_INT32"}}}, {"name": "StatefulPartitionedCall/deeplabv3plus/concatenate_13/concat/axis", "op": "Const", "attr": {"value": {"tensor": {"dtype": "DT_INT32", "tensorShape": {}}}, "dtype": {"type": "DT_INT32"}}}, {"name": "StatefulPartitionedCall/deeplabv3plus/conv2d_4/Conv2D/ReadVariableOp", "op": "Const", "attr": {"value": {"tensor": {"dtype": "DT_FLOAT", "tensorShape": {"dim": [{"size": "7"}, {"size": "7"}, {"size": "2"}, {"size": "1"}]}}}, "dtype": {"type": "DT_FLOAT"}}}, {"name": "StatefulPartitionedCall/deeplabv3plus/lambda_14/resize/size", "op": "Const", "attr": {"value": {"tensor": {"dtype": "DT_INT32", "tensorShape": {"dim": [{"size": "2"}]}}}, "dtype": {"type": "DT_INT32"}}}, {"name": "StatefulPartitionedCall/deeplabv3plus/lambda_15/Mean/reduction_indices", "op": "Const", "attr": {"value": {"tensor": {"dtype": "DT_INT32", "tensorShape": {}}}, "dtype": {"type": "DT_INT32"}}}, {"name": "StatefulPartitionedCall/deeplabv3plus/feature_projection0/Conv2D/ReadVariableOp", "op": "Const", "attr": {"value": {"tensor": {"dtype": "DT_FLOAT", "tensorShape": {"dim": [{"size": "1"}, {"size": "1"}, {"size": "24"}, {"size": "48"}]}}}, "dtype": {"type": "DT_FLOAT"}}}, {"name": "StatefulPartitionedCall/deeplabv3plus/global_average_pooling2d_5/Mean/reduction_indices", "op": "Const", "attr": {"value": {"tensor": {"dtype": "DT_INT32", "tensorShape": {"dim": [{"size": "2"}]}}}, "dtype": {"type": "DT_INT32"}}}, {"name": "StatefulPartitionedCall/deeplabv3plus/reshape_54/strided_slice/stack", "op": "Const", "attr": {"value": {"tensor": {"dtype": "DT_INT32", "tensorShape": {"dim": [{"size": "1"}]}}}, "dtype": {"type": "DT_INT32"}}}, {"name": "StatefulPartitionedCall/deeplabv3plus/reshape_54/strided_slice/stack_1", "op": "Const", "attr": {"value": {"tensor": {"dtype": "DT_INT32", "tensorShape": {"dim": [{"size": "1"}]}}}, "dtype": {"type": "DT_INT32"}}}, {"name": "StatefulPartitionedCall/deeplabv3plus/reshape_54/strided_slice/stack_2", "op": "Const", "attr": {"value": {"tensor": {"dtype": "DT_INT32", "tensorShape": {"dim": [{"size": "1"}]}}}, "dtype": {"type": "DT_INT32"}}}, {"name": "StatefulPartitionedCall/deeplabv3plus/reshape_54/Reshape/shape/1", "op": "Const", "attr": {"value": {"tensor": {"dtype": "DT_INT32", "tensorShape": {}}}, "dtype": {"type": "DT_INT32"}}}, {"name": "StatefulPartitionedCall/deeplabv3plus/reshape_54/Reshape/shape/2", "op": "Const", "attr": {"value": {"tensor": {"dtype": "DT_INT32", "tensorShape": {}}}, "dtype": {"type": "DT_INT32"}}}, {"name": "StatefulPartitionedCall/deeplabv3plus/conv1d_3/conv1d/ExpandDims/dim", "op": "Const", "attr": {"value": {"tensor": {"dtype": "DT_INT32", "tensorShape": {}}}, "dtype": {"type": "DT_INT32"}}}, {"name": "StatefulPartitionedCall/deeplabv3plus/conv1d_3/conv1d/ExpandDims_1", "op": "Const", "attr": {"value": {"tensor": {"dtype": "DT_FLOAT", "tensorShape": {"dim": [{"size": "1"}, {"size": "3"}, {"size": "1"}, {"size": "1"}]}}}, "dtype": {"type": "DT_FLOAT"}}}, {"name": "StatefulPartitionedCall/deeplabv3plus/reshape_55/strided_slice/stack", "op": "Const", "attr": {"value": {"tensor": {"dtype": "DT_INT32", "tensorShape": {"dim": [{"size": "1"}]}}}, "dtype": {"type": "DT_INT32"}}}, {"name": "StatefulPartitionedCall/deeplabv3plus/reshape_55/strided_slice/stack_1", "op": "Const", "attr": {"value": {"tensor": {"dtype": "DT_INT32", "tensorShape": {"dim": [{"size": "1"}]}}}, "dtype": {"type": "DT_INT32"}}}, {"name": "StatefulPartitionedCall/deeplabv3plus/reshape_55/strided_slice/stack_2", "op": "Const", "attr": {"value": {"tensor": {"dtype": "DT_INT32", "tensorShape": {"dim": [{"size": "1"}]}}}, "dtype": {"type": "DT_INT32"}}}, {"name": "StatefulPartitionedCall/deeplabv3plus/reshape_55/Reshape/shape/1", "op": "Const", "attr": {"value": {"tensor": {"dtype": "DT_INT32", "tensorShape": {}}}, "dtype": {"type": "DT_INT32"}}}, {"name": "StatefulPartitionedCall/deeplabv3plus/reshape_55/Reshape/shape/2", "op": "Const", "attr": {"value": {"tensor": {"dtype": "DT_INT32", "tensorShape": {}}}, "dtype": {"type": "DT_INT32"}}}, {"name": "StatefulPartitionedCall/deeplabv3plus/reshape_55/Reshape/shape/3", "op": "Const", "attr": {"value": {"tensor": {"dtype": "DT_INT32", "tensorShape": {}}}, "dtype": {"type": "DT_INT32"}}}, {"name": "StatefulPartitionedCall/deeplabv3plus/lambda_16/Max/reduction_indices", "op": "Const", "attr": {"value": {"tensor": {"dtype": "DT_INT32", "tensorShape": {}}}, "dtype": {"type": "DT_INT32"}}}, {"name": "StatefulPartitionedCall/deeplabv3plus/concatenate_14/concat/axis", "op": "Const", "attr": {"value": {"tensor": {"dtype": "DT_INT32", "tensorShape": {}}}, "dtype": {"type": "DT_INT32"}}}, {"name": "StatefulPartitionedCall/deeplabv3plus/conv2d_5/Conv2D/ReadVariableOp", "op": "Const", "attr": {"value": {"tensor": {"dtype": "DT_FLOAT", "tensorShape": {"dim": [{"size": "7"}, {"size": "7"}, {"size": "2"}, {"size": "1"}]}}}, "dtype": {"type": "DT_FLOAT"}}}, {"name": "StatefulPartitionedCall/deeplabv3plus/concatenate_15/concat/axis", "op": "Const", "attr": {"value": {"tensor": {"dtype": "DT_INT32", "tensorShape": {}}}, "dtype": {"type": "DT_INT32"}}}, {"name": "StatefulPartitionedCall/deeplabv3plus/conv2d_6/Conv2D/ReadVariableOp", "op": "Const", "attr": {"value": {"tensor": {"dtype": "DT_FLOAT", "tensorShape": {"dim": [{"size": "3"}, {"size": "3"}, {"size": "256"}, {"size": "256"}]}}}, "dtype": {"type": "DT_FLOAT"}}}, {"name": "StatefulPartitionedCall/deeplabv3plus/conv2d_6/BiasAdd/ReadVariableOp", "op": "Const", "attr": {"value": {"tensor": {"dtype": "DT_FLOAT", "tensorShape": {"dim": [{"size": "256"}]}}}, "dtype": {"type": "DT_FLOAT"}}}, {"name": "StatefulPartitionedCall/deeplabv3plus/lambda_17/resize/size", "op": "Const", "attr": {"value": {"tensor": {"dtype": "DT_INT32", "tensorShape": {"dim": [{"size": "2"}]}}}, "dtype": {"type": "DT_INT32"}}}, {"name": "StatefulPartitionedCall/deeplabv3plus/conv2d_7/Conv2D/ReadVariableOp", "op": "Const", "attr": {"value": {"tensor": {"dtype": "DT_FLOAT", "tensorShape": {"dim": [{"size": "1"}, {"size": "1"}, {"size": "256"}, {"size": "2"}]}}}, "dtype": {"type": "DT_FLOAT"}}}, {"name": "StatefulPartitionedCall/deeplabv3plus/conv2d_7/BiasAdd/ReadVariableOp", "op": "Const", "attr": {"value": {"tensor": {"dtype": "DT_FLOAT", "tensorShape": {"dim": [{"size": "2"}]}}}, "dtype": {"type": "DT_FLOAT"}}}, {"name": "input_4", "op": "Placeholder", "attr": {"shape": {"shape": {"dim": [{"size": "-1"}, {"size": "256"}, {"size": "256"}, {"size": "3"}]}}, "dtype": {"type": "DT_FLOAT"}}}, {"name": "StatefulPartitionedCall/deeplabv3plus/conv1/conv1/Conv2D_weights", "op": "Const", "attr": {"value": {"tensor": {"dtype": "DT_FLOAT", "tensorShape": {"dim": [{"size": "3"}, {"size": "3"}, {"size": "3"}, {"size": "24"}]}}}, "dtype": {"type": "DT_FLOAT"}}}, {"name": "StatefulPartitionedCall/deeplabv3plus/conv1/conv1/Conv2D_bn_offset", "op": "Const", "attr": {"value": {"tensor": {"dtype": "DT_FLOAT", "tensorShape": {"dim": [{"size": "24"}]}}}, "dtype": {"type": "DT_FLOAT"}}}, {"name": "StatefulPartitionedCall/deeplabv3plus/stage2_0/b1_dw1/dw1/depthwise_weights", "op": "Const", "attr": {"value": {"tensor": {"dtype": "DT_FLOAT", "tensorShape": {"dim": [{"size": "3"}, {"size": "3"}, {"size": "24"}, {"size": "1"}]}}}, "dtype": {"type": "DT_FLOAT"}}}, {"name": "StatefulPartitionedCall/deeplabv3plus/stage2_0/b1_dw1/dw1/depthwise_bn_offset", "op": "Const", "attr": {"value": {"tensor": {"dtype": "DT_FLOAT", "tensorShape": {"dim": [{"size": "24"}]}}}, "dtype": {"type": "DT_FLOAT"}}}, {"name": "StatefulPartitionedCall/deeplabv3plus/stage2_0/b2_conv1/conv1/Conv2D_weights", "op": "Const", "attr": {"value": {"tensor": {"dtype": "DT_FLOAT", "tensorShape": {"dim": [{"size": "1"}, {"size": "1"}, {"size": "24"}, {"size": "122"}]}}}, "dtype": {"type": "DT_FLOAT"}}}, {"name": "StatefulPartitionedCall/deeplabv3plus/stage2_0/b2_conv1/conv1/Conv2D_bn_offset", "op": "Const", "attr": {"value": {"tensor": {"dtype": "DT_FLOAT", "tensorShape": {"dim": [{"size": "122"}]}}}, "dtype": {"type": "DT_FLOAT"}}}, {"name": "StatefulPartitionedCall/deeplabv3plus/stage2_0/b1_conv1/conv1/Conv2D_weights", "op": "Const", "attr": {"value": {"tensor": {"dtype": "DT_FLOAT", "tensorShape": {"dim": [{"size": "1"}, {"size": "1"}, {"size": "24"}, {"size": "122"}]}}}, "dtype": {"type": "DT_FLOAT"}}}, {"name": "StatefulPartitionedCall/deeplabv3plus/stage2_0/b1_conv1/conv1/Conv2D_bn_offset", "op": "Const", "attr": {"value": {"tensor": {"dtype": "DT_FLOAT", "tensorShape": {"dim": [{"size": "122"}]}}}, "dtype": {"type": "DT_FLOAT"}}}, {"name": "StatefulPartitionedCall/deeplabv3plus/stage2_0/b2_dw1/dw1/depthwise_weights", "op": "Const", "attr": {"value": {"tensor": {"dtype": "DT_FLOAT", "tensorShape": {"dim": [{"size": "3"}, {"size": "3"}, {"size": "122"}, {"size": "1"}]}}}, "dtype": {"type": "DT_FLOAT"}}}, {"name": "StatefulPartitionedCall/deeplabv3plus/stage2_0/b2_dw1/dw1/depthwise_bn_offset", "op": "Const", "attr": {"value": {"tensor": {"dtype": "DT_FLOAT", "tensorShape": {"dim": [{"size": "122"}]}}}, "dtype": {"type": "DT_FLOAT"}}}, {"name": "StatefulPartitionedCall/deeplabv3plus/stage2_0/b2_conv2/conv1/Conv2D_weights", "op": "Const", "attr": {"value": {"tensor": {"dtype": "DT_FLOAT", "tensorShape": {"dim": [{"size": "1"}, {"size": "1"}, {"size": "122"}, {"size": "122"}]}}}, "dtype": {"type": "DT_FLOAT"}}}, {"name": "StatefulPartitionedCall/deeplabv3plus/stage2_0/b2_conv2/conv1/Conv2D_bn_offset", "op": "Const", "attr": {"value": {"tensor": {"dtype": "DT_FLOAT", "tensorShape": {"dim": [{"size": "122"}]}}}, "dtype": {"type": "DT_FLOAT"}}}, {"name": "StatefulPartitionedCall/deeplabv3plus/stage2_1/b2_conv1/conv1/Conv2D_weights", "op": "Const", "attr": {"value": {"tensor": {"dtype": "DT_FLOAT", "tensorShape": {"dim": [{"size": "1"}, {"size": "1"}, {"size": "122"}, {"size": "122"}]}}}, "dtype": {"type": "DT_FLOAT"}}}, {"name": "StatefulPartitionedCall/deeplabv3plus/stage2_1/b2_conv1/conv1/Conv2D_bn_offset", "op": "Const", "attr": {"value": {"tensor": {"dtype": "DT_FLOAT", "tensorShape": {"dim": [{"size": "122"}]}}}, "dtype": {"type": "DT_FLOAT"}}}, {"name": "StatefulPartitionedCall/deeplabv3plus/stage2_1/b2_dw1/dw1/depthwise_weights", "op": "Const", "attr": {"value": {"tensor": {"dtype": "DT_FLOAT", "tensorShape": {"dim": [{"size": "3"}, {"size": "3"}, {"size": "122"}, {"size": "1"}]}}}, "dtype": {"type": "DT_FLOAT"}}}, {"name": "StatefulPartitionedCall/deeplabv3plus/stage2_1/b2_dw1/dw1/depthwise_bn_offset", "op": "Const", "attr": {"value": {"tensor": {"dtype": "DT_FLOAT", "tensorShape": {"dim": [{"size": "122"}]}}}, "dtype": {"type": "DT_FLOAT"}}}, {"name": "StatefulPartitionedCall/deeplabv3plus/stage2_1/b2_conv2/conv1/Conv2D_weights", "op": "Const", "attr": {"value": {"tensor": {"dtype": "DT_FLOAT", "tensorShape": {"dim": [{"size": "1"}, {"size": "1"}, {"size": "122"}, {"size": "122"}]}}}, "dtype": {"type": "DT_FLOAT"}}}, {"name": "StatefulPartitionedCall/deeplabv3plus/stage2_1/b2_conv2/conv1/Conv2D_bn_offset", "op": "Const", "attr": {"value": {"tensor": {"dtype": "DT_FLOAT", "tensorShape": {"dim": [{"size": "122"}]}}}, "dtype": {"type": "DT_FLOAT"}}}, {"name": "StatefulPartitionedCall/deeplabv3plus/decoder_conv0_depthwise/depthwise_weights", "op": "Const", "attr": {"value": {"tensor": {"dtype": "DT_FLOAT", "tensorShape": {"dim": [{"size": "3"}, {"size": "3"}, {"size": "304"}, {"size": "1"}]}}}, "dtype": {"type": "DT_FLOAT"}}}, {"name": "StatefulPartitionedCall/deeplabv3plus/stage2_2/b2_conv1/conv1/Conv2D_weights", "op": "Const", "attr": {"value": {"tensor": {"dtype": "DT_FLOAT", "tensorShape": {"dim": [{"size": "1"}, {"size": "1"}, {"size": "122"}, {"size": "122"}]}}}, "dtype": {"type": "DT_FLOAT"}}}, {"name": "StatefulPartitionedCall/deeplabv3plus/stage2_2/b2_conv1/conv1/Conv2D_bn_offset", "op": "Const", "attr": {"value": {"tensor": {"dtype": "DT_FLOAT", "tensorShape": {"dim": [{"size": "122"}]}}}, "dtype": {"type": "DT_FLOAT"}}}, {"name": "StatefulPartitionedCall/deeplabv3plus/decoder_conv0_depthwise/depthwise_bn_offset", "op": "Const", "attr": {"value": {"tensor": {"dtype": "DT_FLOAT", "tensorShape": {"dim": [{"size": "304"}]}}}, "dtype": {"type": "DT_FLOAT"}}}, {"name": "StatefulPartitionedCall/deeplabv3plus/stage2_2/b2_dw1/dw1/depthwise_weights", "op": "Const", "attr": {"value": {"tensor": {"dtype": "DT_FLOAT", "tensorShape": {"dim": [{"size": "3"}, {"size": "3"}, {"size": "122"}, {"size": "1"}]}}}, "dtype": {"type": "DT_FLOAT"}}}, {"name": "StatefulPartitionedCall/deeplabv3plus/stage2_2/b2_dw1/dw1/depthwise_bn_offset", "op": "Const", "attr": {"value": {"tensor": {"dtype": "DT_FLOAT", "tensorShape": {"dim": [{"size": "122"}]}}}, "dtype": {"type": "DT_FLOAT"}}}, {"name": "StatefulPartitionedCall/deeplabv3plus/stage2_2/b2_conv2/conv1/Conv2D_weights", "op": "Const", "attr": {"value": {"tensor": {"dtype": "DT_FLOAT", "tensorShape": {"dim": [{"size": "1"}, {"size": "1"}, {"size": "122"}, {"size": "122"}]}}}, "dtype": {"type": "DT_FLOAT"}}}, {"name": "StatefulPartitionedCall/deeplabv3plus/stage2_2/b2_conv2/conv1/Conv2D_bn_offset", "op": "Const", "attr": {"value": {"tensor": {"dtype": "DT_FLOAT", "tensorShape": {"dim": [{"size": "122"}]}}}, "dtype": {"type": "DT_FLOAT"}}}, {"name": "StatefulPartitionedCall/deeplabv3plus/stage2_3/b2_conv1/conv1/Conv2D_weights", "op": "Const", "attr": {"value": {"tensor": {"dtype": "DT_FLOAT", "tensorShape": {"dim": [{"size": "1"}, {"size": "1"}, {"size": "122"}, {"size": "122"}]}}}, "dtype": {"type": "DT_FLOAT"}}}, {"name": "StatefulPartitionedCall/deeplabv3plus/decoder_conv0_pointwise/Conv2D_weights", "op": "Const", "attr": {"value": {"tensor": {"dtype": "DT_FLOAT", "tensorShape": {"dim": [{"size": "1"}, {"size": "1"}, {"size": "304"}, {"size": "256"}]}}}, "dtype": {"type": "DT_FLOAT"}}}, {"name": "StatefulPartitionedCall/deeplabv3plus/stage2_3/b2_conv1/conv1/Conv2D_bn_offset", "op": "Const", "attr": {"value": {"tensor": {"dtype": "DT_FLOAT", "tensorShape": {"dim": [{"size": "122"}]}}}, "dtype": {"type": "DT_FLOAT"}}}, {"name": "StatefulPartitionedCall/deeplabv3plus/stage2_3/b2_dw1/dw1/depthwise_weights", "op": "Const", "attr": {"value": {"tensor": {"dtype": "DT_FLOAT", "tensorShape": {"dim": [{"size": "3"}, {"size": "3"}, {"size": "122"}, {"size": "1"}]}}}, "dtype": {"type": "DT_FLOAT"}}}, {"name": "StatefulPartitionedCall/deeplabv3plus/stage2_3/b2_dw1/dw1/depthwise_bn_offset", "op": "Const", "attr": {"value": {"tensor": {"dtype": "DT_FLOAT", "tensorShape": {"dim": [{"size": "122"}]}}}, "dtype": {"type": "DT_FLOAT"}}}, {"name": "StatefulPartitionedCall/deeplabv3plus/stage2_3/b2_conv2/conv1/Conv2D_weights", "op": "Const", "attr": {"value": {"tensor": {"dtype": "DT_FLOAT", "tensorShape": {"dim": [{"size": "1"}, {"size": "1"}, {"size": "122"}, {"size": "122"}]}}}, "dtype": {"type": "DT_FLOAT"}}}, {"name": "StatefulPartitionedCall/deeplabv3plus/decoder_conv0_pointwise/Conv2D_bn_offset", "op": "Const", "attr": {"value": {"tensor": {"dtype": "DT_FLOAT", "tensorShape": {"dim": [{"size": "256"}]}}}, "dtype": {"type": "DT_FLOAT"}}}, {"name": "StatefulPartitionedCall/deeplabv3plus/stage2_3/b2_conv2/conv1/Conv2D_bn_offset", "op": "Const", "attr": {"value": {"tensor": {"dtype": "DT_FLOAT", "tensorShape": {"dim": [{"size": "122"}]}}}, "dtype": {"type": "DT_FLOAT"}}}, {"name": "StatefulPartitionedCall/deeplabv3plus/stage3_0/b1_dw1/dw1/depthwise_weights", "op": "Const", "attr": {"value": {"tensor": {"dtype": "DT_FLOAT", "tensorShape": {"dim": [{"size": "3"}, {"size": "3"}, {"size": "244"}, {"size": "1"}]}}}, "dtype": {"type": "DT_FLOAT"}}}, {"name": "StatefulPartitionedCall/deeplabv3plus/stage3_0/b1_dw1/dw1/depthwise_bn_offset", "op": "Const", "attr": {"value": {"tensor": {"dtype": "DT_FLOAT", "tensorShape": {"dim": [{"size": "244"}]}}}, "dtype": {"type": "DT_FLOAT"}}}, {"name": "StatefulPartitionedCall/deeplabv3plus/stage3_0/b2_conv1/conv1/Conv2D_weights", "op": "Const", "attr": {"value": {"tensor": {"dtype": "DT_FLOAT", "tensorShape": {"dim": [{"size": "1"}, {"size": "1"}, {"size": "244"}, {"size": "244"}]}}}, "dtype": {"type": "DT_FLOAT"}}}, {"name": "StatefulPartitionedCall/deeplabv3plus/stage3_0/b2_conv1/conv1/Conv2D_bn_offset", "op": "Const", "attr": {"value": {"tensor": {"dtype": "DT_FLOAT", "tensorShape": {"dim": [{"size": "244"}]}}}, "dtype": {"type": "DT_FLOAT"}}}, {"name": "StatefulPartitionedCall/deeplabv3plus/decoder_conv1_depthwise/depthwise_weights", "op": "Const", "attr": {"value": {"tensor": {"dtype": "DT_FLOAT", "tensorShape": {"dim": [{"size": "3"}, {"size": "3"}, {"size": "256"}, {"size": "1"}]}}}, "dtype": {"type": "DT_FLOAT"}}}, {"name": "StatefulPartitionedCall/deeplabv3plus/stage3_0/b1_conv1/conv1/Conv2D_weights", "op": "Const", "attr": {"value": {"tensor": {"dtype": "DT_FLOAT", "tensorShape": {"dim": [{"size": "1"}, {"size": "1"}, {"size": "244"}, {"size": "244"}]}}}, "dtype": {"type": "DT_FLOAT"}}}, {"name": "StatefulPartitionedCall/deeplabv3plus/stage3_0/b1_conv1/conv1/Conv2D_bn_offset", "op": "Const", "attr": {"value": {"tensor": {"dtype": "DT_FLOAT", "tensorShape": {"dim": [{"size": "244"}]}}}, "dtype": {"type": "DT_FLOAT"}}}, {"name": "StatefulPartitionedCall/deeplabv3plus/decoder_conv1_depthwise/depthwise_bn_offset", "op": "Const", "attr": {"value": {"tensor": {"dtype": "DT_FLOAT", "tensorShape": {"dim": [{"size": "256"}]}}}, "dtype": {"type": "DT_FLOAT"}}}, {"name": "StatefulPartitionedCall/deeplabv3plus/stage3_0/b2_dw1/dw1/depthwise_weights", "op": "Const", "attr": {"value": {"tensor": {"dtype": "DT_FLOAT", "tensorShape": {"dim": [{"size": "3"}, {"size": "3"}, {"size": "244"}, {"size": "1"}]}}}, "dtype": {"type": "DT_FLOAT"}}}, {"name": "StatefulPartitionedCall/deeplabv3plus/stage3_0/b2_dw1/dw1/depthwise_bn_offset", "op": "Const", "attr": {"value": {"tensor": {"dtype": "DT_FLOAT", "tensorShape": {"dim": [{"size": "244"}]}}}, "dtype": {"type": "DT_FLOAT"}}}, {"name": "StatefulPartitionedCall/deeplabv3plus/stage3_0/b2_conv2/conv1/Conv2D_weights", "op": "Const", "attr": {"value": {"tensor": {"dtype": "DT_FLOAT", "tensorShape": {"dim": [{"size": "1"}, {"size": "1"}, {"size": "244"}, {"size": "244"}]}}}, "dtype": {"type": "DT_FLOAT"}}}, {"name": "StatefulPartitionedCall/deeplabv3plus/stage3_0/b2_conv2/conv1/Conv2D_bn_offset", "op": "Const", "attr": {"value": {"tensor": {"dtype": "DT_FLOAT", "tensorShape": {"dim": [{"size": "244"}]}}}, "dtype": {"type": "DT_FLOAT"}}}, {"name": "StatefulPartitionedCall/deeplabv3plus/stage3_1/b2_conv1/conv1/Conv2D_weights", "op": "Const", "attr": {"value": {"tensor": {"dtype": "DT_FLOAT", "tensorShape": {"dim": [{"size": "1"}, {"size": "1"}, {"size": "244"}, {"size": "244"}]}}}, "dtype": {"type": "DT_FLOAT"}}}, {"name": "StatefulPartitionedCall/deeplabv3plus/decoder_conv1_pointwise/Conv2D_weights", "op": "Const", "attr": {"value": {"tensor": {"dtype": "DT_FLOAT", "tensorShape": {"dim": [{"size": "1"}, {"size": "1"}, {"size": "256"}, {"size": "256"}]}}}, "dtype": {"type": "DT_FLOAT"}}}, {"name": "StatefulPartitionedCall/deeplabv3plus/stage3_1/b2_conv1/conv1/Conv2D_bn_offset", "op": "Const", "attr": {"value": {"tensor": {"dtype": "DT_FLOAT", "tensorShape": {"dim": [{"size": "244"}]}}}, "dtype": {"type": "DT_FLOAT"}}}, {"name": "StatefulPartitionedCall/deeplabv3plus/feature_projection0_BN/FusedBatchNormV3/Scaled", "op": "Const", "attr": {"value": {"tensor": {"dtype": "DT_FLOAT", "tensorShape": {"dim": [{"size": "48"}]}}}, "dtype": {"type": "DT_FLOAT"}}}, {"name": "StatefulPartitionedCall/deeplabv3plus/stage3_1/b2_dw1/dw1/depthwise_weights", "op": "Const", "attr": {"value": {"tensor": {"dtype": "DT_FLOAT", "tensorShape": {"dim": [{"size": "3"}, {"size": "3"}, {"size": "244"}, {"size": "1"}]}}}, "dtype": {"type": "DT_FLOAT"}}}, {"name": "StatefulPartitionedCall/deeplabv3plus/stage3_1/b2_dw1/dw1/depthwise_bn_offset", "op": "Const", "attr": {"value": {"tensor": {"dtype": "DT_FLOAT", "tensorShape": {"dim": [{"size": "244"}]}}}, "dtype": {"type": "DT_FLOAT"}}}, {"name": "StatefulPartitionedCall/deeplabv3plus/stage3_1/b2_conv2/conv1/Conv2D_weights", "op": "Const", "attr": {"value": {"tensor": {"dtype": "DT_FLOAT", "tensorShape": {"dim": [{"size": "1"}, {"size": "1"}, {"size": "244"}, {"size": "244"}]}}}, "dtype": {"type": "DT_FLOAT"}}}, {"name": "StatefulPartitionedCall/deeplabv3plus/decoder_conv1_pointwise/Conv2D_bn_offset", "op": "Const", "attr": {"value": {"tensor": {"dtype": "DT_FLOAT", "tensorShape": {"dim": [{"size": "256"}]}}}, "dtype": {"type": "DT_FLOAT"}}}, {"name": "StatefulPartitionedCall/deeplabv3plus/stage3_1/b2_conv2/conv1/Conv2D_bn_offset", "op": "Const", "attr": {"value": {"tensor": {"dtype": "DT_FLOAT", "tensorShape": {"dim": [{"size": "244"}]}}}, "dtype": {"type": "DT_FLOAT"}}}, {"name": "StatefulPartitionedCall/deeplabv3plus/stage3_2/b2_conv1/conv1/Conv2D_weights", "op": "Const", "attr": {"value": {"tensor": {"dtype": "DT_FLOAT", "tensorShape": {"dim": [{"size": "1"}, {"size": "1"}, {"size": "244"}, {"size": "244"}]}}}, "dtype": {"type": "DT_FLOAT"}}}, {"name": "StatefulPartitionedCall/deeplabv3plus/stage3_2/b2_conv1/conv1/Conv2D_bn_offset", "op": "Const", "attr": {"value": {"tensor": {"dtype": "DT_FLOAT", "tensorShape": {"dim": [{"size": "244"}]}}}, "dtype": {"type": "DT_FLOAT"}}}, {"name": "StatefulPartitionedCall/deeplabv3plus/stage3_2/b2_dw1/dw1/depthwise_weights", "op": "Const", "attr": {"value": {"tensor": {"dtype": "DT_FLOAT", "tensorShape": {"dim": [{"size": "3"}, {"size": "3"}, {"size": "244"}, {"size": "1"}]}}}, "dtype": {"type": "DT_FLOAT"}}}, {"name": "StatefulPartitionedCall/deeplabv3plus/stage3_2/b2_dw1/dw1/depthwise_bn_offset", "op": "Const", "attr": {"value": {"tensor": {"dtype": "DT_FLOAT", "tensorShape": {"dim": [{"size": "244"}]}}}, "dtype": {"type": "DT_FLOAT"}}}, {"name": "StatefulPartitionedCall/deeplabv3plus/stage3_2/b2_conv2/conv1/Conv2D_weights", "op": "Const", "attr": {"value": {"tensor": {"dtype": "DT_FLOAT", "tensorShape": {"dim": [{"size": "1"}, {"size": "1"}, {"size": "244"}, {"size": "244"}]}}}, "dtype": {"type": "DT_FLOAT"}}}, {"name": "StatefulPartitionedCall/deeplabv3plus/stage3_2/b2_conv2/conv1/Conv2D_bn_offset", "op": "Const", "attr": {"value": {"tensor": {"dtype": "DT_FLOAT", "tensorShape": {"dim": [{"size": "244"}]}}}, "dtype": {"type": "DT_FLOAT"}}}, {"name": "StatefulPartitionedCall/deeplabv3plus/stage3_3/b2_conv1/conv1/Conv2D_weights", "op": "Const", "attr": {"value": {"tensor": {"dtype": "DT_FLOAT", "tensorShape": {"dim": [{"size": "1"}, {"size": "1"}, {"size": "244"}, {"size": "244"}]}}}, "dtype": {"type": "DT_FLOAT"}}}, {"name": "StatefulPartitionedCall/deeplabv3plus/feature_projection0_BN/FusedBatchNormV3/Offset", "op": "Const", "attr": {"value": {"tensor": {"dtype": "DT_FLOAT", "tensorShape": {"dim": [{"size": "48"}]}}}, "dtype": {"type": "DT_FLOAT"}}}, {"name": "StatefulPartitionedCall/deeplabv3plus/stage3_3/b2_conv1/conv1/Conv2D_bn_offset", "op": "Const", "attr": {"value": {"tensor": {"dtype": "DT_FLOAT", "tensorShape": {"dim": [{"size": "244"}]}}}, "dtype": {"type": "DT_FLOAT"}}}, {"name": "StatefulPartitionedCall/deeplabv3plus/stage3_3/b2_dw1/dw1/depthwise_weights", "op": "Const", "attr": {"value": {"tensor": {"dtype": "DT_FLOAT", "tensorShape": {"dim": [{"size": "3"}, {"size": "3"}, {"size": "244"}, {"size": "1"}]}}}, "dtype": {"type": "DT_FLOAT"}}}, {"name": "StatefulPartitionedCall/deeplabv3plus/stage3_3/b2_dw1/dw1/depthwise_bn_offset", "op": "Const", "attr": {"value": {"tensor": {"dtype": "DT_FLOAT", "tensorShape": {"dim": [{"size": "244"}]}}}, "dtype": {"type": "DT_FLOAT"}}}, {"name": "StatefulPartitionedCall/deeplabv3plus/stage3_3/b2_conv2/conv1/Conv2D_weights", "op": "Const", "attr": {"value": {"tensor": {"dtype": "DT_FLOAT", "tensorShape": {"dim": [{"size": "1"}, {"size": "1"}, {"size": "244"}, {"size": "244"}]}}}, "dtype": {"type": "DT_FLOAT"}}}, {"name": "StatefulPartitionedCall/deeplabv3plus/stage3_3/b2_conv2/conv1/Conv2D_bn_offset", "op": "Const", "attr": {"value": {"tensor": {"dtype": "DT_FLOAT", "tensorShape": {"dim": [{"size": "244"}]}}}, "dtype": {"type": "DT_FLOAT"}}}, {"name": "StatefulPartitionedCall/deeplabv3plus/stage3_4/b2_conv1/conv1/Conv2D_weights", "op": "Const", "attr": {"value": {"tensor": {"dtype": "DT_FLOAT", "tensorShape": {"dim": [{"size": "1"}, {"size": "1"}, {"size": "244"}, {"size": "244"}]}}}, "dtype": {"type": "DT_FLOAT"}}}, {"name": "StatefulPartitionedCall/deeplabv3plus/stage3_4/b2_conv1/conv1/Conv2D_bn_offset", "op": "Const", "attr": {"value": {"tensor": {"dtype": "DT_FLOAT", "tensorShape": {"dim": [{"size": "244"}]}}}, "dtype": {"type": "DT_FLOAT"}}}, {"name": "StatefulPartitionedCall/deeplabv3plus/stage3_4/b2_dw1/dw1/depthwise_weights", "op": "Const", "attr": {"value": {"tensor": {"dtype": "DT_FLOAT", "tensorShape": {"dim": [{"size": "3"}, {"size": "3"}, {"size": "244"}, {"size": "1"}]}}}, "dtype": {"type": "DT_FLOAT"}}}, {"name": "StatefulPartitionedCall/deeplabv3plus/stage3_4/b2_dw1/dw1/depthwise_bn_offset", "op": "Const", "attr": {"value": {"tensor": {"dtype": "DT_FLOAT", "tensorShape": {"dim": [{"size": "244"}]}}}, "dtype": {"type": "DT_FLOAT"}}}, {"name": "StatefulPartitionedCall/deeplabv3plus/stage3_4/b2_conv2/conv1/Conv2D_weights", "op": "Const", "attr": {"value": {"tensor": {"dtype": "DT_FLOAT", "tensorShape": {"dim": [{"size": "1"}, {"size": "1"}, {"size": "244"}, {"size": "244"}]}}}, "dtype": {"type": "DT_FLOAT"}}}, {"name": "StatefulPartitionedCall/deeplabv3plus/concat_projection_BN/FusedBatchNormV3/Scaled", "op": "Const", "attr": {"value": {"tensor": {"dtype": "DT_FLOAT", "tensorShape": {"dim": [{"size": "256"}]}}}, "dtype": {"type": "DT_FLOAT"}}}, {"name": "StatefulPartitionedCall/deeplabv3plus/stage3_4/b2_conv2/conv1/Conv2D_bn_offset", "op": "Const", "attr": {"value": {"tensor": {"dtype": "DT_FLOAT", "tensorShape": {"dim": [{"size": "244"}]}}}, "dtype": {"type": "DT_FLOAT"}}}, {"name": "StatefulPartitionedCall/deeplabv3plus/stage3_5/b2_conv1/conv1/Conv2D_weights", "op": "Const", "attr": {"value": {"tensor": {"dtype": "DT_FLOAT", "tensorShape": {"dim": [{"size": "1"}, {"size": "1"}, {"size": "244"}, {"size": "244"}]}}}, "dtype": {"type": "DT_FLOAT"}}}, {"name": "StatefulPartitionedCall/deeplabv3plus/stage3_5/b2_conv1/conv1/Conv2D_bn_offset", "op": "Const", "attr": {"value": {"tensor": {"dtype": "DT_FLOAT", "tensorShape": {"dim": [{"size": "244"}]}}}, "dtype": {"type": "DT_FLOAT"}}}, {"name": "StatefulPartitionedCall/deeplabv3plus/concat_projection_BN/FusedBatchNormV3/Offset", "op": "Const", "attr": {"value": {"tensor": {"dtype": "DT_FLOAT", "tensorShape": {"dim": [{"size": "256"}]}}}, "dtype": {"type": "DT_FLOAT"}}}, {"name": "StatefulPartitionedCall/deeplabv3plus/stage3_5/b2_dw1/dw1/depthwise_weights", "op": "Const", "attr": {"value": {"tensor": {"dtype": "DT_FLOAT", "tensorShape": {"dim": [{"size": "3"}, {"size": "3"}, {"size": "244"}, {"size": "1"}]}}}, "dtype": {"type": "DT_FLOAT"}}}, {"name": "StatefulPartitionedCall/deeplabv3plus/stage3_5/b2_dw1/dw1/depthwise_bn_offset", "op": "Const", "attr": {"value": {"tensor": {"dtype": "DT_FLOAT", "tensorShape": {"dim": [{"size": "244"}]}}}, "dtype": {"type": "DT_FLOAT"}}}, {"name": "StatefulPartitionedCall/deeplabv3plus/stage3_5/b2_conv2/conv1/Conv2D_weights", "op": "Const", "attr": {"value": {"tensor": {"dtype": "DT_FLOAT", "tensorShape": {"dim": [{"size": "1"}, {"size": "1"}, {"size": "244"}, {"size": "244"}]}}}, "dtype": {"type": "DT_FLOAT"}}}, {"name": "StatefulPartitionedCall/deeplabv3plus/stage3_5/b2_conv2/conv1/Conv2D_bn_offset", "op": "Const", "attr": {"value": {"tensor": {"dtype": "DT_FLOAT", "tensorShape": {"dim": [{"size": "244"}]}}}, "dtype": {"type": "DT_FLOAT"}}}, {"name": "StatefulPartitionedCall/deeplabv3plus/stage3_6/b2_conv1/conv1/Conv2D_weights", "op": "Const", "attr": {"value": {"tensor": {"dtype": "DT_FLOAT", "tensorShape": {"dim": [{"size": "1"}, {"size": "1"}, {"size": "244"}, {"size": "244"}]}}}, "dtype": {"type": "DT_FLOAT"}}}, {"name": "StatefulPartitionedCall/deeplabv3plus/stage3_6/b2_conv1/conv1/Conv2D_bn_offset", "op": "Const", "attr": {"value": {"tensor": {"dtype": "DT_FLOAT", "tensorShape": {"dim": [{"size": "244"}]}}}, "dtype": {"type": "DT_FLOAT"}}}, {"name": "StatefulPartitionedCall/deeplabv3plus/aspp3_depthwise_BN/FusedBatchNormV3/Scaled", "op": "Const", "attr": {"value": {"tensor": {"dtype": "DT_FLOAT", "tensorShape": {"dim": [{"size": "2816"}]}}}, "dtype": {"type": "DT_FLOAT"}}}, {"name": "StatefulPartitionedCall/deeplabv3plus/stage3_6/b2_dw1/dw1/depthwise_weights", "op": "Const", "attr": {"value": {"tensor": {"dtype": "DT_FLOAT", "tensorShape": {"dim": [{"size": "3"}, {"size": "3"}, {"size": "244"}, {"size": "1"}]}}}, "dtype": {"type": "DT_FLOAT"}}}, {"name": "StatefulPartitionedCall/deeplabv3plus/stage3_6/b2_dw1/dw1/depthwise_bn_offset", "op": "Const", "attr": {"value": {"tensor": {"dtype": "DT_FLOAT", "tensorShape": {"dim": [{"size": "244"}]}}}, "dtype": {"type": "DT_FLOAT"}}}, {"name": "StatefulPartitionedCall/deeplabv3plus/stage3_6/b2_conv2/conv1/Conv2D_weights", "op": "Const", "attr": {"value": {"tensor": {"dtype": "DT_FLOAT", "tensorShape": {"dim": [{"size": "1"}, {"size": "1"}, {"size": "244"}, {"size": "244"}]}}}, "dtype": {"type": "DT_FLOAT"}}}, {"name": "StatefulPartitionedCall/deeplabv3plus/stage3_6/b2_conv2/conv1/Conv2D_bn_offset", "op": "Const", "attr": {"value": {"tensor": {"dtype": "DT_FLOAT", "tensorShape": {"dim": [{"size": "244"}]}}}, "dtype": {"type": "DT_FLOAT"}}}, {"name": "StatefulPartitionedCall/deeplabv3plus/stage3_7/b2_conv1/conv1/Conv2D_weights", "op": "Const", "attr": {"value": {"tensor": {"dtype": "DT_FLOAT", "tensorShape": {"dim": [{"size": "1"}, {"size": "1"}, {"size": "244"}, {"size": "244"}]}}}, "dtype": {"type": "DT_FLOAT"}}}, {"name": "StatefulPartitionedCall/deeplabv3plus/aspp3_depthwise_BN/FusedBatchNormV3/Offset", "op": "Const", "attr": {"value": {"tensor": {"dtype": "DT_FLOAT", "tensorShape": {"dim": [{"size": "2816"}]}}}, "dtype": {"type": "DT_FLOAT"}}}, {"name": "StatefulPartitionedCall/deeplabv3plus/stage3_7/b2_conv1/conv1/Conv2D_bn_offset", "op": "Const", "attr": {"value": {"tensor": {"dtype": "DT_FLOAT", "tensorShape": {"dim": [{"size": "244"}]}}}, "dtype": {"type": "DT_FLOAT"}}}, {"name": "StatefulPartitionedCall/deeplabv3plus/stage3_7/b2_dw1/dw1/depthwise_weights", "op": "Const", "attr": {"value": {"tensor": {"dtype": "DT_FLOAT", "tensorShape": {"dim": [{"size": "3"}, {"size": "3"}, {"size": "244"}, {"size": "1"}]}}}, "dtype": {"type": "DT_FLOAT"}}}, {"name": "StatefulPartitionedCall/deeplabv3plus/stage3_7/b2_dw1/dw1/depthwise_bn_offset", "op": "Const", "attr": {"value": {"tensor": {"dtype": "DT_FLOAT", "tensorShape": {"dim": [{"size": "244"}]}}}, "dtype": {"type": "DT_FLOAT"}}}, {"name": "StatefulPartitionedCall/deeplabv3plus/stage3_7/b2_conv2/conv1/Conv2D_weights", "op": "Const", "attr": {"value": {"tensor": {"dtype": "DT_FLOAT", "tensorShape": {"dim": [{"size": "1"}, {"size": "1"}, {"size": "244"}, {"size": "244"}]}}}, "dtype": {"type": "DT_FLOAT"}}}, {"name": "StatefulPartitionedCall/deeplabv3plus/stage3_7/b2_conv2/conv1/Conv2D_bn_offset", "op": "Const", "attr": {"value": {"tensor": {"dtype": "DT_FLOAT", "tensorShape": {"dim": [{"size": "244"}]}}}, "dtype": {"type": "DT_FLOAT"}}}, {"name": "StatefulPartitionedCall/deeplabv3plus/conv5/conv1/Conv2D_weights", "op": "Const", "attr": {"value": {"tensor": {"dtype": "DT_FLOAT", "tensorShape": {"dim": [{"size": "1"}, {"size": "1"}, {"size": "488"}, {"size": "2048"}]}}}, "dtype": {"type": "DT_FLOAT"}}}, {"name": "StatefulPartitionedCall/deeplabv3plus/aspp2_depthwise_BN/FusedBatchNormV3/Scaled", "op": "Const", "attr": {"value": {"tensor": {"dtype": "DT_FLOAT", "tensorShape": {"dim": [{"size": "2560"}]}}}, "dtype": {"type": "DT_FLOAT"}}}, {"name": "StatefulPartitionedCall/deeplabv3plus/conv5/conv1/Conv2D_bn_offset", "op": "Const", "attr": {"value": {"tensor": {"dtype": "DT_FLOAT", "tensorShape": {"dim": [{"size": "2048"}]}}}, "dtype": {"type": "DT_FLOAT"}}}, {"name": "StatefulPartitionedCall/deeplabv3plus/aspp0/Conv2D_weights", "op": "Const", "attr": {"value": {"tensor": {"dtype": "DT_FLOAT", "tensorShape": {"dim": [{"size": "1"}, {"size": "1"}, {"size": "2048"}, {"size": "256"}]}}}, "dtype": {"type": "DT_FLOAT"}}}, {"name": "StatefulPartitionedCall/deeplabv3plus/aspp0/Conv2D_bn_offset", "op": "Const", "attr": {"value": {"tensor": {"dtype": "DT_FLOAT", "tensorShape": {"dim": [{"size": "256"}]}}}, "dtype": {"type": "DT_FLOAT"}}}, {"name": "StatefulPartitionedCall/deeplabv3plus/aspp2_depthwise_BN/FusedBatchNormV3/Offset", "op": "Const", "attr": {"value": {"tensor": {"dtype": "DT_FLOAT", "tensorShape": {"dim": [{"size": "2560"}]}}}, "dtype": {"type": "DT_FLOAT"}}}, {"name": "StatefulPartitionedCall/deeplabv3plus/aspp1_pointwise/Conv2D_weights", "op": "Const", "attr": {"value": {"tensor": {"dtype": "DT_FLOAT", "tensorShape": {"dim": [{"size": "1"}, {"size": "1"}, {"size": "2304"}, {"size": "256"}]}}}, "dtype": {"type": "DT_FLOAT"}}}, {"name": "StatefulPartitionedCall/deeplabv3plus/aspp1_pointwise/Conv2D_bn_offset", "op": "Const", "attr": {"value": {"tensor": {"dtype": "DT_FLOAT", "tensorShape": {"dim": [{"size": "256"}]}}}, "dtype": {"type": "DT_FLOAT"}}}, {"name": "StatefulPartitionedCall/deeplabv3plus/aspp2_pointwise/Conv2D_weights", "op": "Const", "attr": {"value": {"tensor": {"dtype": "DT_FLOAT", "tensorShape": {"dim": [{"size": "1"}, {"size": "1"}, {"size": "2560"}, {"size": "256"}]}}}, "dtype": {"type": "DT_FLOAT"}}}, {"name": "StatefulPartitionedCall/deeplabv3plus/aspp2_pointwise/Conv2D_bn_offset", "op": "Const", "attr": {"value": {"tensor": {"dtype": "DT_FLOAT", "tensorShape": {"dim": [{"size": "256"}]}}}, "dtype": {"type": "DT_FLOAT"}}}, {"name": "StatefulPartitionedCall/deeplabv3plus/aspp1_depthwise_BN/FusedBatchNormV3/Scaled", "op": "Const", "attr": {"value": {"tensor": {"dtype": "DT_FLOAT", "tensorShape": {"dim": [{"size": "2304"}]}}}, "dtype": {"type": "DT_FLOAT"}}}, {"name": "StatefulPartitionedCall/deeplabv3plus/aspp3_pointwise/Conv2D_weights", "op": "Const", "attr": {"value": {"tensor": {"dtype": "DT_FLOAT", "tensorShape": {"dim": [{"size": "1"}, {"size": "1"}, {"size": "2816"}, {"size": "256"}]}}}, "dtype": {"type": "DT_FLOAT"}}}, {"name": "StatefulPartitionedCall/deeplabv3plus/aspp3_pointwise/Conv2D_bn_offset", "op": "Const", "attr": {"value": {"tensor": {"dtype": "DT_FLOAT", "tensorShape": {"dim": [{"size": "256"}]}}}, "dtype": {"type": "DT_FLOAT"}}}, {"name": "StatefulPartitionedCall/deeplabv3plus/image_pooling/Conv2D_weights", "op": "Const", "attr": {"value": {"tensor": {"dtype": "DT_FLOAT", "tensorShape": {"dim": [{"size": "1"}, {"size": "1"}, {"size": "3072"}, {"size": "256"}]}}}, "dtype": {"type": "DT_FLOAT"}}}, {"name": "StatefulPartitionedCall/deeplabv3plus/aspp1_depthwise_BN/FusedBatchNormV3/Offset", "op": "Const", "attr": {"value": {"tensor": {"dtype": "DT_FLOAT", "tensorShape": {"dim": [{"size": "2304"}]}}}, "dtype": {"type": "DT_FLOAT"}}}, {"name": "StatefulPartitionedCall/deeplabv3plus/image_pooling/Conv2D_bn_offset", "op": "Const", "attr": {"value": {"tensor": {"dtype": "DT_FLOAT", "tensorShape": {"dim": [{"size": "256"}]}}}, "dtype": {"type": "DT_FLOAT"}}}, {"name": "StatefulPartitionedCall/deeplabv3plus/conv1/re_lu_28/Relu", "op": "_FusedConv2D", "input": ["input_4", "StatefulPartitionedCall/deeplabv3plus/conv1/conv1/Conv2D_weights", "StatefulPartitionedCall/deeplabv3plus/conv1/conv1/Conv2D_bn_offset"], "device": "/device:CPU:0", "attr": {"dilations": {"list": {"i": ["1", "1", "1", "1"]}}, "T": {"type": "DT_FLOAT"}, "data_format": {"s": "TkhXQw=="}, "strides": {"list": {"i": ["1", "2", "2", "1"]}}, "explicit_paddings": {"list": {}}, "use_cudnn_on_gpu": {"b": true}, "num_args": {"i": "1"}, "epsilon": {"f": 0.0}, "padding": {"s": "U0FNRQ=="}, "fused_ops": {"list": {"s": ["Qmlhc0FkZA==", "UmVsdQ=="]}}}}, {"name": "StatefulPartitionedCall/deeplabv3plus/maxpool/MaxPool", "op": "MaxPool", "input": ["StatefulPartitionedCall/deeplabv3plus/conv1/re_lu_28/Relu"], "attr": {"T": {"type": "DT_FLOAT"}, "data_format": {"s": "TkhXQw=="}, "strides": {"list": {"i": ["1", "2", "2", "1"]}}, "explicit_paddings": {"list": {}}, "ksize": {"list": {"i": ["1", "3", "3", "1"]}}, "padding": {"s": "U0FNRQ=="}}}, {"name": "StatefulPartitionedCall/deeplabv3plus/feature_projection0/Conv2D", "op": "Conv2D", "input": ["StatefulPartitionedCall/deeplabv3plus/maxpool/MaxPool", "StatefulPartitionedCall/deeplabv3plus/feature_projection0/Conv2D/ReadVariableOp"], "device": "/device:CPU:0", "attr": {"dilations": {"list": {"i": ["1", "1", "1", "1"]}}, "T": {"type": "DT_FLOAT"}, "data_format": {"s": "TkhXQw=="}, "strides": {"list": {"i": ["1", "1", "1", "1"]}}, "use_cudnn_on_gpu": {"b": true}, "explicit_paddings": {"list": {}}, "padding": {"s": "U0FNRQ=="}}}, {"name": "StatefulPartitionedCall/deeplabv3plus/stage2_0/b1_dw1/dw1/depthwise", "op": "FusedDepthwiseConv2dNative", "input": ["StatefulPartitionedCall/deeplabv3plus/maxpool/MaxPool", "StatefulPartitionedCall/deeplabv3plus/stage2_0/b1_dw1/dw1/depthwise_weights", "StatefulPartitionedCall/deeplabv3plus/stage2_0/b1_dw1/dw1/depthwise_bn_offset"], "attr": {"dilations": {"list": {"i": ["1", "1", "1", "1"]}}, "T": {"type": "DT_FLOAT"}, "data_format": {"s": "TkhXQw=="}, "strides": {"list": {"i": ["1", "2", "2", "1"]}}, "explicit_paddings": {"list": {}}, "padding": {"s": "U0FNRQ=="}, "num_args": {"i": "1"}, "fused_ops": {"list": {"s": ["Qmlhc0FkZA=="]}}}}, {"name": "StatefulPartitionedCall/deeplabv3plus/stage2_0/b2_conv1/re_lu_30/Relu", "op": "_FusedConv2D", "input": ["StatefulPartitionedCall/deeplabv3plus/maxpool/MaxPool", "StatefulPartitionedCall/deeplabv3plus/stage2_0/b2_conv1/conv1/Conv2D_weights", "StatefulPartitionedCall/deeplabv3plus/stage2_0/b2_conv1/conv1/Conv2D_bn_offset"], "device": "/device:CPU:0", "attr": {"dilations": {"list": {"i": ["1", "1", "1", "1"]}}, "T": {"type": "DT_FLOAT"}, "data_format": {"s": "TkhXQw=="}, "strides": {"list": {"i": ["1", "1", "1", "1"]}}, "explicit_paddings": {"list": {}}, "use_cudnn_on_gpu": {"b": true}, "num_args": {"i": "1"}, "epsilon": {"f": 0.0}, "padding": {"s": "U0FNRQ=="}, "fused_ops": {"list": {"s": ["Qmlhc0FkZA==", "UmVsdQ=="]}}}}, {"name": "StatefulPartitionedCall/deeplabv3plus/global_average_pooling2d_5/Mean", "op": "Mean", "input": ["StatefulPartitionedCall/deeplabv3plus/feature_projection0/Conv2D", "StatefulPartitionedCall/deeplabv3plus/global_average_pooling2d_5/Mean/reduction_indices"], "attr": {"keep_dims": {"b": false}, "Tidx": {"type": "DT_INT32"}, "T": {"type": "DT_FLOAT"}}}, {"name": "StatefulPartitionedCall/deeplabv3plus/stage2_0/b2_dw1/dw1/depthwise", "op": "FusedDepthwiseConv2dNative", "input": ["StatefulPartitionedCall/deeplabv3plus/stage2_0/b2_conv1/re_lu_30/Relu", "StatefulPartitionedCall/deeplabv3plus/stage2_0/b2_dw1/dw1/depthwise_weights", "StatefulPartitionedCall/deeplabv3plus/stage2_0/b2_dw1/dw1/depthwise_bn_offset"], "attr": {"dilations": {"list": {"i": ["1", "1", "1", "1"]}}, "T": {"type": "DT_FLOAT"}, "data_format": {"s": "TkhXQw=="}, "strides": {"list": {"i": ["1", "2", "2", "1"]}}, "explicit_paddings": {"list": {}}, "padding": {"s": "U0FNRQ=="}, "num_args": {"i": "1"}, "fused_ops": {"list": {"s": ["Qmlhc0FkZA=="]}}}}, {"name": "StatefulPartitionedCall/deeplabv3plus/reshape_54/Shape", "op": "Shape", "input": ["StatefulPartitionedCall/deeplabv3plus/global_average_pooling2d_5/Mean"], "attr": {"T": {"type": "DT_FLOAT"}, "out_type": {"type": "DT_INT32"}}}, {"name": "StatefulPartitionedCall/deeplabv3plus/stage2_0/b1_conv1/re_lu_29/Relu", "op": "_FusedConv2D", "input": ["StatefulPartitionedCall/deeplabv3plus/stage2_0/b1_dw1/dw1/depthwise", "StatefulPartitionedCall/deeplabv3plus/stage2_0/b1_conv1/conv1/Conv2D_weights", "StatefulPartitionedCall/deeplabv3plus/stage2_0/b1_conv1/conv1/Conv2D_bn_offset"], "device": "/device:CPU:0", "attr": {"dilations": {"list": {"i": ["1", "1", "1", "1"]}}, "T": {"type": "DT_FLOAT"}, "data_format": {"s": "TkhXQw=="}, "strides": {"list": {"i": ["1", "1", "1", "1"]}}, "explicit_paddings": {"list": {}}, "use_cudnn_on_gpu": {"b": true}, "num_args": {"i": "1"}, "epsilon": {"f": 0.0}, "padding": {"s": "U0FNRQ=="}, "fused_ops": {"list": {"s": ["Qmlhc0FkZA==", "UmVsdQ=="]}}}}, {"name": "StatefulPartitionedCall/deeplabv3plus/reshape_54/strided_slice", "op": "StridedSlice", "input": ["StatefulPartitionedCall/deeplabv3plus/reshape_54/Shape", "StatefulPartitionedCall/deeplabv3plus/reshape_54/strided_slice/stack", "StatefulPartitionedCall/deeplabv3plus/reshape_54/strided_slice/stack_1", "StatefulPartitionedCall/deeplabv3plus/reshape_54/strided_slice/stack_2"], "attr": {"T": {"type": "DT_INT32"}, "Index": {"type": "DT_INT32"}, "shrink_axis_mask": {"i": "1"}, "ellipsis_mask": {"i": "0"}, "begin_mask": {"i": "0"}, "new_axis_mask": {"i": "0"}, "end_mask": {"i": "0"}}}, {"name": "StatefulPartitionedCall/deeplabv3plus/stage2_0/b2_conv2/re_lu_31/Relu", "op": "_FusedConv2D", "input": ["StatefulPartitionedCall/deeplabv3plus/stage2_0/b2_dw1/dw1/depthwise", "StatefulPartitionedCall/deeplabv3plus/stage2_0/b2_conv2/conv1/Conv2D_weights", "StatefulPartitionedCall/deeplabv3plus/stage2_0/b2_conv2/conv1/Conv2D_bn_offset"], "device": "/device:CPU:0", "attr": {"dilations": {"list": {"i": ["1", "1", "1", "1"]}}, "T": {"type": "DT_FLOAT"}, "data_format": {"s": "TkhXQw=="}, "strides": {"list": {"i": ["1", "1", "1", "1"]}}, "explicit_paddings": {"list": {}}, "use_cudnn_on_gpu": {"b": true}, "num_args": {"i": "1"}, "epsilon": {"f": 0.0}, "padding": {"s": "U0FNRQ=="}, "fused_ops": {"list": {"s": ["Qmlhc0FkZA==", "UmVsdQ=="]}}}}, {"name": "StatefulPartitionedCall/deeplabv3plus/reshape_54/Reshape/shape", "op": "Pack", "input": ["StatefulPartitionedCall/deeplabv3plus/reshape_54/strided_slice", "StatefulPartitionedCall/deeplabv3plus/reshape_54/Reshape/shape/1", "StatefulPartitionedCall/deeplabv3plus/reshape_54/Reshape/shape/2"], "attr": {"T": {"type": "DT_INT32"}, "axis": {"i": "0"}, "N": {"i": "3"}}}, {"name": "StatefulPartitionedCall/deeplabv3plus/stage2_0/concat/concat", "op": "ConcatV2", "input": ["StatefulPartitionedCall/deeplabv3plus/stage2_0/b1_conv1/re_lu_29/Relu", "StatefulPartitionedCall/deeplabv3plus/stage2_0/b2_conv2/re_lu_31/Relu", "StatefulPartitionedCall/deeplabv3plus/stage2_0/concat/concat/axis"], "attr": {"Tidx": {"type": "DT_INT32"}, "T": {"type": "DT_FLOAT"}, "N": {"i": "2"}}}, {"name": "StatefulPartitionedCall/deeplabv3plus/reshape_54/Reshape", "op": "Reshape", "input": ["StatefulPartitionedCall/deeplabv3plus/global_average_pooling2d_5/Mean", "StatefulPartitionedCall/deeplabv3plus/reshape_54/Reshape/shape"], "attr": {"T": {"type": "DT_FLOAT"}, "Tshape": {"type": "DT_INT32"}}}, {"name": "StatefulPartitionedCall/deeplabv3plus/stage2_0/channelshuffle/reshape_28/Shape", "op": "Shape", "input": ["StatefulPartitionedCall/deeplabv3plus/stage2_0/concat/concat"], "attr": {"T": {"type": "DT_FLOAT"}, "out_type": {"type": "DT_INT32"}}}, {"name": "StatefulPartitionedCall/deeplabv3plus/conv1d_3/conv1d/ExpandDims", "op": "ExpandDims", "input": ["StatefulPartitionedCall/deeplabv3plus/reshape_54/Reshape", "StatefulPartitionedCall/deeplabv3plus/conv1d_3/conv1d/ExpandDims/dim"], "attr": {"Tdim": {"type": "DT_INT32"}, "T": {"type": "DT_FLOAT"}}}, {"name": "StatefulPartitionedCall/deeplabv3plus/stage2_0/channelshuffle/reshape_28/strided_slice", "op": "StridedSlice", "input": ["StatefulPartitionedCall/deeplabv3plus/stage2_0/channelshuffle/reshape_28/Shape", "StatefulPartitionedCall/deeplabv3plus/stage2_0/channelshuffle/reshape_28/strided_slice/stack", "StatefulPartitionedCall/deeplabv3plus/stage2_0/channelshuffle/reshape_28/strided_slice/stack_1", "StatefulPartitionedCall/deeplabv3plus/stage2_0/channelshuffle/reshape_28/strided_slice/stack_2"], "attr": {"T": {"type": "DT_INT32"}, "Index": {"type": "DT_INT32"}, "shrink_axis_mask": {"i": "1"}, "ellipsis_mask": {"i": "0"}, "begin_mask": {"i": "0"}, "new_axis_mask": {"i": "0"}, "end_mask": {"i": "0"}}}, {"name": "StatefulPartitionedCall/deeplabv3plus/conv1d_3/conv1d", "op": "Conv2D", "input": ["StatefulPartitionedCall/deeplabv3plus/conv1d_3/conv1d/ExpandDims", "StatefulPartitionedCall/deeplabv3plus/conv1d_3/conv1d/ExpandDims_1"], "device": "/device:CPU:0", "attr": {"dilations": {"list": {"i": ["1", "1", "1", "1"]}}, "T": {"type": "DT_FLOAT"}, "data_format": {"s": "TkhXQw=="}, "strides": {"list": {"i": ["1", "1", "1", "1"]}}, "use_cudnn_on_gpu": {"b": true}, "explicit_paddings": {"list": {}}, "padding": {"s": "U0FNRQ=="}}}, {"name": "StatefulPartitionedCall/deeplabv3plus/stage2_0/channelshuffle/reshape_28/Reshape/shape", "op": "Pack", "input": ["StatefulPartitionedCall/deeplabv3plus/stage2_0/channelshuffle/reshape_28/strided_slice", "StatefulPartitionedCall/deeplabv3plus/stage2_0/channelshuffle/reshape_28/Reshape/shape/1", "StatefulPartitionedCall/deeplabv3plus/stage2_0/channelshuffle/reshape_28/Reshape/shape/2", "StatefulPartitionedCall/deeplabv3plus/stage2_0/channelshuffle/reshape_28/Reshape/shape/3", "StatefulPartitionedCall/deeplabv3plus/stage2_0/channelshuffle/reshape_28/Reshape/shape/4"], "attr": {"T": {"type": "DT_INT32"}, "axis": {"i": "0"}, "N": {"i": "5"}}}, {"name": "StatefulPartitionedCall/deeplabv3plus/conv1d_3/conv1d/Squeeze", "op": "Squeeze", "input": ["StatefulPartitionedCall/deeplabv3plus/conv1d_3/conv1d"], "attr": {"squeeze_dims": {"list": {"i": ["-3"]}}, "T": {"type": "DT_FLOAT"}}}, {"name": "StatefulPartitionedCall/deeplabv3plus/stage2_0/channelshuffle/reshape_28/Reshape", "op": "Reshape", "input": ["StatefulPartitionedCall/deeplabv3plus/stage2_0/concat/concat", "StatefulPartitionedCall/deeplabv3plus/stage2_0/channelshuffle/reshape_28/Reshape/shape"], "attr": {"T": {"type": "DT_FLOAT"}, "Tshape": {"type": "DT_INT32"}}}, {"name": "StatefulPartitionedCall/deeplabv3plus/activation_27/Sigmoid", "op": "Sigmoid", "input": ["StatefulPartitionedCall/deeplabv3plus/conv1d_3/conv1d/Squeeze"], "attr": {"T": {"type": "DT_FLOAT"}}}, {"name": "StatefulPartitionedCall/deeplabv3plus/stage2_0/channelshuffle/transpose", "op": "Transpose", "input": ["StatefulPartitionedCall/deeplabv3plus/stage2_0/channelshuffle/reshape_28/Reshape", "StatefulPartitionedCall/deeplabv3plus/stage2_0/channelshuffle/transpose/perm"], "attr": {"Tperm": {"type": "DT_INT32"}, "T": {"type": "DT_FLOAT"}}}, {"name": "StatefulPartitionedCall/deeplabv3plus/reshape_55/Shape", "op": "Shape", "input": ["StatefulPartitionedCall/deeplabv3plus/activation_27/Sigmoid"], "attr": {"T": {"type": "DT_FLOAT"}, "out_type": {"type": "DT_INT32"}}}, {"name": "StatefulPartitionedCall/deeplabv3plus/stage2_0/channelshuffle/reshape_29/Shape", "op": "Shape", "input": ["StatefulPartitionedCall/deeplabv3plus/stage2_0/channelshuffle/transpose"], "attr": {"T": {"type": "DT_FLOAT"}, "out_type": {"type": "DT_INT32"}}}, {"name": "StatefulPartitionedCall/deeplabv3plus/reshape_55/strided_slice", "op": "StridedSlice", "input": ["StatefulPartitionedCall/deeplabv3plus/reshape_55/Shape", "StatefulPartitionedCall/deeplabv3plus/reshape_55/strided_slice/stack", "StatefulPartitionedCall/deeplabv3plus/reshape_55/strided_slice/stack_1", "StatefulPartitionedCall/deeplabv3plus/reshape_55/strided_slice/stack_2"], "attr": {"T": {"type": "DT_INT32"}, "Index": {"type": "DT_INT32"}, "shrink_axis_mask": {"i": "1"}, "ellipsis_mask": {"i": "0"}, "begin_mask": {"i": "0"}, "new_axis_mask": {"i": "0"}, "end_mask": {"i": "0"}}}, {"name": "StatefulPartitionedCall/deeplabv3plus/stage2_0/channelshuffle/reshape_29/strided_slice", "op": "StridedSlice", "input": ["StatefulPartitionedCall/deeplabv3plus/stage2_0/channelshuffle/reshape_29/Shape", "StatefulPartitionedCall/deeplabv3plus/stage2_0/channelshuffle/reshape_29/strided_slice/stack", "StatefulPartitionedCall/deeplabv3plus/stage2_0/channelshuffle/reshape_29/strided_slice/stack_1", "StatefulPartitionedCall/deeplabv3plus/stage2_0/channelshuffle/reshape_29/strided_slice/stack_2"], "attr": {"T": {"type": "DT_INT32"}, "Index": {"type": "DT_INT32"}, "shrink_axis_mask": {"i": "1"}, "ellipsis_mask": {"i": "0"}, "begin_mask": {"i": "0"}, "new_axis_mask": {"i": "0"}, "end_mask": {"i": "0"}}}, {"name": "StatefulPartitionedCall/deeplabv3plus/reshape_55/Reshape/shape", "op": "Pack", "input": ["StatefulPartitionedCall/deeplabv3plus/reshape_55/strided_slice", "StatefulPartitionedCall/deeplabv3plus/reshape_55/Reshape/shape/1", "StatefulPartitionedCall/deeplabv3plus/reshape_55/Reshape/shape/2", "StatefulPartitionedCall/deeplabv3plus/reshape_55/Reshape/shape/3"], "attr": {"T": {"type": "DT_INT32"}, "axis": {"i": "0"}, "N": {"i": "4"}}}, {"name": "StatefulPartitionedCall/deeplabv3plus/stage2_0/channelshuffle/reshape_29/Reshape/shape", "op": "Pack", "input": ["StatefulPartitionedCall/deeplabv3plus/stage2_0/channelshuffle/reshape_29/strided_slice", "StatefulPartitionedCall/deeplabv3plus/stage2_0/channelshuffle/reshape_29/Reshape/shape/1", "StatefulPartitionedCall/deeplabv3plus/stage2_0/channelshuffle/reshape_29/Reshape/shape/2", "StatefulPartitionedCall/deeplabv3plus/stage2_0/channelshuffle/reshape_29/Reshape/shape/3"], "attr": {"T": {"type": "DT_INT32"}, "axis": {"i": "0"}, "N": {"i": "4"}}}, {"name": "StatefulPartitionedCall/deeplabv3plus/reshape_55/Reshape", "op": "Reshape", "input": ["StatefulPartitionedCall/deeplabv3plus/activation_27/Sigmoid", "StatefulPartitionedCall/deeplabv3plus/reshape_55/Reshape/shape"], "attr": {"T": {"type": "DT_FLOAT"}, "Tshape": {"type": "DT_INT32"}}}, {"name": "StatefulPartitionedCall/deeplabv3plus/stage2_0/channelshuffle/reshape_29/Reshape", "op": "Reshape", "input": ["StatefulPartitionedCall/deeplabv3plus/stage2_0/channelshuffle/transpose", "StatefulPartitionedCall/deeplabv3plus/stage2_0/channelshuffle/reshape_29/Reshape/shape"], "attr": {"T": {"type": "DT_FLOAT"}, "Tshape": {"type": "DT_INT32"}}}, {"name": "StatefulPartitionedCall/deeplabv3plus/multiply_6/mul", "op": "Mul", "input": ["StatefulPartitionedCall/deeplabv3plus/feature_projection0/Conv2D", "StatefulPartitionedCall/deeplabv3plus/reshape_55/Reshape"], "attr": {"T": {"type": "DT_FLOAT"}}}, {"name": "StatefulPartitionedCall/deeplabv3plus/stage2_1/split/split", "op": "Split", "input": ["StatefulPartitionedCall/deeplabv3plus/stage2_1/split/split/split_dim", "StatefulPartitionedCall/deeplabv3plus/stage2_0/channelshuffle/reshape_29/Reshape"], "attr": {"T": {"type": "DT_FLOAT"}, "num_split": {"i": "2"}}}, {"name": "StatefulPartitionedCall/deeplabv3plus/lambda_15/Mean", "op": "Mean", "input": ["StatefulPartitionedCall/deeplabv3plus/multiply_6/mul", "StatefulPartitionedCall/deeplabv3plus/lambda_15/Mean/reduction_indices"], "attr": {"keep_dims": {"b": true}, "Tidx": {"type": "DT_INT32"}, "T": {"type": "DT_FLOAT"}}}, {"name": "StatefulPartitionedCall/deeplabv3plus/lambda_16/Max", "op": "Max", "input": ["StatefulPartitionedCall/deeplabv3plus/multiply_6/mul", "StatefulPartitionedCall/deeplabv3plus/lambda_16/Max/reduction_indices"], "attr": {"keep_dims": {"b": true}, "Tidx": {"type": "DT_INT32"}, "T": {"type": "DT_FLOAT"}}}, {"name": "StatefulPartitionedCall/deeplabv3plus/stage2_1/b2_conv1/re_lu_32/Relu", "op": "_FusedConv2D", "input": ["StatefulPartitionedCall/deeplabv3plus/stage2_1/split/split:1", "StatefulPartitionedCall/deeplabv3plus/stage2_1/b2_conv1/conv1/Conv2D_weights", "StatefulPartitionedCall/deeplabv3plus/stage2_1/b2_conv1/conv1/Conv2D_bn_offset"], "device": "/device:CPU:0", "attr": {"dilations": {"list": {"i": ["1", "1", "1", "1"]}}, "T": {"type": "DT_FLOAT"}, "data_format": {"s": "TkhXQw=="}, "strides": {"list": {"i": ["1", "1", "1", "1"]}}, "explicit_paddings": {"list": {}}, "use_cudnn_on_gpu": {"b": true}, "num_args": {"i": "1"}, "epsilon": {"f": 0.0}, "padding": {"s": "U0FNRQ=="}, "fused_ops": {"list": {"s": ["Qmlhc0FkZA==", "UmVsdQ=="]}}}}, {"name": "StatefulPartitionedCall/deeplabv3plus/concatenate_14/concat", "op": "ConcatV2", "input": ["StatefulPartitionedCall/deeplabv3plus/lambda_15/Mean", "StatefulPartitionedCall/deeplabv3plus/lambda_16/Max", "StatefulPartitionedCall/deeplabv3plus/concatenate_14/concat/axis"], "attr": {"Tidx": {"type": "DT_INT32"}, "T": {"type": "DT_FLOAT"}, "N": {"i": "2"}}}, {"name": "StatefulPartitionedCall/deeplabv3plus/stage2_1/b2_dw1/dw1/depthwise", "op": "FusedDepthwiseConv2dNative", "input": ["StatefulPartitionedCall/deeplabv3plus/stage2_1/b2_conv1/re_lu_32/Relu", "StatefulPartitionedCall/deeplabv3plus/stage2_1/b2_dw1/dw1/depthwise_weights", "StatefulPartitionedCall/deeplabv3plus/stage2_1/b2_dw1/dw1/depthwise_bn_offset"], "attr": {"dilations": {"list": {"i": ["1", "1", "1", "1"]}}, "T": {"type": "DT_FLOAT"}, "data_format": {"s": "TkhXQw=="}, "strides": {"list": {"i": ["1", "1", "1", "1"]}}, "explicit_paddings": {"list": {}}, "padding": {"s": "U0FNRQ=="}, "num_args": {"i": "1"}, "fused_ops": {"list": {"s": ["Qmlhc0FkZA=="]}}}}, {"name": "StatefulPartitionedCall/deeplabv3plus/conv2d_5/Conv2D", "op": "Conv2D", "input": ["StatefulPartitionedCall/deeplabv3plus/concatenate_14/concat", "StatefulPartitionedCall/deeplabv3plus/conv2d_5/Conv2D/ReadVariableOp"], "device": "/device:CPU:0", "attr": {"dilations": {"list": {"i": ["1", "1", "1", "1"]}}, "T": {"type": "DT_FLOAT"}, "data_format": {"s": "TkhXQw=="}, "strides": {"list": {"i": ["1", "1", "1", "1"]}}, "use_cudnn_on_gpu": {"b": true}, "explicit_paddings": {"list": {}}, "padding": {"s": "U0FNRQ=="}}}, {"name": "StatefulPartitionedCall/deeplabv3plus/activation_28/Sigmoid", "op": "Sigmoid", "input": ["StatefulPartitionedCall/deeplabv3plus/conv2d_5/Conv2D"], "attr": {"T": {"type": "DT_FLOAT"}}}, {"name": "StatefulPartitionedCall/deeplabv3plus/stage2_1/b2_conv2/re_lu_33/Relu", "op": "_FusedConv2D", "input": ["StatefulPartitionedCall/deeplabv3plus/stage2_1/b2_dw1/dw1/depthwise", "StatefulPartitionedCall/deeplabv3plus/stage2_1/b2_conv2/conv1/Conv2D_weights", "StatefulPartitionedCall/deeplabv3plus/stage2_1/b2_conv2/conv1/Conv2D_bn_offset"], "device": "/device:CPU:0", "attr": {"dilations": {"list": {"i": ["1", "1", "1", "1"]}}, "T": {"type": "DT_FLOAT"}, "data_format": {"s": "TkhXQw=="}, "strides": {"list": {"i": ["1", "1", "1", "1"]}}, "explicit_paddings": {"list": {}}, "use_cudnn_on_gpu": {"b": true}, "num_args": {"i": "1"}, "epsilon": {"f": 0.0}, "padding": {"s": "U0FNRQ=="}, "fused_ops": {"list": {"s": ["Qmlhc0FkZA==", "UmVsdQ=="]}}}}, {"name": "StatefulPartitionedCall/deeplabv3plus/multiply_7/mul", "op": "Mul", "input": ["StatefulPartitionedCall/deeplabv3plus/feature_projection0_BN/FusedBatchNormV3/Scaled", "StatefulPartitionedCall/deeplabv3plus/activation_28/Sigmoid"], "attr": {"_grappler_ArithmeticOptimizer_MinimizeBroadcasts": {"b": true}, "T": {"type": "DT_FLOAT"}}}, {"name": "StatefulPartitionedCall/deeplabv3plus/stage2_1/concat/concat", "op": "ConcatV2", "input": ["StatefulPartitionedCall/deeplabv3plus/stage2_1/split/split", "StatefulPartitionedCall/deeplabv3plus/stage2_1/b2_conv2/re_lu_33/Relu", "StatefulPartitionedCall/deeplabv3plus/stage2_1/concat/concat/axis"], "attr": {"Tidx": {"type": "DT_INT32"}, "T": {"type": "DT_FLOAT"}, "N": {"i": "2"}}}, {"name": "StatefulPartitionedCall/deeplabv3plus/feature_projection0_BN/FusedBatchNormV3/Mul", "op": "Mul", "input": ["StatefulPartitionedCall/deeplabv3plus/multiply_7/mul", "StatefulPartitionedCall/deeplabv3plus/multiply_6/mul"], "attr": {"_grappler_ArithmeticOptimizer_MinimizeBroadcasts": {"b": true}, "T": {"type": "DT_FLOAT"}}}, {"name": "StatefulPartitionedCall/deeplabv3plus/stage2_1/channelshuffle/reshape_30/Shape", "op": "Shape", "input": ["StatefulPartitionedCall/deeplabv3plus/stage2_1/concat/concat"], "attr": {"T": {"type": "DT_FLOAT"}, "out_type": {"type": "DT_INT32"}}}, {"name": "StatefulPartitionedCall/deeplabv3plus/feature_projection0_BN/FusedBatchNormV3", "op": "Add", "input": ["StatefulPartitionedCall/deeplabv3plus/feature_projection0_BN/FusedBatchNormV3/Mul", "StatefulPartitionedCall/deeplabv3plus/feature_projection0_BN/FusedBatchNormV3/Offset"], "attr": {"T": {"type": "DT_FLOAT"}}}, {"name": "StatefulPartitionedCall/deeplabv3plus/stage2_1/channelshuffle/reshape_30/strided_slice", "op": "StridedSlice", "input": ["StatefulPartitionedCall/deeplabv3plus/stage2_1/channelshuffle/reshape_30/Shape", "StatefulPartitionedCall/deeplabv3plus/stage2_1/channelshuffle/reshape_30/strided_slice/stack", "StatefulPartitionedCall/deeplabv3plus/stage2_1/channelshuffle/reshape_30/strided_slice/stack_1", "StatefulPartitionedCall/deeplabv3plus/stage2_1/channelshuffle/reshape_30/strided_slice/stack_2"], "attr": {"T": {"type": "DT_INT32"}, "Index": {"type": "DT_INT32"}, "shrink_axis_mask": {"i": "1"}, "ellipsis_mask": {"i": "0"}, "begin_mask": {"i": "0"}, "new_axis_mask": {"i": "0"}, "end_mask": {"i": "0"}}}, {"name": "StatefulPartitionedCall/deeplabv3plus/activation_29/Relu", "op": "Relu", "input": ["StatefulPartitionedCall/deeplabv3plus/feature_projection0_BN/FusedBatchNormV3"], "attr": {"T": {"type": "DT_FLOAT"}}}, {"name": "StatefulPartitionedCall/deeplabv3plus/stage2_1/channelshuffle/reshape_30/Reshape/shape", "op": "Pack", "input": ["StatefulPartitionedCall/deeplabv3plus/stage2_1/channelshuffle/reshape_30/strided_slice", "StatefulPartitionedCall/deeplabv3plus/stage2_1/channelshuffle/reshape_30/Reshape/shape/1", "StatefulPartitionedCall/deeplabv3plus/stage2_1/channelshuffle/reshape_30/Reshape/shape/2", "StatefulPartitionedCall/deeplabv3plus/stage2_1/channelshuffle/reshape_30/Reshape/shape/3", "StatefulPartitionedCall/deeplabv3plus/stage2_1/channelshuffle/reshape_30/Reshape/shape/4"], "attr": {"T": {"type": "DT_INT32"}, "axis": {"i": "0"}, "N": {"i": "5"}}}, {"name": "StatefulPartitionedCall/deeplabv3plus/stage2_1/channelshuffle/reshape_30/Reshape", "op": "Reshape", "input": ["StatefulPartitionedCall/deeplabv3plus/stage2_1/concat/concat", "StatefulPartitionedCall/deeplabv3plus/stage2_1/channelshuffle/reshape_30/Reshape/shape"], "attr": {"T": {"type": "DT_FLOAT"}, "Tshape": {"type": "DT_INT32"}}}, {"name": "StatefulPartitionedCall/deeplabv3plus/stage2_1/channelshuffle/transpose", "op": "Transpose", "input": ["StatefulPartitionedCall/deeplabv3plus/stage2_1/channelshuffle/reshape_30/Reshape", "StatefulPartitionedCall/deeplabv3plus/stage2_1/channelshuffle/transpose/perm"], "attr": {"Tperm": {"type": "DT_INT32"}, "T": {"type": "DT_FLOAT"}}}, {"name": "StatefulPartitionedCall/deeplabv3plus/stage2_1/channelshuffle/reshape_31/Shape", "op": "Shape", "input": ["StatefulPartitionedCall/deeplabv3plus/stage2_1/channelshuffle/transpose"], "attr": {"T": {"type": "DT_FLOAT"}, "out_type": {"type": "DT_INT32"}}}, {"name": "StatefulPartitionedCall/deeplabv3plus/stage2_1/channelshuffle/reshape_31/strided_slice", "op": "StridedSlice", "input": ["StatefulPartitionedCall/deeplabv3plus/stage2_1/channelshuffle/reshape_31/Shape", "StatefulPartitionedCall/deeplabv3plus/stage2_1/channelshuffle/reshape_31/strided_slice/stack", "StatefulPartitionedCall/deeplabv3plus/stage2_1/channelshuffle/reshape_31/strided_slice/stack_1", "StatefulPartitionedCall/deeplabv3plus/stage2_1/channelshuffle/reshape_31/strided_slice/stack_2"], "attr": {"T": {"type": "DT_INT32"}, "Index": {"type": "DT_INT32"}, "shrink_axis_mask": {"i": "1"}, "ellipsis_mask": {"i": "0"}, "begin_mask": {"i": "0"}, "new_axis_mask": {"i": "0"}, "end_mask": {"i": "0"}}}, {"name": "StatefulPartitionedCall/deeplabv3plus/stage2_1/channelshuffle/reshape_31/Reshape/shape", "op": "Pack", "input": ["StatefulPartitionedCall/deeplabv3plus/stage2_1/channelshuffle/reshape_31/strided_slice", "StatefulPartitionedCall/deeplabv3plus/stage2_1/channelshuffle/reshape_31/Reshape/shape/1", "StatefulPartitionedCall/deeplabv3plus/stage2_1/channelshuffle/reshape_31/Reshape/shape/2", "StatefulPartitionedCall/deeplabv3plus/stage2_1/channelshuffle/reshape_31/Reshape/shape/3"], "attr": {"T": {"type": "DT_INT32"}, "axis": {"i": "0"}, "N": {"i": "4"}}}, {"name": "StatefulPartitionedCall/deeplabv3plus/stage2_1/channelshuffle/reshape_31/Reshape", "op": "Reshape", "input": ["StatefulPartitionedCall/deeplabv3plus/stage2_1/channelshuffle/transpose", "StatefulPartitionedCall/deeplabv3plus/stage2_1/channelshuffle/reshape_31/Reshape/shape"], "attr": {"T": {"type": "DT_FLOAT"}, "Tshape": {"type": "DT_INT32"}}}, {"name": "StatefulPartitionedCall/deeplabv3plus/stage2_2/split/split", "op": "Split", "input": ["StatefulPartitionedCall/deeplabv3plus/stage2_2/split/split/split_dim", "StatefulPartitionedCall/deeplabv3plus/stage2_1/channelshuffle/reshape_31/Reshape"], "attr": {"T": {"type": "DT_FLOAT"}, "num_split": {"i": "2"}}}, {"name": "StatefulPartitionedCall/deeplabv3plus/stage2_2/b2_conv1/re_lu_34/Relu", "op": "_FusedConv2D", "input": ["StatefulPartitionedCall/deeplabv3plus/stage2_2/split/split:1", "StatefulPartitionedCall/deeplabv3plus/stage2_2/b2_conv1/conv1/Conv2D_weights", "StatefulPartitionedCall/deeplabv3plus/stage2_2/b2_conv1/conv1/Conv2D_bn_offset"], "device": "/device:CPU:0", "attr": {"dilations": {"list": {"i": ["1", "1", "1", "1"]}}, "T": {"type": "DT_FLOAT"}, "data_format": {"s": "TkhXQw=="}, "strides": {"list": {"i": ["1", "1", "1", "1"]}}, "explicit_paddings": {"list": {}}, "use_cudnn_on_gpu": {"b": true}, "num_args": {"i": "1"}, "epsilon": {"f": 0.0}, "padding": {"s": "U0FNRQ=="}, "fused_ops": {"list": {"s": ["Qmlhc0FkZA==", "UmVsdQ=="]}}}}, {"name": "StatefulPartitionedCall/deeplabv3plus/stage2_2/b2_dw1/dw1/depthwise", "op": "FusedDepthwiseConv2dNative", "input": ["StatefulPartitionedCall/deeplabv3plus/stage2_2/b2_conv1/re_lu_34/Relu", "StatefulPartitionedCall/deeplabv3plus/stage2_2/b2_dw1/dw1/depthwise_weights", "StatefulPartitionedCall/deeplabv3plus/stage2_2/b2_dw1/dw1/depthwise_bn_offset"], "attr": {"dilations": {"list": {"i": ["1", "1", "1", "1"]}}, "T": {"type": "DT_FLOAT"}, "data_format": {"s": "TkhXQw=="}, "strides": {"list": {"i": ["1", "1", "1", "1"]}}, "explicit_paddings": {"list": {}}, "padding": {"s": "U0FNRQ=="}, "num_args": {"i": "1"}, "fused_ops": {"list": {"s": ["Qmlhc0FkZA=="]}}}}, {"name": "StatefulPartitionedCall/deeplabv3plus/stage2_2/b2_conv2/re_lu_35/Relu", "op": "_FusedConv2D", "input": ["StatefulPartitionedCall/deeplabv3plus/stage2_2/b2_dw1/dw1/depthwise", "StatefulPartitionedCall/deeplabv3plus/stage2_2/b2_conv2/conv1/Conv2D_weights", "StatefulPartitionedCall/deeplabv3plus/stage2_2/b2_conv2/conv1/Conv2D_bn_offset"], "device": "/device:CPU:0", "attr": {"dilations": {"list": {"i": ["1", "1", "1", "1"]}}, "T": {"type": "DT_FLOAT"}, "data_format": {"s": "TkhXQw=="}, "strides": {"list": {"i": ["1", "1", "1", "1"]}}, "explicit_paddings": {"list": {}}, "use_cudnn_on_gpu": {"b": true}, "num_args": {"i": "1"}, "epsilon": {"f": 0.0}, "padding": {"s": "U0FNRQ=="}, "fused_ops": {"list": {"s": ["Qmlhc0FkZA==", "UmVsdQ=="]}}}}, {"name": "StatefulPartitionedCall/deeplabv3plus/stage2_2/concat/concat", "op": "ConcatV2", "input": ["StatefulPartitionedCall/deeplabv3plus/stage2_2/split/split", "StatefulPartitionedCall/deeplabv3plus/stage2_2/b2_conv2/re_lu_35/Relu", "StatefulPartitionedCall/deeplabv3plus/stage2_2/concat/concat/axis"], "attr": {"Tidx": {"type": "DT_INT32"}, "T": {"type": "DT_FLOAT"}, "N": {"i": "2"}}}, {"name": "StatefulPartitionedCall/deeplabv3plus/stage2_2/channelshuffle/reshape_32/Shape", "op": "Shape", "input": ["StatefulPartitionedCall/deeplabv3plus/stage2_2/concat/concat"], "attr": {"T": {"type": "DT_FLOAT"}, "out_type": {"type": "DT_INT32"}}}, {"name": "StatefulPartitionedCall/deeplabv3plus/stage2_2/channelshuffle/reshape_32/strided_slice", "op": "StridedSlice", "input": ["StatefulPartitionedCall/deeplabv3plus/stage2_2/channelshuffle/reshape_32/Shape", "StatefulPartitionedCall/deeplabv3plus/stage2_2/channelshuffle/reshape_32/strided_slice/stack", "StatefulPartitionedCall/deeplabv3plus/stage2_2/channelshuffle/reshape_32/strided_slice/stack_1", "StatefulPartitionedCall/deeplabv3plus/stage2_2/channelshuffle/reshape_32/strided_slice/stack_2"], "attr": {"T": {"type": "DT_INT32"}, "Index": {"type": "DT_INT32"}, "shrink_axis_mask": {"i": "1"}, "ellipsis_mask": {"i": "0"}, "begin_mask": {"i": "0"}, "new_axis_mask": {"i": "0"}, "end_mask": {"i": "0"}}}, {"name": "StatefulPartitionedCall/deeplabv3plus/stage2_2/channelshuffle/reshape_32/Reshape/shape", "op": "Pack", "input": ["StatefulPartitionedCall/deeplabv3plus/stage2_2/channelshuffle/reshape_32/strided_slice", "StatefulPartitionedCall/deeplabv3plus/stage2_2/channelshuffle/reshape_32/Reshape/shape/1", "StatefulPartitionedCall/deeplabv3plus/stage2_2/channelshuffle/reshape_32/Reshape/shape/2", "StatefulPartitionedCall/deeplabv3plus/stage2_2/channelshuffle/reshape_32/Reshape/shape/3", "StatefulPartitionedCall/deeplabv3plus/stage2_2/channelshuffle/reshape_32/Reshape/shape/4"], "attr": {"T": {"type": "DT_INT32"}, "axis": {"i": "0"}, "N": {"i": "5"}}}, {"name": "StatefulPartitionedCall/deeplabv3plus/stage2_2/channelshuffle/reshape_32/Reshape", "op": "Reshape", "input": ["StatefulPartitionedCall/deeplabv3plus/stage2_2/concat/concat", "StatefulPartitionedCall/deeplabv3plus/stage2_2/channelshuffle/reshape_32/Reshape/shape"], "attr": {"T": {"type": "DT_FLOAT"}, "Tshape": {"type": "DT_INT32"}}}, {"name": "StatefulPartitionedCall/deeplabv3plus/stage2_2/channelshuffle/transpose", "op": "Transpose", "input": ["StatefulPartitionedCall/deeplabv3plus/stage2_2/channelshuffle/reshape_32/Reshape", "StatefulPartitionedCall/deeplabv3plus/stage2_2/channelshuffle/transpose/perm"], "attr": {"Tperm": {"type": "DT_INT32"}, "T": {"type": "DT_FLOAT"}}}, {"name": "StatefulPartitionedCall/deeplabv3plus/stage2_2/channelshuffle/reshape_33/Shape", "op": "Shape", "input": ["StatefulPartitionedCall/deeplabv3plus/stage2_2/channelshuffle/transpose"], "attr": {"T": {"type": "DT_FLOAT"}, "out_type": {"type": "DT_INT32"}}}, {"name": "StatefulPartitionedCall/deeplabv3plus/stage2_2/channelshuffle/reshape_33/strided_slice", "op": "StridedSlice", "input": ["StatefulPartitionedCall/deeplabv3plus/stage2_2/channelshuffle/reshape_33/Shape", "StatefulPartitionedCall/deeplabv3plus/stage2_2/channelshuffle/reshape_33/strided_slice/stack", "StatefulPartitionedCall/deeplabv3plus/stage2_2/channelshuffle/reshape_33/strided_slice/stack_1", "StatefulPartitionedCall/deeplabv3plus/stage2_2/channelshuffle/reshape_33/strided_slice/stack_2"], "attr": {"T": {"type": "DT_INT32"}, "Index": {"type": "DT_INT32"}, "shrink_axis_mask": {"i": "1"}, "ellipsis_mask": {"i": "0"}, "begin_mask": {"i": "0"}, "new_axis_mask": {"i": "0"}, "end_mask": {"i": "0"}}}, {"name": "StatefulPartitionedCall/deeplabv3plus/stage2_2/channelshuffle/reshape_33/Reshape/shape", "op": "Pack", "input": ["StatefulPartitionedCall/deeplabv3plus/stage2_2/channelshuffle/reshape_33/strided_slice", "StatefulPartitionedCall/deeplabv3plus/stage2_2/channelshuffle/reshape_33/Reshape/shape/1", "StatefulPartitionedCall/deeplabv3plus/stage2_2/channelshuffle/reshape_33/Reshape/shape/2", "StatefulPartitionedCall/deeplabv3plus/stage2_2/channelshuffle/reshape_33/Reshape/shape/3"], "attr": {"T": {"type": "DT_INT32"}, "axis": {"i": "0"}, "N": {"i": "4"}}}, {"name": "StatefulPartitionedCall/deeplabv3plus/stage2_2/channelshuffle/reshape_33/Reshape", "op": "Reshape", "input": ["StatefulPartitionedCall/deeplabv3plus/stage2_2/channelshuffle/transpose", "StatefulPartitionedCall/deeplabv3plus/stage2_2/channelshuffle/reshape_33/Reshape/shape"], "attr": {"T": {"type": "DT_FLOAT"}, "Tshape": {"type": "DT_INT32"}}}, {"name": "StatefulPartitionedCall/deeplabv3plus/stage2_3/split/split", "op": "Split", "input": ["StatefulPartitionedCall/deeplabv3plus/stage2_3/split/split/split_dim", "StatefulPartitionedCall/deeplabv3plus/stage2_2/channelshuffle/reshape_33/Reshape"], "attr": {"T": {"type": "DT_FLOAT"}, "num_split": {"i": "2"}}}, {"name": "StatefulPartitionedCall/deeplabv3plus/stage2_3/b2_conv1/re_lu_36/Relu", "op": "_FusedConv2D", "input": ["StatefulPartitionedCall/deeplabv3plus/stage2_3/split/split:1", "StatefulPartitionedCall/deeplabv3plus/stage2_3/b2_conv1/conv1/Conv2D_weights", "StatefulPartitionedCall/deeplabv3plus/stage2_3/b2_conv1/conv1/Conv2D_bn_offset"], "device": "/device:CPU:0", "attr": {"dilations": {"list": {"i": ["1", "1", "1", "1"]}}, "T": {"type": "DT_FLOAT"}, "data_format": {"s": "TkhXQw=="}, "strides": {"list": {"i": ["1", "1", "1", "1"]}}, "explicit_paddings": {"list": {}}, "use_cudnn_on_gpu": {"b": true}, "num_args": {"i": "1"}, "epsilon": {"f": 0.0}, "padding": {"s": "U0FNRQ=="}, "fused_ops": {"list": {"s": ["Qmlhc0FkZA==", "UmVsdQ=="]}}}}, {"name": "StatefulPartitionedCall/deeplabv3plus/stage2_3/b2_dw1/dw1/depthwise", "op": "FusedDepthwiseConv2dNative", "input": ["StatefulPartitionedCall/deeplabv3plus/stage2_3/b2_conv1/re_lu_36/Relu", "StatefulPartitionedCall/deeplabv3plus/stage2_3/b2_dw1/dw1/depthwise_weights", "StatefulPartitionedCall/deeplabv3plus/stage2_3/b2_dw1/dw1/depthwise_bn_offset"], "attr": {"dilations": {"list": {"i": ["1", "1", "1", "1"]}}, "T": {"type": "DT_FLOAT"}, "data_format": {"s": "TkhXQw=="}, "strides": {"list": {"i": ["1", "1", "1", "1"]}}, "explicit_paddings": {"list": {}}, "padding": {"s": "U0FNRQ=="}, "num_args": {"i": "1"}, "fused_ops": {"list": {"s": ["Qmlhc0FkZA=="]}}}}, {"name": "StatefulPartitionedCall/deeplabv3plus/stage2_3/b2_conv2/re_lu_37/Relu", "op": "_FusedConv2D", "input": ["StatefulPartitionedCall/deeplabv3plus/stage2_3/b2_dw1/dw1/depthwise", "StatefulPartitionedCall/deeplabv3plus/stage2_3/b2_conv2/conv1/Conv2D_weights", "StatefulPartitionedCall/deeplabv3plus/stage2_3/b2_conv2/conv1/Conv2D_bn_offset"], "device": "/device:CPU:0", "attr": {"dilations": {"list": {"i": ["1", "1", "1", "1"]}}, "T": {"type": "DT_FLOAT"}, "data_format": {"s": "TkhXQw=="}, "strides": {"list": {"i": ["1", "1", "1", "1"]}}, "explicit_paddings": {"list": {}}, "use_cudnn_on_gpu": {"b": true}, "num_args": {"i": "1"}, "epsilon": {"f": 0.0}, "padding": {"s": "U0FNRQ=="}, "fused_ops": {"list": {"s": ["Qmlhc0FkZA==", "UmVsdQ=="]}}}}, {"name": "StatefulPartitionedCall/deeplabv3plus/stage2_3/concat/concat", "op": "ConcatV2", "input": ["StatefulPartitionedCall/deeplabv3plus/stage2_3/split/split", "StatefulPartitionedCall/deeplabv3plus/stage2_3/b2_conv2/re_lu_37/Relu", "StatefulPartitionedCall/deeplabv3plus/stage2_3/concat/concat/axis"], "attr": {"Tidx": {"type": "DT_INT32"}, "T": {"type": "DT_FLOAT"}, "N": {"i": "2"}}}, {"name": "StatefulPartitionedCall/deeplabv3plus/stage2_3/channelshuffle/reshape_34/Shape", "op": "Shape", "input": ["StatefulPartitionedCall/deeplabv3plus/stage2_3/concat/concat"], "attr": {"T": {"type": "DT_FLOAT"}, "out_type": {"type": "DT_INT32"}}}, {"name": "StatefulPartitionedCall/deeplabv3plus/stage2_3/channelshuffle/reshape_34/strided_slice", "op": "StridedSlice", "input": ["StatefulPartitionedCall/deeplabv3plus/stage2_3/channelshuffle/reshape_34/Shape", "StatefulPartitionedCall/deeplabv3plus/stage2_3/channelshuffle/reshape_34/strided_slice/stack", "StatefulPartitionedCall/deeplabv3plus/stage2_3/channelshuffle/reshape_34/strided_slice/stack_1", "StatefulPartitionedCall/deeplabv3plus/stage2_3/channelshuffle/reshape_34/strided_slice/stack_2"], "attr": {"T": {"type": "DT_INT32"}, "Index": {"type": "DT_INT32"}, "shrink_axis_mask": {"i": "1"}, "ellipsis_mask": {"i": "0"}, "begin_mask": {"i": "0"}, "new_axis_mask": {"i": "0"}, "end_mask": {"i": "0"}}}, {"name": "StatefulPartitionedCall/deeplabv3plus/stage2_3/channelshuffle/reshape_34/Reshape/shape", "op": "Pack", "input": ["StatefulPartitionedCall/deeplabv3plus/stage2_3/channelshuffle/reshape_34/strided_slice", "StatefulPartitionedCall/deeplabv3plus/stage2_3/channelshuffle/reshape_34/Reshape/shape/1", "StatefulPartitionedCall/deeplabv3plus/stage2_3/channelshuffle/reshape_34/Reshape/shape/2", "StatefulPartitionedCall/deeplabv3plus/stage2_3/channelshuffle/reshape_34/Reshape/shape/3", "StatefulPartitionedCall/deeplabv3plus/stage2_3/channelshuffle/reshape_34/Reshape/shape/4"], "attr": {"T": {"type": "DT_INT32"}, "axis": {"i": "0"}, "N": {"i": "5"}}}, {"name": "StatefulPartitionedCall/deeplabv3plus/stage2_3/channelshuffle/reshape_34/Reshape", "op": "Reshape", "input": ["StatefulPartitionedCall/deeplabv3plus/stage2_3/concat/concat", "StatefulPartitionedCall/deeplabv3plus/stage2_3/channelshuffle/reshape_34/Reshape/shape"], "attr": {"T": {"type": "DT_FLOAT"}, "Tshape": {"type": "DT_INT32"}}}, {"name": "StatefulPartitionedCall/deeplabv3plus/stage2_3/channelshuffle/transpose", "op": "Transpose", "input": ["StatefulPartitionedCall/deeplabv3plus/stage2_3/channelshuffle/reshape_34/Reshape", "StatefulPartitionedCall/deeplabv3plus/stage2_3/channelshuffle/transpose/perm"], "attr": {"Tperm": {"type": "DT_INT32"}, "T": {"type": "DT_FLOAT"}}}, {"name": "StatefulPartitionedCall/deeplabv3plus/stage2_3/channelshuffle/reshape_35/Shape", "op": "Shape", "input": ["StatefulPartitionedCall/deeplabv3plus/stage2_3/channelshuffle/transpose"], "attr": {"T": {"type": "DT_FLOAT"}, "out_type": {"type": "DT_INT32"}}}, {"name": "StatefulPartitionedCall/deeplabv3plus/stage2_3/channelshuffle/reshape_35/strided_slice", "op": "StridedSlice", "input": ["StatefulPartitionedCall/deeplabv3plus/stage2_3/channelshuffle/reshape_35/Shape", "StatefulPartitionedCall/deeplabv3plus/stage2_3/channelshuffle/reshape_35/strided_slice/stack", "StatefulPartitionedCall/deeplabv3plus/stage2_3/channelshuffle/reshape_35/strided_slice/stack_1", "StatefulPartitionedCall/deeplabv3plus/stage2_3/channelshuffle/reshape_35/strided_slice/stack_2"], "attr": {"T": {"type": "DT_INT32"}, "Index": {"type": "DT_INT32"}, "shrink_axis_mask": {"i": "1"}, "ellipsis_mask": {"i": "0"}, "begin_mask": {"i": "0"}, "new_axis_mask": {"i": "0"}, "end_mask": {"i": "0"}}}, {"name": "StatefulPartitionedCall/deeplabv3plus/stage2_3/channelshuffle/reshape_35/Reshape/shape", "op": "Pack", "input": ["StatefulPartitionedCall/deeplabv3plus/stage2_3/channelshuffle/reshape_35/strided_slice", "StatefulPartitionedCall/deeplabv3plus/stage2_3/channelshuffle/reshape_35/Reshape/shape/1", "StatefulPartitionedCall/deeplabv3plus/stage2_3/channelshuffle/reshape_35/Reshape/shape/2", "StatefulPartitionedCall/deeplabv3plus/stage2_3/channelshuffle/reshape_35/Reshape/shape/3"], "attr": {"T": {"type": "DT_INT32"}, "axis": {"i": "0"}, "N": {"i": "4"}}}, {"name": "StatefulPartitionedCall/deeplabv3plus/stage2_3/channelshuffle/reshape_35/Reshape", "op": "Reshape", "input": ["StatefulPartitionedCall/deeplabv3plus/stage2_3/channelshuffle/transpose", "StatefulPartitionedCall/deeplabv3plus/stage2_3/channelshuffle/reshape_35/Reshape/shape"], "attr": {"T": {"type": "DT_FLOAT"}, "Tshape": {"type": "DT_INT32"}}}, {"name": "StatefulPartitionedCall/deeplabv3plus/stage3_0/b1_dw1/dw1/depthwise", "op": "FusedDepthwiseConv2dNative", "input": ["StatefulPartitionedCall/deeplabv3plus/stage2_3/channelshuffle/reshape_35/Reshape", "StatefulPartitionedCall/deeplabv3plus/stage3_0/b1_dw1/dw1/depthwise_weights", "StatefulPartitionedCall/deeplabv3plus/stage3_0/b1_dw1/dw1/depthwise_bn_offset"], "attr": {"dilations": {"list": {"i": ["1", "1", "1", "1"]}}, "T": {"type": "DT_FLOAT"}, "data_format": {"s": "TkhXQw=="}, "strides": {"list": {"i": ["1", "2", "2", "1"]}}, "explicit_paddings": {"list": {}}, "padding": {"s": "U0FNRQ=="}, "num_args": {"i": "1"}, "fused_ops": {"list": {"s": ["Qmlhc0FkZA=="]}}}}, {"name": "StatefulPartitionedCall/deeplabv3plus/stage3_0/b2_conv1/re_lu_39/Relu", "op": "_FusedConv2D", "input": ["StatefulPartitionedCall/deeplabv3plus/stage2_3/channelshuffle/reshape_35/Reshape", "StatefulPartitionedCall/deeplabv3plus/stage3_0/b2_conv1/conv1/Conv2D_weights", "StatefulPartitionedCall/deeplabv3plus/stage3_0/b2_conv1/conv1/Conv2D_bn_offset"], "device": "/device:CPU:0", "attr": {"dilations": {"list": {"i": ["1", "1", "1", "1"]}}, "T": {"type": "DT_FLOAT"}, "data_format": {"s": "TkhXQw=="}, "strides": {"list": {"i": ["1", "1", "1", "1"]}}, "explicit_paddings": {"list": {}}, "use_cudnn_on_gpu": {"b": true}, "num_args": {"i": "1"}, "epsilon": {"f": 0.0}, "padding": {"s": "U0FNRQ=="}, "fused_ops": {"list": {"s": ["Qmlhc0FkZA==", "UmVsdQ=="]}}}}, {"name": "StatefulPartitionedCall/deeplabv3plus/stage3_0/b2_dw1/dw1/depthwise", "op": "FusedDepthwiseConv2dNative", "input": ["StatefulPartitionedCall/deeplabv3plus/stage3_0/b2_conv1/re_lu_39/Relu", "StatefulPartitionedCall/deeplabv3plus/stage3_0/b2_dw1/dw1/depthwise_weights", "StatefulPartitionedCall/deeplabv3plus/stage3_0/b2_dw1/dw1/depthwise_bn_offset"], "attr": {"dilations": {"list": {"i": ["1", "1", "1", "1"]}}, "T": {"type": "DT_FLOAT"}, "data_format": {"s": "TkhXQw=="}, "strides": {"list": {"i": ["1", "2", "2", "1"]}}, "explicit_paddings": {"list": {}}, "padding": {"s": "U0FNRQ=="}, "num_args": {"i": "1"}, "fused_ops": {"list": {"s": ["Qmlhc0FkZA=="]}}}}, {"name": "StatefulPartitionedCall/deeplabv3plus/stage3_0/b1_conv1/re_lu_38/Relu", "op": "_FusedConv2D", "input": ["StatefulPartitionedCall/deeplabv3plus/stage3_0/b1_dw1/dw1/depthwise", "StatefulPartitionedCall/deeplabv3plus/stage3_0/b1_conv1/conv1/Conv2D_weights", "StatefulPartitionedCall/deeplabv3plus/stage3_0/b1_conv1/conv1/Conv2D_bn_offset"], "device": "/device:CPU:0", "attr": {"dilations": {"list": {"i": ["1", "1", "1", "1"]}}, "T": {"type": "DT_FLOAT"}, "data_format": {"s": "TkhXQw=="}, "strides": {"list": {"i": ["1", "1", "1", "1"]}}, "explicit_paddings": {"list": {}}, "use_cudnn_on_gpu": {"b": true}, "num_args": {"i": "1"}, "epsilon": {"f": 0.0}, "padding": {"s": "U0FNRQ=="}, "fused_ops": {"list": {"s": ["Qmlhc0FkZA==", "UmVsdQ=="]}}}}, {"name": "StatefulPartitionedCall/deeplabv3plus/stage3_0/b2_conv2/re_lu_40/Relu", "op": "_FusedConv2D", "input": ["StatefulPartitionedCall/deeplabv3plus/stage3_0/b2_dw1/dw1/depthwise", "StatefulPartitionedCall/deeplabv3plus/stage3_0/b2_conv2/conv1/Conv2D_weights", "StatefulPartitionedCall/deeplabv3plus/stage3_0/b2_conv2/conv1/Conv2D_bn_offset"], "device": "/device:CPU:0", "attr": {"dilations": {"list": {"i": ["1", "1", "1", "1"]}}, "T": {"type": "DT_FLOAT"}, "data_format": {"s": "TkhXQw=="}, "strides": {"list": {"i": ["1", "1", "1", "1"]}}, "explicit_paddings": {"list": {}}, "use_cudnn_on_gpu": {"b": true}, "num_args": {"i": "1"}, "epsilon": {"f": 0.0}, "padding": {"s": "U0FNRQ=="}, "fused_ops": {"list": {"s": ["Qmlhc0FkZA==", "UmVsdQ=="]}}}}, {"name": "StatefulPartitionedCall/deeplabv3plus/stage3_0/concat/concat", "op": "ConcatV2", "input": ["StatefulPartitionedCall/deeplabv3plus/stage3_0/b1_conv1/re_lu_38/Relu", "StatefulPartitionedCall/deeplabv3plus/stage3_0/b2_conv2/re_lu_40/Relu", "StatefulPartitionedCall/deeplabv3plus/stage3_0/concat/concat/axis"], "attr": {"Tidx": {"type": "DT_INT32"}, "T": {"type": "DT_FLOAT"}, "N": {"i": "2"}}}, {"name": "StatefulPartitionedCall/deeplabv3plus/stage3_0/channelshuffle/reshape_36/Shape", "op": "Shape", "input": ["StatefulPartitionedCall/deeplabv3plus/stage3_0/concat/concat"], "attr": {"T": {"type": "DT_FLOAT"}, "out_type": {"type": "DT_INT32"}}}, {"name": "StatefulPartitionedCall/deeplabv3plus/stage3_0/channelshuffle/reshape_36/strided_slice", "op": "StridedSlice", "input": ["StatefulPartitionedCall/deeplabv3plus/stage3_0/channelshuffle/reshape_36/Shape", "StatefulPartitionedCall/deeplabv3plus/stage3_0/channelshuffle/reshape_36/strided_slice/stack", "StatefulPartitionedCall/deeplabv3plus/stage3_0/channelshuffle/reshape_36/strided_slice/stack_1", "StatefulPartitionedCall/deeplabv3plus/stage3_0/channelshuffle/reshape_36/strided_slice/stack_2"], "attr": {"T": {"type": "DT_INT32"}, "Index": {"type": "DT_INT32"}, "shrink_axis_mask": {"i": "1"}, "ellipsis_mask": {"i": "0"}, "begin_mask": {"i": "0"}, "new_axis_mask": {"i": "0"}, "end_mask": {"i": "0"}}}, {"name": "StatefulPartitionedCall/deeplabv3plus/stage3_0/channelshuffle/reshape_36/Reshape/shape", "op": "Pack", "input": ["StatefulPartitionedCall/deeplabv3plus/stage3_0/channelshuffle/reshape_36/strided_slice", "StatefulPartitionedCall/deeplabv3plus/stage3_0/channelshuffle/reshape_36/Reshape/shape/1", "StatefulPartitionedCall/deeplabv3plus/stage3_0/channelshuffle/reshape_36/Reshape/shape/2", "StatefulPartitionedCall/deeplabv3plus/stage3_0/channelshuffle/reshape_36/Reshape/shape/3", "StatefulPartitionedCall/deeplabv3plus/stage3_0/channelshuffle/reshape_36/Reshape/shape/4"], "attr": {"T": {"type": "DT_INT32"}, "axis": {"i": "0"}, "N": {"i": "5"}}}, {"name": "StatefulPartitionedCall/deeplabv3plus/stage3_0/channelshuffle/reshape_36/Reshape", "op": "Reshape", "input": ["StatefulPartitionedCall/deeplabv3plus/stage3_0/concat/concat", "StatefulPartitionedCall/deeplabv3plus/stage3_0/channelshuffle/reshape_36/Reshape/shape"], "attr": {"T": {"type": "DT_FLOAT"}, "Tshape": {"type": "DT_INT32"}}}, {"name": "StatefulPartitionedCall/deeplabv3plus/stage3_0/channelshuffle/transpose", "op": "Transpose", "input": ["StatefulPartitionedCall/deeplabv3plus/stage3_0/channelshuffle/reshape_36/Reshape", "StatefulPartitionedCall/deeplabv3plus/stage3_0/channelshuffle/transpose/perm"], "attr": {"Tperm": {"type": "DT_INT32"}, "T": {"type": "DT_FLOAT"}}}, {"name": "StatefulPartitionedCall/deeplabv3plus/stage3_0/channelshuffle/reshape_37/Shape", "op": "Shape", "input": ["StatefulPartitionedCall/deeplabv3plus/stage3_0/channelshuffle/transpose"], "attr": {"T": {"type": "DT_FLOAT"}, "out_type": {"type": "DT_INT32"}}}, {"name": "StatefulPartitionedCall/deeplabv3plus/stage3_0/channelshuffle/reshape_37/strided_slice", "op": "StridedSlice", "input": ["StatefulPartitionedCall/deeplabv3plus/stage3_0/channelshuffle/reshape_37/Shape", "StatefulPartitionedCall/deeplabv3plus/stage3_0/channelshuffle/reshape_37/strided_slice/stack", "StatefulPartitionedCall/deeplabv3plus/stage3_0/channelshuffle/reshape_37/strided_slice/stack_1", "StatefulPartitionedCall/deeplabv3plus/stage3_0/channelshuffle/reshape_37/strided_slice/stack_2"], "attr": {"T": {"type": "DT_INT32"}, "Index": {"type": "DT_INT32"}, "shrink_axis_mask": {"i": "1"}, "ellipsis_mask": {"i": "0"}, "begin_mask": {"i": "0"}, "new_axis_mask": {"i": "0"}, "end_mask": {"i": "0"}}}, {"name": "StatefulPartitionedCall/deeplabv3plus/stage3_0/channelshuffle/reshape_37/Reshape/shape", "op": "Pack", "input": ["StatefulPartitionedCall/deeplabv3plus/stage3_0/channelshuffle/reshape_37/strided_slice", "StatefulPartitionedCall/deeplabv3plus/stage3_0/channelshuffle/reshape_37/Reshape/shape/1", "StatefulPartitionedCall/deeplabv3plus/stage3_0/channelshuffle/reshape_37/Reshape/shape/2", "StatefulPartitionedCall/deeplabv3plus/stage3_0/channelshuffle/reshape_37/Reshape/shape/3"], "attr": {"T": {"type": "DT_INT32"}, "axis": {"i": "0"}, "N": {"i": "4"}}}, {"name": "StatefulPartitionedCall/deeplabv3plus/stage3_0/channelshuffle/reshape_37/Reshape", "op": "Reshape", "input": ["StatefulPartitionedCall/deeplabv3plus/stage3_0/channelshuffle/transpose", "StatefulPartitionedCall/deeplabv3plus/stage3_0/channelshuffle/reshape_37/Reshape/shape"], "attr": {"T": {"type": "DT_FLOAT"}, "Tshape": {"type": "DT_INT32"}}}, {"name": "StatefulPartitionedCall/deeplabv3plus/stage3_1/split/split", "op": "Split", "input": ["StatefulPartitionedCall/deeplabv3plus/stage3_1/split/split/split_dim", "StatefulPartitionedCall/deeplabv3plus/stage3_0/channelshuffle/reshape_37/Reshape"], "attr": {"T": {"type": "DT_FLOAT"}, "num_split": {"i": "2"}}}, {"name": "StatefulPartitionedCall/deeplabv3plus/stage3_1/b2_conv1/re_lu_41/Relu", "op": "_FusedConv2D", "input": ["StatefulPartitionedCall/deeplabv3plus/stage3_1/split/split:1", "StatefulPartitionedCall/deeplabv3plus/stage3_1/b2_conv1/conv1/Conv2D_weights", "StatefulPartitionedCall/deeplabv3plus/stage3_1/b2_conv1/conv1/Conv2D_bn_offset"], "device": "/device:CPU:0", "attr": {"dilations": {"list": {"i": ["1", "1", "1", "1"]}}, "T": {"type": "DT_FLOAT"}, "data_format": {"s": "TkhXQw=="}, "strides": {"list": {"i": ["1", "1", "1", "1"]}}, "explicit_paddings": {"list": {}}, "use_cudnn_on_gpu": {"b": true}, "num_args": {"i": "1"}, "epsilon": {"f": 0.0}, "padding": {"s": "U0FNRQ=="}, "fused_ops": {"list": {"s": ["Qmlhc0FkZA==", "UmVsdQ=="]}}}}, {"name": "StatefulPartitionedCall/deeplabv3plus/stage3_1/b2_dw1/dw1/depthwise", "op": "FusedDepthwiseConv2dNative", "input": ["StatefulPartitionedCall/deeplabv3plus/stage3_1/b2_conv1/re_lu_41/Relu", "StatefulPartitionedCall/deeplabv3plus/stage3_1/b2_dw1/dw1/depthwise_weights", "StatefulPartitionedCall/deeplabv3plus/stage3_1/b2_dw1/dw1/depthwise_bn_offset"], "attr": {"dilations": {"list": {"i": ["1", "1", "1", "1"]}}, "T": {"type": "DT_FLOAT"}, "data_format": {"s": "TkhXQw=="}, "strides": {"list": {"i": ["1", "1", "1", "1"]}}, "explicit_paddings": {"list": {}}, "padding": {"s": "U0FNRQ=="}, "num_args": {"i": "1"}, "fused_ops": {"list": {"s": ["Qmlhc0FkZA=="]}}}}, {"name": "StatefulPartitionedCall/deeplabv3plus/stage3_1/b2_conv2/re_lu_42/Relu", "op": "_FusedConv2D", "input": ["StatefulPartitionedCall/deeplabv3plus/stage3_1/b2_dw1/dw1/depthwise", "StatefulPartitionedCall/deeplabv3plus/stage3_1/b2_conv2/conv1/Conv2D_weights", "StatefulPartitionedCall/deeplabv3plus/stage3_1/b2_conv2/conv1/Conv2D_bn_offset"], "device": "/device:CPU:0", "attr": {"dilations": {"list": {"i": ["1", "1", "1", "1"]}}, "T": {"type": "DT_FLOAT"}, "data_format": {"s": "TkhXQw=="}, "strides": {"list": {"i": ["1", "1", "1", "1"]}}, "explicit_paddings": {"list": {}}, "use_cudnn_on_gpu": {"b": true}, "num_args": {"i": "1"}, "epsilon": {"f": 0.0}, "padding": {"s": "U0FNRQ=="}, "fused_ops": {"list": {"s": ["Qmlhc0FkZA==", "UmVsdQ=="]}}}}, {"name": "StatefulPartitionedCall/deeplabv3plus/stage3_1/concat/concat", "op": "ConcatV2", "input": ["StatefulPartitionedCall/deeplabv3plus/stage3_1/split/split", "StatefulPartitionedCall/deeplabv3plus/stage3_1/b2_conv2/re_lu_42/Relu", "StatefulPartitionedCall/deeplabv3plus/stage3_1/concat/concat/axis"], "attr": {"Tidx": {"type": "DT_INT32"}, "T": {"type": "DT_FLOAT"}, "N": {"i": "2"}}}, {"name": "StatefulPartitionedCall/deeplabv3plus/stage3_1/channelshuffle/reshape_38/Shape", "op": "Shape", "input": ["StatefulPartitionedCall/deeplabv3plus/stage3_1/concat/concat"], "attr": {"T": {"type": "DT_FLOAT"}, "out_type": {"type": "DT_INT32"}}}, {"name": "StatefulPartitionedCall/deeplabv3plus/stage3_1/channelshuffle/reshape_38/strided_slice", "op": "StridedSlice", "input": ["StatefulPartitionedCall/deeplabv3plus/stage3_1/channelshuffle/reshape_38/Shape", "StatefulPartitionedCall/deeplabv3plus/stage3_1/channelshuffle/reshape_38/strided_slice/stack", "StatefulPartitionedCall/deeplabv3plus/stage3_1/channelshuffle/reshape_38/strided_slice/stack_1", "StatefulPartitionedCall/deeplabv3plus/stage3_1/channelshuffle/reshape_38/strided_slice/stack_2"], "attr": {"T": {"type": "DT_INT32"}, "Index": {"type": "DT_INT32"}, "shrink_axis_mask": {"i": "1"}, "ellipsis_mask": {"i": "0"}, "begin_mask": {"i": "0"}, "new_axis_mask": {"i": "0"}, "end_mask": {"i": "0"}}}, {"name": "StatefulPartitionedCall/deeplabv3plus/stage3_1/channelshuffle/reshape_38/Reshape/shape", "op": "Pack", "input": ["StatefulPartitionedCall/deeplabv3plus/stage3_1/channelshuffle/reshape_38/strided_slice", "StatefulPartitionedCall/deeplabv3plus/stage3_1/channelshuffle/reshape_38/Reshape/shape/1", "StatefulPartitionedCall/deeplabv3plus/stage3_1/channelshuffle/reshape_38/Reshape/shape/2", "StatefulPartitionedCall/deeplabv3plus/stage3_1/channelshuffle/reshape_38/Reshape/shape/3", "StatefulPartitionedCall/deeplabv3plus/stage3_1/channelshuffle/reshape_38/Reshape/shape/4"], "attr": {"T": {"type": "DT_INT32"}, "axis": {"i": "0"}, "N": {"i": "5"}}}, {"name": "StatefulPartitionedCall/deeplabv3plus/stage3_1/channelshuffle/reshape_38/Reshape", "op": "Reshape", "input": ["StatefulPartitionedCall/deeplabv3plus/stage3_1/concat/concat", "StatefulPartitionedCall/deeplabv3plus/stage3_1/channelshuffle/reshape_38/Reshape/shape"], "attr": {"T": {"type": "DT_FLOAT"}, "Tshape": {"type": "DT_INT32"}}}, {"name": "StatefulPartitionedCall/deeplabv3plus/stage3_1/channelshuffle/transpose", "op": "Transpose", "input": ["StatefulPartitionedCall/deeplabv3plus/stage3_1/channelshuffle/reshape_38/Reshape", "StatefulPartitionedCall/deeplabv3plus/stage3_1/channelshuffle/transpose/perm"], "attr": {"Tperm": {"type": "DT_INT32"}, "T": {"type": "DT_FLOAT"}}}, {"name": "StatefulPartitionedCall/deeplabv3plus/stage3_1/channelshuffle/reshape_39/Shape", "op": "Shape", "input": ["StatefulPartitionedCall/deeplabv3plus/stage3_1/channelshuffle/transpose"], "attr": {"T": {"type": "DT_FLOAT"}, "out_type": {"type": "DT_INT32"}}}, {"name": "StatefulPartitionedCall/deeplabv3plus/stage3_1/channelshuffle/reshape_39/strided_slice", "op": "StridedSlice", "input": ["StatefulPartitionedCall/deeplabv3plus/stage3_1/channelshuffle/reshape_39/Shape", "StatefulPartitionedCall/deeplabv3plus/stage3_1/channelshuffle/reshape_39/strided_slice/stack", "StatefulPartitionedCall/deeplabv3plus/stage3_1/channelshuffle/reshape_39/strided_slice/stack_1", "StatefulPartitionedCall/deeplabv3plus/stage3_1/channelshuffle/reshape_39/strided_slice/stack_2"], "attr": {"T": {"type": "DT_INT32"}, "Index": {"type": "DT_INT32"}, "shrink_axis_mask": {"i": "1"}, "ellipsis_mask": {"i": "0"}, "begin_mask": {"i": "0"}, "new_axis_mask": {"i": "0"}, "end_mask": {"i": "0"}}}, {"name": "StatefulPartitionedCall/deeplabv3plus/stage3_1/channelshuffle/reshape_39/Reshape/shape", "op": "Pack", "input": ["StatefulPartitionedCall/deeplabv3plus/stage3_1/channelshuffle/reshape_39/strided_slice", "StatefulPartitionedCall/deeplabv3plus/stage3_1/channelshuffle/reshape_39/Reshape/shape/1", "StatefulPartitionedCall/deeplabv3plus/stage3_1/channelshuffle/reshape_39/Reshape/shape/2", "StatefulPartitionedCall/deeplabv3plus/stage3_1/channelshuffle/reshape_39/Reshape/shape/3"], "attr": {"T": {"type": "DT_INT32"}, "axis": {"i": "0"}, "N": {"i": "4"}}}, {"name": "StatefulPartitionedCall/deeplabv3plus/stage3_1/channelshuffle/reshape_39/Reshape", "op": "Reshape", "input": ["StatefulPartitionedCall/deeplabv3plus/stage3_1/channelshuffle/transpose", "StatefulPartitionedCall/deeplabv3plus/stage3_1/channelshuffle/reshape_39/Reshape/shape"], "attr": {"T": {"type": "DT_FLOAT"}, "Tshape": {"type": "DT_INT32"}}}, {"name": "StatefulPartitionedCall/deeplabv3plus/stage3_2/split/split", "op": "Split", "input": ["StatefulPartitionedCall/deeplabv3plus/stage3_2/split/split/split_dim", "StatefulPartitionedCall/deeplabv3plus/stage3_1/channelshuffle/reshape_39/Reshape"], "attr": {"T": {"type": "DT_FLOAT"}, "num_split": {"i": "2"}}}, {"name": "StatefulPartitionedCall/deeplabv3plus/stage3_2/b2_conv1/re_lu_43/Relu", "op": "_FusedConv2D", "input": ["StatefulPartitionedCall/deeplabv3plus/stage3_2/split/split:1", "StatefulPartitionedCall/deeplabv3plus/stage3_2/b2_conv1/conv1/Conv2D_weights", "StatefulPartitionedCall/deeplabv3plus/stage3_2/b2_conv1/conv1/Conv2D_bn_offset"], "device": "/device:CPU:0", "attr": {"dilations": {"list": {"i": ["1", "1", "1", "1"]}}, "T": {"type": "DT_FLOAT"}, "data_format": {"s": "TkhXQw=="}, "strides": {"list": {"i": ["1", "1", "1", "1"]}}, "explicit_paddings": {"list": {}}, "use_cudnn_on_gpu": {"b": true}, "num_args": {"i": "1"}, "epsilon": {"f": 0.0}, "padding": {"s": "U0FNRQ=="}, "fused_ops": {"list": {"s": ["Qmlhc0FkZA==", "UmVsdQ=="]}}}}, {"name": "StatefulPartitionedCall/deeplabv3plus/stage3_2/b2_dw1/dw1/depthwise", "op": "FusedDepthwiseConv2dNative", "input": ["StatefulPartitionedCall/deeplabv3plus/stage3_2/b2_conv1/re_lu_43/Relu", "StatefulPartitionedCall/deeplabv3plus/stage3_2/b2_dw1/dw1/depthwise_weights", "StatefulPartitionedCall/deeplabv3plus/stage3_2/b2_dw1/dw1/depthwise_bn_offset"], "attr": {"dilations": {"list": {"i": ["1", "1", "1", "1"]}}, "T": {"type": "DT_FLOAT"}, "data_format": {"s": "TkhXQw=="}, "strides": {"list": {"i": ["1", "1", "1", "1"]}}, "explicit_paddings": {"list": {}}, "padding": {"s": "U0FNRQ=="}, "num_args": {"i": "1"}, "fused_ops": {"list": {"s": ["Qmlhc0FkZA=="]}}}}, {"name": "StatefulPartitionedCall/deeplabv3plus/stage3_2/b2_conv2/re_lu_44/Relu", "op": "_FusedConv2D", "input": ["StatefulPartitionedCall/deeplabv3plus/stage3_2/b2_dw1/dw1/depthwise", "StatefulPartitionedCall/deeplabv3plus/stage3_2/b2_conv2/conv1/Conv2D_weights", "StatefulPartitionedCall/deeplabv3plus/stage3_2/b2_conv2/conv1/Conv2D_bn_offset"], "device": "/device:CPU:0", "attr": {"dilations": {"list": {"i": ["1", "1", "1", "1"]}}, "T": {"type": "DT_FLOAT"}, "data_format": {"s": "TkhXQw=="}, "strides": {"list": {"i": ["1", "1", "1", "1"]}}, "explicit_paddings": {"list": {}}, "use_cudnn_on_gpu": {"b": true}, "num_args": {"i": "1"}, "epsilon": {"f": 0.0}, "padding": {"s": "U0FNRQ=="}, "fused_ops": {"list": {"s": ["Qmlhc0FkZA==", "UmVsdQ=="]}}}}, {"name": "StatefulPartitionedCall/deeplabv3plus/stage3_2/concat/concat", "op": "ConcatV2", "input": ["StatefulPartitionedCall/deeplabv3plus/stage3_2/split/split", "StatefulPartitionedCall/deeplabv3plus/stage3_2/b2_conv2/re_lu_44/Relu", "StatefulPartitionedCall/deeplabv3plus/stage3_2/concat/concat/axis"], "attr": {"Tidx": {"type": "DT_INT32"}, "T": {"type": "DT_FLOAT"}, "N": {"i": "2"}}}, {"name": "StatefulPartitionedCall/deeplabv3plus/stage3_2/channelshuffle/reshape_40/Shape", "op": "Shape", "input": ["StatefulPartitionedCall/deeplabv3plus/stage3_2/concat/concat"], "attr": {"T": {"type": "DT_FLOAT"}, "out_type": {"type": "DT_INT32"}}}, {"name": "StatefulPartitionedCall/deeplabv3plus/stage3_2/channelshuffle/reshape_40/strided_slice", "op": "StridedSlice", "input": ["StatefulPartitionedCall/deeplabv3plus/stage3_2/channelshuffle/reshape_40/Shape", "StatefulPartitionedCall/deeplabv3plus/stage3_2/channelshuffle/reshape_40/strided_slice/stack", "StatefulPartitionedCall/deeplabv3plus/stage3_2/channelshuffle/reshape_40/strided_slice/stack_1", "StatefulPartitionedCall/deeplabv3plus/stage3_2/channelshuffle/reshape_40/strided_slice/stack_2"], "attr": {"T": {"type": "DT_INT32"}, "Index": {"type": "DT_INT32"}, "shrink_axis_mask": {"i": "1"}, "ellipsis_mask": {"i": "0"}, "begin_mask": {"i": "0"}, "new_axis_mask": {"i": "0"}, "end_mask": {"i": "0"}}}, {"name": "StatefulPartitionedCall/deeplabv3plus/stage3_2/channelshuffle/reshape_40/Reshape/shape", "op": "Pack", "input": ["StatefulPartitionedCall/deeplabv3plus/stage3_2/channelshuffle/reshape_40/strided_slice", "StatefulPartitionedCall/deeplabv3plus/stage3_2/channelshuffle/reshape_40/Reshape/shape/1", "StatefulPartitionedCall/deeplabv3plus/stage3_2/channelshuffle/reshape_40/Reshape/shape/2", "StatefulPartitionedCall/deeplabv3plus/stage3_2/channelshuffle/reshape_40/Reshape/shape/3", "StatefulPartitionedCall/deeplabv3plus/stage3_2/channelshuffle/reshape_40/Reshape/shape/4"], "attr": {"T": {"type": "DT_INT32"}, "axis": {"i": "0"}, "N": {"i": "5"}}}, {"name": "StatefulPartitionedCall/deeplabv3plus/stage3_2/channelshuffle/reshape_40/Reshape", "op": "Reshape", "input": ["StatefulPartitionedCall/deeplabv3plus/stage3_2/concat/concat", "StatefulPartitionedCall/deeplabv3plus/stage3_2/channelshuffle/reshape_40/Reshape/shape"], "attr": {"T": {"type": "DT_FLOAT"}, "Tshape": {"type": "DT_INT32"}}}, {"name": "StatefulPartitionedCall/deeplabv3plus/stage3_2/channelshuffle/transpose", "op": "Transpose", "input": ["StatefulPartitionedCall/deeplabv3plus/stage3_2/channelshuffle/reshape_40/Reshape", "StatefulPartitionedCall/deeplabv3plus/stage3_2/channelshuffle/transpose/perm"], "attr": {"Tperm": {"type": "DT_INT32"}, "T": {"type": "DT_FLOAT"}}}, {"name": "StatefulPartitionedCall/deeplabv3plus/stage3_2/channelshuffle/reshape_41/Shape", "op": "Shape", "input": ["StatefulPartitionedCall/deeplabv3plus/stage3_2/channelshuffle/transpose"], "attr": {"T": {"type": "DT_FLOAT"}, "out_type": {"type": "DT_INT32"}}}, {"name": "StatefulPartitionedCall/deeplabv3plus/stage3_2/channelshuffle/reshape_41/strided_slice", "op": "StridedSlice", "input": ["StatefulPartitionedCall/deeplabv3plus/stage3_2/channelshuffle/reshape_41/Shape", "StatefulPartitionedCall/deeplabv3plus/stage3_2/channelshuffle/reshape_41/strided_slice/stack", "StatefulPartitionedCall/deeplabv3plus/stage3_2/channelshuffle/reshape_41/strided_slice/stack_1", "StatefulPartitionedCall/deeplabv3plus/stage3_2/channelshuffle/reshape_41/strided_slice/stack_2"], "attr": {"T": {"type": "DT_INT32"}, "Index": {"type": "DT_INT32"}, "shrink_axis_mask": {"i": "1"}, "ellipsis_mask": {"i": "0"}, "begin_mask": {"i": "0"}, "new_axis_mask": {"i": "0"}, "end_mask": {"i": "0"}}}, {"name": "StatefulPartitionedCall/deeplabv3plus/stage3_2/channelshuffle/reshape_41/Reshape/shape", "op": "Pack", "input": ["StatefulPartitionedCall/deeplabv3plus/stage3_2/channelshuffle/reshape_41/strided_slice", "StatefulPartitionedCall/deeplabv3plus/stage3_2/channelshuffle/reshape_41/Reshape/shape/1", "StatefulPartitionedCall/deeplabv3plus/stage3_2/channelshuffle/reshape_41/Reshape/shape/2", "StatefulPartitionedCall/deeplabv3plus/stage3_2/channelshuffle/reshape_41/Reshape/shape/3"], "attr": {"T": {"type": "DT_INT32"}, "axis": {"i": "0"}, "N": {"i": "4"}}}, {"name": "StatefulPartitionedCall/deeplabv3plus/stage3_2/channelshuffle/reshape_41/Reshape", "op": "Reshape", "input": ["StatefulPartitionedCall/deeplabv3plus/stage3_2/channelshuffle/transpose", "StatefulPartitionedCall/deeplabv3plus/stage3_2/channelshuffle/reshape_41/Reshape/shape"], "attr": {"T": {"type": "DT_FLOAT"}, "Tshape": {"type": "DT_INT32"}}}, {"name": "StatefulPartitionedCall/deeplabv3plus/stage3_3/split/split", "op": "Split", "input": ["StatefulPartitionedCall/deeplabv3plus/stage3_3/split/split/split_dim", "StatefulPartitionedCall/deeplabv3plus/stage3_2/channel…
ulPartitionedCall/deeplabv3plus/conv2d_6/Conv2D/ReadVariableOp", "StatefulPartitionedCall/deeplabv3plus/conv2d_6/BiasAdd/ReadVariableOp"], "device": "/device:CPU:0", "attr": {"dilations": {"list": {"i": ["1", "1", "1", "1"]}}, "T": {"type": "DT_FLOAT"}, "data_format": {"s": "TkhXQw=="}, "strides": {"list": {"i": ["1", "1", "1", "1"]}}, "explicit_paddings": {"list": {}}, "use_cudnn_on_gpu": {"b": true}, "num_args": {"i": "1"}, "epsilon": {"f": 0.0}, "padding": {"s": "U0FNRQ=="}, "fused_ops": {"list": {"s": ["Qmlhc0FkZA=="]}}}}, {"name": "StatefulPartitionedCall/deeplabv3plus/lambda_17/resize/ResizeBilinear", "op": "ResizeBilinear", "input": ["StatefulPartitionedCall/deeplabv3plus/conv2d_6/BiasAdd", "StatefulPartitionedCall/deeplabv3plus/lambda_17/resize/size"], "attr": {"align_corners": {"b": false}, "half_pixel_centers": {"b": true}, "T": {"type": "DT_FLOAT"}}}, {"name": "StatefulPartitionedCall/deeplabv3plus/conv2d_7/BiasAdd", "op": "_FusedConv2D", "input": ["StatefulPartitionedCall/deeplabv3plus/lambda_17/resize/ResizeBilinear", "StatefulPartitionedCall/deeplabv3plus/conv2d_7/Conv2D/ReadVariableOp", "StatefulPartitionedCall/deeplabv3plus/conv2d_7/BiasAdd/ReadVariableOp"], "device": "/device:CPU:0", "attr": {"dilations": {"list": {"i": ["1", "1", "1", "1"]}}, "T": {"type": "DT_FLOAT"}, "data_format": {"s": "TkhXQw=="}, "strides": {"list": {"i": ["1", "1", "1", "1"]}}, "explicit_paddings": {"list": {}}, "use_cudnn_on_gpu": {"b": true}, "num_args": {"i": "1"}, "epsilon": {"f": 0.0}, "padding": {"s": "U0FNRQ=="}, "fused_ops": {"list": {"s": ["Qmlhc0FkZA=="]}}}}, {"name": "Identity", "op": "Identity", "input": ["StatefulPartitionedCall/deeplabv3plus/conv2d_7/BiasAdd"], "attr": {"T": {"type": "DT_FLOAT"}}}], "library": {}, "versions": {"producer": 716}}, "weightsManifest": [{"paths": ["group1-shard1of7.bin", "group1-shard2of7.bin", "group1-shard3of7.bin", "group1-shard4of7.bin", "group1-shard5of7.bin", "group1-shard6of7.bin", "group1-shard7of7.bin"], "weights": [{"name": "StatefulPartitionedCall/deeplabv3plus/lambda_12/Mean/reduction_indices", "shape": [], "dtype": "int32"}, {"name": "StatefulPartitionedCall/deeplabv3plus/concatenate_11/concat/axis", "shape": [], "dtype": "int32"}, {"name": "StatefulPartitionedCall/deeplabv3plus/global_average_pooling2d_3/Mean/reduction_indices", "shape": [2], "dtype": "int32"}, {"name": "StatefulPartitionedCall/deeplabv3plus/lambda_9/ExpandDims/dim", "shape": [], "dtype": "int32"}, {"name": "StatefulPartitionedCall/deeplabv3plus/lambda_10/ExpandDims/dim", "shape": [], "dtype": "int32"}, {"name": "StatefulPartitionedCall/deeplabv3plus/lambda_11/resize/size", "shape": [2], "dtype": "int32"}, {"name": "StatefulPartitionedCall/deeplabv3plus/stage3_7/split/split/split_dim", "shape": [], "dtype": "int32"}, {"name": "StatefulPartitionedCall/deeplabv3plus/stage3_6/split/split/split_dim", "shape": [], "dtype": "int32"}, {"name": "StatefulPartitionedCall/deeplabv3plus/stage3_5/split/split/split_dim", "shape": [], "dtype": "int32"}, {"name": "StatefulPartitionedCall/deeplabv3plus/stage3_4/split/split/split_dim", "shape": [], "dtype": "int32"}, {"name": "StatefulPartitionedCall/deeplabv3plus/stage3_3/split/split/split_dim", "shape": [], "dtype": "int32"}, {"name": "StatefulPartitionedCall/deeplabv3plus/stage3_2/split/split/split_dim", "shape": [], "dtype": "int32"}, {"name": "StatefulPartitionedCall/deeplabv3plus/stage3_1/split/split/split_dim", "shape": [], "dtype": "int32"}, {"name": "StatefulPartitionedCall/deeplabv3plus/stage2_3/split/split/split_dim", "shape": [], "dtype": "int32"}, {"name": "StatefulPartitionedCall/deeplabv3plus/stage2_2/split/split/split_dim", "shape": [], "dtype": "int32"}, {"name": "StatefulPartitionedCall/deeplabv3plus/stage2_1/split/split/split_dim", "shape": [], "dtype": "int32"}, {"name": "StatefulPartitionedCall/deeplabv3plus/stage2_0/concat/concat/axis", "shape": [], "dtype": "int32"}, {"name": "StatefulPartitionedCall/deeplabv3plus/stage2_0/channelshuffle/reshape_28/strided_slice/stack", "shape": [1], "dtype": "int32"}, {"name": "StatefulPartitionedCall/deeplabv3plus/stage2_0/channelshuffle/reshape_28/strided_slice/stack_1", "shape": [1], "dtype": "int32"}, {"name": "StatefulPartitionedCall/deeplabv3plus/stage2_0/channelshuffle/reshape_28/strided_slice/stack_2", "shape": [1], "dtype": "int32"}, {"name": "StatefulPartitionedCall/deeplabv3plus/stage2_0/channelshuffle/reshape_28/Reshape/shape/1", "shape": [], "dtype": "int32"}, {"name": "StatefulPartitionedCall/deeplabv3plus/stage2_0/channelshuffle/reshape_28/Reshape/shape/2", "shape": [], "dtype": "int32"}, {"name": "StatefulPartitionedCall/deeplabv3plus/stage2_0/channelshuffle/reshape_28/Reshape/shape/3", "shape": [], "dtype": "int32"}, {"name": "StatefulPartitionedCall/deeplabv3plus/stage2_0/channelshuffle/reshape_28/Reshape/shape/4", "shape": [], "dtype": "int32"}, {"name": "StatefulPartitionedCall/deeplabv3plus/stage2_0/channelshuffle/transpose/perm", "shape": [5], "dtype": "int32"}, {"name": "StatefulPartitionedCall/deeplabv3plus/stage2_0/channelshuffle/reshape_29/strided_slice/stack", "shape": [1], "dtype": "int32"}, {"name": "StatefulPartitionedCall/deeplabv3plus/stage2_0/channelshuffle/reshape_29/strided_slice/stack_1", "shape": [1], "dtype": "int32"}, {"name": "StatefulPartitionedCall/deeplabv3plus/stage2_0/channelshuffle/reshape_29/strided_slice/stack_2", "shape": [1], "dtype": "int32"}, {"name": "StatefulPartitionedCall/deeplabv3plus/stage2_0/channelshuffle/reshape_29/Reshape/shape/1", "shape": [], "dtype": "int32"}, {"name": "StatefulPartitionedCall/deeplabv3plus/stage2_0/channelshuffle/reshape_29/Reshape/shape/2", "shape": [], "dtype": "int32"}, {"name": "StatefulPartitionedCall/deeplabv3plus/stage2_0/channelshuffle/reshape_29/Reshape/shape/3", "shape": [], "dtype": "int32"}, {"name": "StatefulPartitionedCall/deeplabv3plus/stage2_1/concat/concat/axis", "shape": [], "dtype": "int32"}, {"name": "StatefulPartitionedCall/deeplabv3plus/stage2_1/channelshuffle/reshape_30/strided_slice/stack", "shape": [1], "dtype": "int32"}, {"name": "StatefulPartitionedCall/deeplabv3plus/stage2_1/channelshuffle/reshape_30/strided_slice/stack_1", "shape": [1], "dtype": "int32"}, {"name": "StatefulPartitionedCall/deeplabv3plus/stage2_1/channelshuffle/reshape_30/strided_slice/stack_2", "shape": [1], "dtype": "int32"}, {"name": "StatefulPartitionedCall/deeplabv3plus/stage2_1/channelshuffle/reshape_30/Reshape/shape/1", "shape": [], "dtype": "int32"}, {"name": "StatefulPartitionedCall/deeplabv3plus/stage2_1/channelshuffle/reshape_30/Reshape/shape/2", "shape": [], "dtype": "int32"}, {"name": "StatefulPartitionedCall/deeplabv3plus/stage2_1/channelshuffle/reshape_30/Reshape/shape/3", "shape": [], "dtype": "int32"}, {"name": "StatefulPartitionedCall/deeplabv3plus/stage2_1/channelshuffle/reshape_30/Reshape/shape/4", "shape": [], "dtype": "int32"}, {"name": "StatefulPartitionedCall/deeplabv3plus/stage2_1/channelshuffle/transpose/perm", "shape": [5], "dtype": "int32"}, {"name": "StatefulPartitionedCall/deeplabv3plus/stage2_1/channelshuffle/reshape_31/strided_slice/stack", "shape": [1], "dtype": "int32"}, {"name": "StatefulPartitionedCall/deeplabv3plus/stage2_1/channelshuffle/reshape_31/strided_slice/stack_1", "shape": [1], "dtype": "int32"}, {"name": "StatefulPartitionedCall/deeplabv3plus/stage2_1/channelshuffle/reshape_31/strided_slice/stack_2", "shape": [1], "dtype": "int32"}, {"name": "StatefulPartitionedCall/deeplabv3plus/stage2_1/channelshuffle/reshape_31/Reshape/shape/1", "shape": [], "dtype": "int32"}, {"name": "StatefulPartitionedCall/deeplabv3plus/stage2_1/channelshuffle/reshape_31/Reshape/shape/2", "shape": [], "dtype": "int32"}, {"name": "StatefulPartitionedCall/deeplabv3plus/stage2_1/channelshuffle/reshape_31/Reshape/shape/3", "shape": [], "dtype": "int32"}, {"name": "StatefulPartitionedCall/deeplabv3plus/stage2_2/concat/concat/axis", "shape": [], "dtype": "int32"}, {"name": "StatefulPartitionedCall/deeplabv3plus/stage2_2/channelshuffle/reshape_32/strided_slice/stack", "shape": [1], "dtype": "int32"}, {"name": "StatefulPartitionedCall/deeplabv3plus/stage2_2/channelshuffle/reshape_32/strided_slice/stack_1", "shape": [1], "dtype": "int32"}, {"name": "StatefulPartitionedCall/deeplabv3plus/stage2_2/channelshuffle/reshape_32/strided_slice/stack_2", "shape": [1], "dtype": "int32"}, {"name": "StatefulPartitionedCall/deeplabv3plus/stage2_2/channelshuffle/reshape_32/Reshape/shape/1", "shape": [], "dtype": "int32"}, {"name": "StatefulPartitionedCall/deeplabv3plus/stage2_2/channelshuffle/reshape_32/Reshape/shape/2", "shape": [], "dtype": "int32"}, {"name": "StatefulPartitionedCall/deeplabv3plus/stage2_2/channelshuffle/reshape_32/Reshape/shape/3", "shape": [], "dtype": "int32"}, {"name": "StatefulPartitionedCall/deeplabv3plus/stage2_2/channelshuffle/reshape_32/Reshape/shape/4", "shape": [], "dtype": "int32"}, {"name": "StatefulPartitionedCall/deeplabv3plus/stage2_2/channelshuffle/transpose/perm", "shape": [5], "dtype": "int32"}, {"name": "StatefulPartitionedCall/deeplabv3plus/stage2_2/channelshuffle/reshape_33/strided_slice/stack", "shape": [1], "dtype": "int32"}, {"name": "StatefulPartitionedCall/deeplabv3plus/stage2_2/channelshuffle/reshape_33/strided_slice/stack_1", "shape": [1], "dtype": "int32"}, {"name": "StatefulPartitionedCall/deeplabv3plus/stage2_2/channelshuffle/reshape_33/strided_slice/stack_2", "shape": [1], "dtype": "int32"}, {"name": "StatefulPartitionedCall/deeplabv3plus/stage2_2/channelshuffle/reshape_33/Reshape/shape/1", "shape": [], "dtype": "int32"}, {"name": "StatefulPartitionedCall/deeplabv3plus/stage2_2/channelshuffle/reshape_33/Reshape/shape/2", "shape": [], "dtype": "int32"}, {"name": "StatefulPartitionedCall/deeplabv3plus/stage2_2/channelshuffle/reshape_33/Reshape/shape/3", "shape": [], "dtype": "int32"}, {"name": "StatefulPartitionedCall/deeplabv3plus/stage2_3/concat/concat/axis", "shape": [], "dtype": "int32"}, {"name": "StatefulPartitionedCall/deeplabv3plus/stage2_3/channelshuffle/reshape_34/strided_slice/stack", "shape": [1], "dtype": "int32"}, {"name": "StatefulPartitionedCall/deeplabv3plus/stage2_3/channelshuffle/reshape_34/strided_slice/stack_1", "shape": [1], "dtype": "int32"}, {"name": "StatefulPartitionedCall/deeplabv3plus/stage2_3/channelshuffle/reshape_34/strided_slice/stack_2", "shape": [1], "dtype": "int32"}, {"name": "StatefulPartitionedCall/deeplabv3plus/stage2_3/channelshuffle/reshape_34/Reshape/shape/1", "shape": [], "dtype": "int32"}, {"name": "StatefulPartitionedCall/deeplabv3plus/stage2_3/channelshuffle/reshape_34/Reshape/shape/2", "shape": [], "dtype": "int32"}, {"name": "StatefulPartitionedCall/deeplabv3plus/stage2_3/channelshuffle/reshape_34/Reshape/shape/3", "shape": [], "dtype": "int32"}, {"name": "StatefulPartitionedCall/deeplabv3plus/stage2_3/channelshuffle/reshape_34/Reshape/shape/4", "shape": [], "dtype": "int32"}, {"name": "StatefulPartitionedCall/deeplabv3plus/stage2_3/channelshuffle/transpose/perm", "shape": [5], "dtype": "int32"}, {"name": "StatefulPartitionedCall/deeplabv3plus/stage2_3/channelshuffle/reshape_35/strided_slice/stack", "shape": [1], "dtype": "int32"}, {"name": "StatefulPartitionedCall/deeplabv3plus/stage2_3/channelshuffle/reshape_35/strided_slice/stack_1", "shape": [1], "dtype": "int32"}, {"name": "StatefulPartitionedCall/deeplabv3plus/stage2_3/channelshuffle/reshape_35/strided_slice/stack_2", "shape": [1], "dtype": "int32"}, {"name": "StatefulPartitionedCall/deeplabv3plus/stage2_3/channelshuffle/reshape_35/Reshape/shape/1", "shape": [], "dtype": "int32"}, {"name": "StatefulPartitionedCall/deeplabv3plus/stage2_3/channelshuffle/reshape_35/Reshape/shape/2", "shape": [], "dtype": "int32"}, {"name": "StatefulPartitionedCall/deeplabv3plus/stage2_3/channelshuffle/reshape_35/Reshape/shape/3", "shape": [], "dtype": "int32"}, {"name": "StatefulPartitionedCall/deeplabv3plus/stage3_0/concat/concat/axis", "shape": [], "dtype": "int32"}, {"name": "StatefulPartitionedCall/deeplabv3plus/stage3_0/channelshuffle/reshape_36/strided_slice/stack", "shape": [1], "dtype": "int32"}, {"name": "StatefulPartitionedCall/deeplabv3plus/stage3_0/channelshuffle/reshape_36/strided_slice/stack_1", "shape": [1], "dtype": "int32"}, {"name": "StatefulPartitionedCall/deeplabv3plus/stage3_0/channelshuffle/reshape_36/strided_slice/stack_2", "shape": [1], "dtype": "int32"}, {"name": "StatefulPartitionedCall/deeplabv3plus/stage3_0/channelshuffle/reshape_36/Reshape/shape/1", "shape": [], "dtype": "int32"}, {"name": "StatefulPartitionedCall/deeplabv3plus/stage3_0/channelshuffle/reshape_36/Reshape/shape/2", "shape": [], "dtype": "int32"}, {"name": "StatefulPartitionedCall/deeplabv3plus/stage3_0/channelshuffle/reshape_36/Reshape/shape/3", "shape": [], "dtype": "int32"}, {"name": "StatefulPartitionedCall/deeplabv3plus/stage3_0/channelshuffle/reshape_36/Reshape/shape/4", "shape": [], "dtype": "int32"}, {"name": "StatefulPartitionedCall/deeplabv3plus/stage3_0/channelshuffle/transpose/perm", "shape": [5], "dtype": "int32"}, {"name": "StatefulPartitionedCall/deeplabv3plus/stage3_0/channelshuffle/reshape_37/strided_slice/stack", "shape": [1], "dtype": "int32"}, {"name": "StatefulPartitionedCall/deeplabv3plus/stage3_0/channelshuffle/reshape_37/strided_slice/stack_1", "shape": [1], "dtype": "int32"}, {"name": "StatefulPartitionedCall/deeplabv3plus/stage3_0/channelshuffle/reshape_37/strided_slice/stack_2", "shape": [1], "dtype": "int32"}, {"name": "StatefulPartitionedCall/deeplabv3plus/stage3_0/channelshuffle/reshape_37/Reshape/shape/1", "shape": [], "dtype": "int32"}, {"name": "StatefulPartitionedCall/deeplabv3plus/stage3_0/channelshuffle/reshape_37/Reshape/shape/2", "shape": [], "dtype": "int32"}, {"name": "StatefulPartitionedCall/deeplabv3plus/stage3_0/channelshuffle/reshape_37/Reshape/shape/3", "shape": [], "dtype": "int32"}, {"name": "StatefulPartitionedCall/deeplabv3plus/stage3_1/concat/concat/axis", "shape": [], "dtype": "int32"}, {"name": "StatefulPartitionedCall/deeplabv3plus/stage3_1/channelshuffle/reshape_38/strided_slice/stack", "shape": [1], "dtype": "int32"}, {"name": "StatefulPartitionedCall/deeplabv3plus/stage3_1/channelshuffle/reshape_38/strided_slice/stack_1", "shape": [1], "dtype": "int32"}, {"name": "StatefulPartitionedCall/deeplabv3plus/stage3_1/channelshuffle/reshape_38/strided_slice/stack_2", "shape": [1], "dtype": "int32"}, {"name": "StatefulPartitionedCall/deeplabv3plus/stage3_1/channelshuffle/reshape_38/Reshape/shape/1", "shape": [], "dtype": "int32"}, {"name": "StatefulPartitionedCall/deeplabv3plus/stage3_1/channelshuffle/reshape_38/Reshape/shape/2", "shape": [], "dtype": "int32"}, {"name": "StatefulPartitionedCall/deeplabv3plus/stage3_1/channelshuffle/reshape_38/Reshape/shape/3", "shape": [], "dtype": "int32"}, {"name": "StatefulPartitionedCall/deeplabv3plus/stage3_1/channelshuffle/reshape_38/Reshape/shape/4", "shape": [], "dtype": "int32"}, {"name": "StatefulPartitionedCall/deeplabv3plus/stage3_1/channelshuffle/transpose/perm", "shape": [5], "dtype": "int32"}, {"name": "StatefulPartitionedCall/deeplabv3plus/stage3_1/channelshuffle/reshape_39/strided_slice/stack", "shape": [1], "dtype": "int32"}, {"name": "StatefulPartitionedCall/deeplabv3plus/stage3_1/channelshuffle/reshape_39/strided_slice/stack_1", "shape": [1], "dtype": "int32"}, {"name": "StatefulPartitionedCall/deeplabv3plus/stage3_1/channelshuffle/reshape_39/strided_slice/stack_2", "shape": [1], "dtype": "int32"}, {"name": "StatefulPartitionedCall/deeplabv3plus/stage3_1/channelshuffle/reshape_39/Reshape/shape/1", "shape": [], "dtype": "int32"}, {"name": "StatefulPartitionedCall/deeplabv3plus/stage3_1/channelshuffle/reshape_39/Reshape/shape/2", "shape": [], "dtype": "int32"}, {"name": "StatefulPartitionedCall/deeplabv3plus/stage3_1/channelshuffle/reshape_39/Reshape/shape/3", "shape": [], "dtype": "int32"}, {"name": "StatefulPartitionedCall/deeplabv3plus/stage3_2/concat/concat/axis", "shape": [], "dtype": "int32"}, {"name": "StatefulPartitionedCall/deeplabv3plus/stage3_2/channelshuffle/reshape_40/strided_slice/stack", "shape": [1], "dtype": "int32"}, {"name": "StatefulPartitionedCall/deeplabv3plus/stage3_2/channelshuffle/reshape_40/strided_slice/stack_1", "shape": [1], "dtype": "int32"}, {"name": "StatefulPartitionedCall/deeplabv3plus/stage3_2/channelshuffle/reshape_40/strided_slice/stack_2", "shape": [1], "dtype": "int32"}, {"name": "StatefulPartitionedCall/deeplabv3plus/stage3_2/channelshuffle/reshape_40/Reshape/shape/1", "shape": [], "dtype": "int32"}, {"name": "StatefulPartitionedCall/deeplabv3plus/stage3_2/channelshuffle/reshape_40/Reshape/shape/2", "shape": [], "dtype": "int32"}, {"name": "StatefulPartitionedCall/deeplabv3plus/stage3_2/channelshuffle/reshape_40/Reshape/shape/3", "shape": [], "dtype": "int32"}, {"name": "StatefulPartitionedCall/deeplabv3plus/stage3_2/channelshuffle/reshape_40/Reshape/shape/4", "shape": [], "dtype": "int32"}, {"name": "StatefulPartitionedCall/deeplabv3plus/stage3_2/channelshuffle/transpose/perm", "shape": [5], "dtype": "int32"}, {"name": "StatefulPartitionedCall/deeplabv3plus/stage3_2/channelshuffle/reshape_41/strided_slice/stack", "shape": [1], "dtype": "int32"}, {"name": "StatefulPartitionedCall/deeplabv3plus/stage3_2/channelshuffle/reshape_41/strided_slice/stack_1", "shape": [1], "dtype": "int32"}, {"name": "StatefulPartitionedCall/deeplabv3plus/stage3_2/channelshuffle/reshape_41/strided_slice/stack_2", "shape": [1], "dtype": "int32"}, {"name": "StatefulPartitionedCall/deeplabv3plus/stage3_2/channelshuffle/reshape_41/Reshape/shape/1", "shape": [], "dtype": "int32"}, {"name": "StatefulPartitionedCall/deeplabv3plus/stage3_2/channelshuffle/reshape_41/Reshape/shape/2", "shape": [], "dtype": "int32"}, {"name": "StatefulPartitionedCall/deeplabv3plus/stage3_2/channelshuffle/reshape_41/Reshape/shape/3", "shape": [], "dtype": "int32"}, {"name": "StatefulPartitionedCall/deeplabv3plus/stage3_3/concat/concat/axis", "shape": [], "dtype": "int32"}, {"name": "StatefulPartitionedCall/deeplabv3plus/stage3_3/channelshuffle/reshape_42/strided_slice/stack", "shape": [1], "dtype": "int32"}, {"name": "StatefulPartitionedCall/deeplabv3plus/stage3_3/channelshuffle/reshape_42/strided_slice/stack_1", "shape": [1], "dtype": "int32"}, {"name": "StatefulPartitionedCall/deeplabv3plus/stage3_3/channelshuffle/reshape_42/strided_slice/stack_2", "shape": [1], "dtype": "int32"}, {"name": "StatefulPartitionedCall/deeplabv3plus/stage3_3/channelshuffle/reshape_42/Reshape/shape/1", "shape": [], "dtype": "int32"}, {"name": "StatefulPartitionedCall/deeplabv3plus/stage3_3/channelshuffle/reshape_42/Reshape/shape/2", "shape": [], "dtype": "int32"}, {"name": "StatefulPartitionedCall/deeplabv3plus/stage3_3/channelshuffle/reshape_42/Reshape/shape/3", "shape": [], "dtype": "int32"}, {"name": "StatefulPartitionedCall/deeplabv3plus/stage3_3/channelshuffle/reshape_42/Reshape/shape/4", "shape": [], "dtype": "int32"}, {"name": "StatefulPartitionedCall/deeplabv3plus/stage3_3/channelshuffle/transpose/perm", "shape": [5], "dtype": "int32"}, {"name": "StatefulPartitionedCall/deeplabv3plus/stage3_3/channelshuffle/reshape_43/strided_slice/stack", "shape": [1], "dtype": "int32"}, {"name": "StatefulPartitionedCall/deeplabv3plus/stage3_3/channelshuffle/reshape_43/strided_slice/stack_1", "shape": [1], "dtype": "int32"}, {"name": "StatefulPartitionedCall/deeplabv3plus/stage3_3/channelshuffle/reshape_43/strided_slice/stack_2", "shape": [1], "dtype": "int32"}, {"name": "StatefulPartitionedCall/deeplabv3plus/stage3_3/channelshuffle/reshape_43/Reshape/shape/1", "shape": [], "dtype": "int32"}, {"name": "StatefulPartitionedCall/deeplabv3plus/stage3_3/channelshuffle/reshape_43/Reshape/shape/2", "shape": [], "dtype": "int32"}, {"name": "StatefulPartitionedCall/deeplabv3plus/stage3_3/channelshuffle/reshape_43/Reshape/shape/3", "shape": [], "dtype": "int32"}, {"name": "StatefulPartitionedCall/deeplabv3plus/stage3_4/concat/concat/axis", "shape": [], "dtype": "int32"}, {"name": "StatefulPartitionedCall/deeplabv3plus/stage3_4/channelshuffle/reshape_44/strided_slice/stack", "shape": [1], "dtype": "int32"}, {"name": "StatefulPartitionedCall/deeplabv3plus/stage3_4/channelshuffle/reshape_44/strided_slice/stack_1", "shape": [1], "dtype": "int32"}, {"name": "StatefulPartitionedCall/deeplabv3plus/stage3_4/channelshuffle/reshape_44/strided_slice/stack_2", "shape": [1], "dtype": "int32"}, {"name": "StatefulPartitionedCall/deeplabv3plus/stage3_4/channelshuffle/reshape_44/Reshape/shape/1", "shape": [], "dtype": "int32"}, {"name": "StatefulPartitionedCall/deeplabv3plus/stage3_4/channelshuffle/reshape_44/Reshape/shape/2", "shape": [], "dtype": "int32"}, {"name": "StatefulPartitionedCall/deeplabv3plus/stage3_4/channelshuffle/reshape_44/Reshape/shape/3", "shape": [], "dtype": "int32"}, {"name": "StatefulPartitionedCall/deeplabv3plus/stage3_4/channelshuffle/reshape_44/Reshape/shape/4", "shape": [], "dtype": "int32"}, {"name": "StatefulPartitionedCall/deeplabv3plus/stage3_4/channelshuffle/transpose/perm", "shape": [5], "dtype": "int32"}, {"name": "StatefulPartitionedCall/deeplabv3plus/stage3_4/channelshuffle/reshape_45/strided_slice/stack", "shape": [1], "dtype": "int32"}, {"name": "StatefulPartitionedCall/deeplabv3plus/stage3_4/channelshuffle/reshape_45/strided_slice/stack_1", "shape": [1], "dtype": "int32"}, {"name": "StatefulPartitionedCall/deeplabv3plus/stage3_4/channelshuffle/reshape_45/strided_slice/stack_2", "shape": [1], "dtype": "int32"}, {"name": "StatefulPartitionedCall/deeplabv3plus/stage3_4/channelshuffle/reshape_45/Reshape/shape/1", "shape": [], "dtype": "int32"}, {"name": "StatefulPartitionedCall/deeplabv3plus/stage3_4/channelshuffle/reshape_45/Reshape/shape/2", "shape": [], "dtype": "int32"}, {"name": "StatefulPartitionedCall/deeplabv3plus/stage3_4/channelshuffle/reshape_45/Reshape/shape/3", "shape": [], "dtype": "int32"}, {"name": "StatefulPartitionedCall/deeplabv3plus/stage3_5/concat/concat/axis", "shape": [], "dtype": "int32"}, {"name": "StatefulPartitionedCall/deeplabv3plus/stage3_5/channelshuffle/reshape_46/strided_slice/stack", "shape": [1], "dtype": "int32"}, {"name": "StatefulPartitionedCall/deeplabv3plus/stage3_5/channelshuffle/reshape_46/strided_slice/stack_1", "shape": [1], "dtype": "int32"}, {"name": "StatefulPartitionedCall/deeplabv3plus/stage3_5/channelshuffle/reshape_46/strided_slice/stack_2", "shape": [1], "dtype": "int32"}, {"name": "StatefulPartitionedCall/deeplabv3plus/stage3_5/channelshuffle/reshape_46/Reshape/shape/1", "shape": [], "dtype": "int32"}, {"name": "StatefulPartitionedCall/deeplabv3plus/stage3_5/channelshuffle/reshape_46/Reshape/shape/2", "shape": [], "dtype": "int32"}, {"name": "StatefulPartitionedCall/deeplabv3plus/stage3_5/channelshuffle/reshape_46/Reshape/shape/3", "shape": [], "dtype": "int32"}, {"name": "StatefulPartitionedCall/deeplabv3plus/stage3_5/channelshuffle/reshape_46/Reshape/shape/4", "shape": [], "dtype": "int32"}, {"name": "StatefulPartitionedCall/deeplabv3plus/stage3_5/channelshuffle/transpose/perm", "shape": [5], "dtype": "int32"}, {"name": "StatefulPartitionedCall/deeplabv3plus/stage3_5/channelshuffle/reshape_47/strided_slice/stack", "shape": [1], "dtype": "int32"}, {"name": "StatefulPartitionedCall/deeplabv3plus/stage3_5/channelshuffle/reshape_47/strided_slice/stack_1", "shape": [1], "dtype": "int32"}, {"name": "StatefulPartitionedCall/deeplabv3plus/stage3_5/channelshuffle/reshape_47/strided_slice/stack_2", "shape": [1], "dtype": "int32"}, {"name": "StatefulPartitionedCall/deeplabv3plus/stage3_5/channelshuffle/reshape_47/Reshape/shape/1", "shape": [], "dtype": "int32"}, {"name": "StatefulPartitionedCall/deeplabv3plus/stage3_5/channelshuffle/reshape_47/Reshape/shape/2", "shape": [], "dtype": "int32"}, {"name": "StatefulPartitionedCall/deeplabv3plus/stage3_5/channelshuffle/reshape_47/Reshape/shape/3", "shape": [], "dtype": "int32"}, {"name": "StatefulPartitionedCall/deeplabv3plus/stage3_6/concat/concat/axis", "shape": [], "dtype": "int32"}, {"name": "StatefulPartitionedCall/deeplabv3plus/stage3_6/channelshuffle/reshape_48/strided_slice/stack", "shape": [1], "dtype": "int32"}, {"name": "StatefulPartitionedCall/deeplabv3plus/stage3_6/channelshuffle/reshape_48/strided_slice/stack_1", "shape": [1], "dtype": "int32"}, {"name": "StatefulPartitionedCall/deeplabv3plus/stage3_6/channelshuffle/reshape_48/strided_slice/stack_2", "shape": [1], "dtype": "int32"}, {"name": "StatefulPartitionedCall/deeplabv3plus/stage3_6/channelshuffle/reshape_48/Reshape/shape/1", "shape": [], "dtype": "int32"}, {"name": "StatefulPartitionedCall/deeplabv3plus/stage3_6/channelshuffle/reshape_48/Reshape/shape/2", "shape": [], "dtype": "int32"}, {"name": "StatefulPartitionedCall/deeplabv3plus/stage3_6/channelshuffle/reshape_48/Reshape/shape/3", "shape": [], "dtype": "int32"}, {"name": "StatefulPartitionedCall/deeplabv3plus/stage3_6/channelshuffle/reshape_48/Reshape/shape/4", "shape": [], "dtype": "int32"}, {"name": "StatefulPartitionedCall/deeplabv3plus/stage3_6/channelshuffle/transpose/perm", "shape": [5], "dtype": "int32"}, {"name": "StatefulPartitionedCall/deeplabv3plus/stage3_6/channelshuffle/reshape_49/strided_slice/stack", "shape": [1], "dtype": "int32"}, {"name": "StatefulPartitionedCall/deeplabv3plus/stage3_6/channelshuffle/reshape_49/strided_slice/stack_1", "shape": [1], "dtype": "int32"}, {"name": "StatefulPartitionedCall/deeplabv3plus/stage3_6/channelshuffle/reshape_49/strided_slice/stack_2", "shape": [1], "dtype": "int32"}, {"name": "StatefulPartitionedCall/deeplabv3plus/stage3_6/channelshuffle/reshape_49/Reshape/shape/1", "shape": [], "dtype": "int32"}, {"name": "StatefulPartitionedCall/deeplabv3plus/stage3_6/channelshuffle/reshape_49/Reshape/shape/2", "shape": [], "dtype": "int32"}, {"name": "StatefulPartitionedCall/deeplabv3plus/stage3_6/channelshuffle/reshape_49/Reshape/shape/3", "shape": [], "dtype": "int32"}, {"name": "StatefulPartitionedCall/deeplabv3plus/stage3_7/concat/concat/axis", "shape": [], "dtype": "int32"}, {"name": "StatefulPartitionedCall/deeplabv3plus/stage3_7/channelshuffle/reshape_50/strided_slice/stack", "shape": [1], "dtype": "int32"}, {"name": "StatefulPartitionedCall/deeplabv3plus/stage3_7/channelshuffle/reshape_50/strided_slice/stack_1", "shape": [1], "dtype": "int32"}, {"name": "StatefulPartitionedCall/deeplabv3plus/stage3_7/channelshuffle/reshape_50/strided_slice/stack_2", "shape": [1], "dtype": "int32"}, {"name": "StatefulPartitionedCall/deeplabv3plus/stage3_7/channelshuffle/reshape_50/Reshape/shape/1", "shape": [], "dtype": "int32"}, {"name": "StatefulPartitionedCall/deeplabv3plus/stage3_7/channelshuffle/reshape_50/Reshape/shape/2", "shape": [], "dtype": "int32"}, {"name": "StatefulPartitionedCall/deeplabv3plus/stage3_7/channelshuffle/reshape_50/Reshape/shape/3", "shape": [], "dtype": "int32"}, {"name": "StatefulPartitionedCall/deeplabv3plus/stage3_7/channelshuffle/reshape_50/Reshape/shape/4", "shape": [], "dtype": "int32"}, {"name": "StatefulPartitionedCall/deeplabv3plus/stage3_7/channelshuffle/transpose/perm", "shape": [5], "dtype": "int32"}, {"name": "StatefulPartitionedCall/deeplabv3plus/stage3_7/channelshuffle/reshape_51/strided_slice/stack", "shape": [1], "dtype": "int32"}, {"name": "StatefulPartitionedCall/deeplabv3plus/stage3_7/channelshuffle/reshape_51/strided_slice/stack_1", "shape": [1], "dtype": "int32"}, {"name": "StatefulPartitionedCall/deeplabv3plus/stage3_7/channelshuffle/reshape_51/strided_slice/stack_2", "shape": [1], "dtype": "int32"}, {"name": "StatefulPartitionedCall/deeplabv3plus/stage3_7/channelshuffle/reshape_51/Reshape/shape/1", "shape": [], "dtype": "int32"}, {"name": "StatefulPartitionedCall/deeplabv3plus/stage3_7/channelshuffle/reshape_51/Reshape/shape/2", "shape": [], "dtype": "int32"}, {"name": "StatefulPartitionedCall/deeplabv3plus/stage3_7/channelshuffle/reshape_51/Reshape/shape/3", "shape": [], "dtype": "int32"}, {"name": "StatefulPartitionedCall/deeplabv3plus/concatenate_8/concat/axis", "shape": [], "dtype": "int32"}, {"name": "StatefulPartitionedCall/deeplabv3plus/aspp1_depthwise/depthwise/SpaceToBatchND/block_shape", "shape": [2], "dtype": "int32"}, {"name": "StatefulPartitionedCall/deeplabv3plus/aspp1_depthwise/depthwise/SpaceToBatchND/paddings", "shape": [2, 2], "dtype": "int32"}, {"name": "StatefulPartitionedCall/deeplabv3plus/aspp1_depthwise/depthwise/ReadVariableOp", "shape": [3, 3, 2304, 1], "dtype": "float32"}, {"name": "StatefulPartitionedCall/deeplabv3plus/aspp1_depthwise/depthwise/BatchToSpaceND/block_shape", "shape": [2], "dtype": "int32"}, {"name": "StatefulPartitionedCall/deeplabv3plus/aspp1_depthwise/depthwise/BatchToSpaceND/crops", "shape": [2, 2], "dtype": "int32"}, {"name": "StatefulPartitionedCall/deeplabv3plus/concatenate_9/concat/axis", "shape": [], "dtype": "int32"}, {"name": "StatefulPartitionedCall/deeplabv3plus/aspp2_depthwise/depthwise/SpaceToBatchND/block_shape", "shape": [2], "dtype": "int32"}, {"name": "StatefulPartitionedCall/deeplabv3plus/aspp2_depthwise/depthwise/SpaceToBatchND/paddings", "shape": [2, 2], "dtype": "int32"}, {"name": "StatefulPartitionedCall/deeplabv3plus/aspp2_depthwise/depthwise/ReadVariableOp", "shape": [3, 3, 2560, 1], "dtype": "float32"}, {"name": "StatefulPartitionedCall/deeplabv3plus/aspp2_depthwise/depthwise/BatchToSpaceND/block_shape", "shape": [2], "dtype": "int32"}, {"name": "StatefulPartitionedCall/deeplabv3plus/aspp2_depthwise/depthwise/BatchToSpaceND/crops", "shape": [2, 2], "dtype": "int32"}, {"name": "StatefulPartitionedCall/deeplabv3plus/concatenate_10/concat/axis", "shape": [], "dtype": "int32"}, {"name": "StatefulPartitionedCall/deeplabv3plus/aspp3_depthwise/depthwise/SpaceToBatchND/block_shape", "shape": [2], "dtype": "int32"}, {"name": "StatefulPartitionedCall/deeplabv3plus/aspp3_depthwise/depthwise/SpaceToBatchND/paddings", "shape": [2, 2], "dtype": "int32"}, {"name": "StatefulPartitionedCall/deeplabv3plus/aspp3_depthwise/depthwise/ReadVariableOp", "shape": [3, 3, 2816, 1], "dtype": "float32"}, {"name": "StatefulPartitionedCall/deeplabv3plus/aspp3_depthwise/depthwise/BatchToSpaceND/block_shape", "shape": [2], "dtype": "int32"}, {"name": "StatefulPartitionedCall/deeplabv3plus/aspp3_depthwise/depthwise/BatchToSpaceND/crops", "shape": [2, 2], "dtype": "int32"}, {"name": "StatefulPartitionedCall/deeplabv3plus/concatenate_12/concat/axis", "shape": [], "dtype": "int32"}, {"name": "StatefulPartitionedCall/deeplabv3plus/concat_projection/Conv2D/ReadVariableOp", "shape": [1, 1, 1280, 256], "dtype": "float32"}, {"name": "StatefulPartitionedCall/deeplabv3plus/global_average_pooling2d_4/Mean/reduction_indices", "shape": [2], "dtype": "int32"}, {"name": "StatefulPartitionedCall/deeplabv3plus/reshape_52/strided_slice/stack", "shape": [1], "dtype": "int32"}, {"name": "StatefulPartitionedCall/deeplabv3plus/reshape_52/strided_slice/stack_1", "shape": [1], "dtype": "int32"}, {"name": "StatefulPartitionedCall/deeplabv3plus/reshape_52/strided_slice/stack_2", "shape": [1], "dtype": "int32"}, {"name": "StatefulPartitionedCall/deeplabv3plus/reshape_52/Reshape/shape/1", "shape": [], "dtype": "int32"}, {"name": "StatefulPartitionedCall/deeplabv3plus/reshape_52/Reshape/shape/2", "shape": [], "dtype": "int32"}, {"name": "StatefulPartitionedCall/deeplabv3plus/conv1d_2/conv1d/ExpandDims/dim", "shape": [], "dtype": "int32"}, {"name": "StatefulPartitionedCall/deeplabv3plus/conv1d_2/conv1d/ExpandDims_1", "shape": [1, 5, 1, 1], "dtype": "float32"}, {"name": "StatefulPartitionedCall/deeplabv3plus/reshape_53/strided_slice/stack", "shape": [1], "dtype": "int32"}, {"name": "StatefulPartitionedCall/deeplabv3plus/reshape_53/strided_slice/stack_1", "shape": [1], "dtype": "int32"}, {"name": "StatefulPartitionedCall/deeplabv3plus/reshape_53/strided_slice/stack_2", "shape": [1], "dtype": "int32"}, {"name": "StatefulPartitionedCall/deeplabv3plus/reshape_53/Reshape/shape/1", "shape": [], "dtype": "int32"}, {"name": "StatefulPartitionedCall/deeplabv3plus/reshape_53/Reshape/shape/2", "shape": [], "dtype": "int32"}, {"name": "StatefulPartitionedCall/deeplabv3plus/reshape_53/Reshape/shape/3", "shape": [], "dtype": "int32"}, {"name": "StatefulPartitionedCall/deeplabv3plus/lambda_13/Max/reduction_indices", "shape": [], "dtype": "int32"}, {"name": "StatefulPartitionedCall/deeplabv3plus/concatenate_13/concat/axis", "shape": [], "dtype": "int32"}, {"name": "StatefulPartitionedCall/deeplabv3plus/conv2d_4/Conv2D/ReadVariableOp", "shape": [7, 7, 2, 1], "dtype": "float32"}, {"name": "StatefulPartitionedCall/deeplabv3plus/lambda_14/resize/size", "shape": [2], "dtype": "int32"}, {"name": "StatefulPartitionedCall/deeplabv3plus/lambda_15/Mean/reduction_indices", "shape": [], "dtype": "int32"}, {"name": "StatefulPartitionedCall/deeplabv3plus/feature_projection0/Conv2D/ReadVariableOp", "shape": [1, 1, 24, 48], "dtype": "float32"}, {"name": "StatefulPartitionedCall/deeplabv3plus/global_average_pooling2d_5/Mean/reduction_indices", "shape": [2], "dtype": "int32"}, {"name": "StatefulPartitionedCall/deeplabv3plus/reshape_54/strided_slice/stack", "shape": [1], "dtype": "int32"}, {"name": "StatefulPartitionedCall/deeplabv3plus/reshape_54/strided_slice/stack_1", "shape": [1], "dtype": "int32"}, {"name": "StatefulPartitionedCall/deeplabv3plus/reshape_54/strided_slice/stack_2", "shape": [1], "dtype": "int32"}, {"name": "StatefulPartitionedCall/deeplabv3plus/reshape_54/Reshape/shape/1", "shape": [], "dtype": "int32"}, {"name": "StatefulPartitionedCall/deeplabv3plus/reshape_54/Reshape/shape/2", "shape": [], "dtype": "int32"}, {"name": "StatefulPartitionedCall/deeplabv3plus/conv1d_3/conv1d/ExpandDims/dim", "shape": [], "dtype": "int32"}, {"name": "StatefulPartitionedCall/deeplabv3plus/conv1d_3/conv1d/ExpandDims_1", "shape": [1, 3, 1, 1], "dtype": "float32"}, {"name": "StatefulPartitionedCall/deeplabv3plus/reshape_55/strided_slice/stack", "shape": [1], "dtype": "int32"}, {"name": "StatefulPartitionedCall/deeplabv3plus/reshape_55/strided_slice/stack_1", "shape": [1], "dtype": "int32"}, {"name": "StatefulPartitionedCall/deeplabv3plus/reshape_55/strided_slice/stack_2", "shape": [1], "dtype": "int32"}, {"name": "StatefulPartitionedCall/deeplabv3plus/reshape_55/Reshape/shape/1", "shape": [], "dtype": "int32"}, {"name": "StatefulPartitionedCall/deeplabv3plus/reshape_55/Reshape/shape/2", "shape": [], "dtype": "int32"}, {"name": "StatefulPartitionedCall/deeplabv3plus/reshape_55/Reshape/shape/3", "shape": [], "dtype": "int32"}, {"name": "StatefulPartitionedCall/deeplabv3plus/lambda_16/Max/reduction_indices", "shape": [], "dtype": "int32"}, {"name": "StatefulPartitionedCall/deeplabv3plus/concatenate_14/concat/axis", "shape": [], "dtype": "int32"}, {"name": "StatefulPartitionedCall/deeplabv3plus/conv2d_5/Conv2D/ReadVariableOp", "shape": [7, 7, 2, 1], "dtype": "float32"}, {"name": "StatefulPartitionedCall/deeplabv3plus/concatenate_15/concat/axis", "shape": [], "dtype": "int32"}, {"name": "StatefulPartitionedCall/deeplabv3plus/conv2d_6/Conv2D/ReadVariableOp", "shape": [3, 3, 256, 256], "dtype": "float32"}, {"name": "StatefulPartitionedCall/deeplabv3plus/conv2d_6/BiasAdd/ReadVariableOp", "shape": [256], "dtype": "float32"}, {"name": "StatefulPartitionedCall/deeplabv3plus/lambda_17/resize/size", "shape": [2], "dtype": "int32"}, {"name": "StatefulPartitionedCall/deeplabv3plus/conv2d_7/Conv2D/ReadVariableOp", "shape": [1, 1, 256, 2], "dtype": "float32"}, {"name": "StatefulPartitionedCall/deeplabv3plus/conv2d_7/BiasAdd/ReadVariableOp", "shape": [2], "dtype": "float32"}, {"name": "StatefulPartitionedCall/deeplabv3plus/conv1/conv1/Conv2D_weights", "shape": [3, 3, 3, 24], "dtype": "float32"}, {"name": "StatefulPartitionedCall/deeplabv3plus/conv1/conv1/Conv2D_bn_offset", "shape": [24], "dtype": "float32"}, {"name": "StatefulPartitionedCall/deeplabv3plus/stage2_0/b1_dw1/dw1/depthwise_weights", "shape": [3, 3, 24, 1], "dtype": "float32"}, {"name": "StatefulPartitionedCall/deeplabv3plus/stage2_0/b1_dw1/dw1/depthwise_bn_offset", "shape": [24], "dtype": "float32"}, {"name": "StatefulPartitionedCall/deeplabv3plus/stage2_0/b2_conv1/conv1/Conv2D_weights", "shape": [1, 1, 24, 122], "dtype": "float32"}, {"name": "StatefulPartitionedCall/deeplabv3plus/stage2_0/b2_conv1/conv1/Conv2D_bn_offset", "shape": [122], "dtype": "float32"}, {"name": "StatefulPartitionedCall/deeplabv3plus/stage2_0/b1_conv1/conv1/Conv2D_weights", "shape": [1, 1, 24, 122], "dtype": "float32"}, {"name": "StatefulPartitionedCall/deeplabv3plus/stage2_0/b1_conv1/conv1/Conv2D_bn_offset", "shape": [122], "dtype": "float32"}, {"name": "StatefulPartitionedCall/deeplabv3plus/stage2_0/b2_dw1/dw1/depthwise_weights", "shape": [3, 3, 122, 1], "dtype": "float32"}, {"name": "StatefulPartitionedCall/deeplabv3plus/stage2_0/b2_dw1/dw1/depthwise_bn_offset", "shape": [122], "dtype": "float32"}, {"name": "StatefulPartitionedCall/deeplabv3plus/stage2_0/b2_conv2/conv1/Conv2D_weights", "shape": [1, 1, 122, 122], "dtype": "float32"}, {"name": "StatefulPartitionedCall/deeplabv3plus/stage2_0/b2_conv2/conv1/Conv2D_bn_offset", "shape": [122], "dtype": "float32"}, {"name": "StatefulPartitionedCall/deeplabv3plus/stage2_1/b2_conv1/conv1/Conv2D_weights", "shape": [1, 1, 122, 122], "dtype": "float32"}, {"name": "StatefulPartitionedCall/deeplabv3plus/stage2_1/b2_conv1/conv1/Conv2D_bn_offset", "shape": [122], "dtype": "float32"}, {"name": "StatefulPartitionedCall/deeplabv3plus/stage2_1/b2_dw1/dw1/depthwise_weights", "shape": [3, 3, 122, 1], "dtype": "float32"}, {"name": "StatefulPartitionedCall/deeplabv3plus/stage2_1/b2_dw1/dw1/depthwise_bn_offset", "shape": [122], "dtype": "float32"}, {"name": "StatefulPartitionedCall/deeplabv3plus/stage2_1/b2_conv2/conv1/Conv2D_weights", "shape": [1, 1, 122, 122], "dtype": "float32"}, {"name": "StatefulPartitionedCall/deeplabv3plus/stage2_1/b2_conv2/conv1/Conv2D_bn_offset", "shape": [122], "dtype": "float32"}, {"name": "StatefulPartitionedCall/deeplabv3plus/decoder_conv0_depthwise/depthwise_weights", "shape": [3, 3, 304, 1], "dtype": "float32"}, {"name": "StatefulPartitionedCall/deeplabv3plus/stage2_2/b2_conv1/conv1/Conv2D_weights", "shape": [1, 1, 122, 122], "dtype": "float32"}, {"name": "StatefulPartitionedCall/deeplabv3plus/stage2_2/b2_conv1/conv1/Conv2D_bn_offset", "shape": [122], "dtype": "float32"}, {"name": "StatefulPartitionedCall/deeplabv3plus/decoder_conv0_depthwise/depthwise_bn_offset", "shape": [304], "dtype": "float32"}, {"name": "StatefulPartitionedCall/deeplabv3plus/stage2_2/b2_dw1/dw1/depthwise_weights", "shape": [3, 3, 122, 1], "dtype": "float32"}, {"name": "StatefulPartitionedCall/deeplabv3plus/stage2_2/b2_dw1/dw1/depthwise_bn_offset", "shape": [122], "dtype": "float32"}, {"name": "StatefulPartitionedCall/deeplabv3plus/stage2_2/b2_conv2/conv1/Conv2D_weights", "shape": [1, 1, 122, 122], "dtype": "float32"}, {"name": "StatefulPartitionedCall/deeplabv3plus/stage2_2/b2_conv2/conv1/Conv2D_bn_offset", "shape": [122], "dtype": "float32"}, {"name": "StatefulPartitionedCall/deeplabv3plus/stage2_3/b2_conv1/conv1/Conv2D_weights", "shape": [1, 1, 122, 122], "dtype": "float32"}, {"name": "StatefulPartitionedCall/deeplabv3plus/decoder_conv0_pointwise/Conv2D_weights", "shape": [1, 1, 304, 256], "dtype": "float32"}, {"name": "StatefulPartitionedCall/deeplabv3plus/stage2_3/b2_conv1/conv1/Conv2D_bn_offset", "shape": [122], "dtype": "float32"}, {"name": "StatefulPartitionedCall/deeplabv3plus/stage2_3/b2_dw1/dw1/depthwise_weights", "shape": [3, 3, 122, 1], "dtype": "float32"}, {"name": "StatefulPartitionedCall/deeplabv3plus/stage2_3/b2_dw1/dw1/depthwise_bn_offset", "shape": [122], "dtype": "float32"}, {"name": "StatefulPartitionedCall/deeplabv3plus/stage2_3/b2_conv2/conv1/Conv2D_weights", "shape": [1, 1, 122, 122], "dtype": "float32"}, {"name": "StatefulPartitionedCall/deeplabv3plus/decoder_conv0_pointwise/Conv2D_bn_offset", "shape": [256], "dtype": "float32"}, {"name": "StatefulPartitionedCall/deeplabv3plus/stage2_3/b2_conv2/conv1/Conv2D_bn_offset", "shape": [122], "dtype": "float32"}, {"name": "StatefulPartitionedCall/deeplabv3plus/stage3_0/b1_dw1/dw1/depthwise_weights", "shape": [3, 3, 244, 1], "dtype": "float32"}, {"name": "StatefulPartitionedCall/deeplabv3plus/stage3_0/b1_dw1/dw1/depthwise_bn_offset", "shape": [244], "dtype": "float32"}, {"name": "StatefulPartitionedCall/deeplabv3plus/stage3_0/b2_conv1/conv1/Conv2D_weights", "shape": [1, 1, 244, 244], "dtype": "float32"}, {"name": "StatefulPartitionedCall/deeplabv3plus/stage3_0/b2_conv1/conv1/Conv2D_bn_offset", "shape": [244], "dtype": "float32"}, {"name": "StatefulPartitionedCall/deeplabv3plus/decoder_conv1_depthwise/depthwise_weights", "shape": [3, 3, 256, 1], "dtype": "float32"}, {"name": "StatefulPartitionedCall/deeplabv3plus/stage3_0/b1_conv1/conv1/Conv2D_weights", "shape": [1, 1, 244, 244], "dtype": "float32"}, {"name": "StatefulPartitionedCall/deeplabv3plus/stage3_0/b1_conv1/conv1/Conv2D_bn_offset", "shape": [244], "dtype": "float32"}, {"name": "StatefulPartitionedCall/deeplabv3plus/decoder_conv1_depthwise/depthwise_bn_offset", "shape": [256], "dtype": "float32"}, {"name": "StatefulPartitionedCall/deeplabv3plus/stage3_0/b2_dw1/dw1/depthwise_weights", "shape": [3, 3, 244, 1], "dtype": "float32"}, {"name": "StatefulPartitionedCall/deeplabv3plus/stage3_0/b2_dw1/dw1/depthwise_bn_offset", "shape": [244], "dtype": "float32"}, {"name": "StatefulPartitionedCall/deeplabv3plus/stage3_0/b2_conv2/conv1/Conv2D_weights", "shape": [1, 1, 244, 244], "dtype": "float32"}, {"name": "StatefulPartitionedCall/deeplabv3plus/stage3_0/b2_conv2/conv1/Conv2D_bn_offset", "shape": [244], "dtype": "float32"}, {"name": "StatefulPartitionedCall/deeplabv3plus/stage3_1/b2_conv1/conv1/Conv2D_weights", "shape": [1, 1, 244, 244], "dtype": "float32"}, {"name": "StatefulPartitionedCall/deeplabv3plus/decoder_conv1_pointwise/Conv2D_weights", "shape": [1, 1, 256, 256], "dtype": "float32"}, {"name": "StatefulPartitionedCall/deeplabv3plus/stage3_1/b2_conv1/conv1/Conv2D_bn_offset", "shape": [244], "dtype": "float32"}, {"name": "StatefulPartitionedCall/deeplabv3plus/feature_projection0_BN/FusedBatchNormV3/Scaled", "shape": [48], "dtype": "float32"}, {"name": "StatefulPartitionedCall/deeplabv3plus/stage3_1/b2_dw1/dw1/depthwise_weights", "shape": [3, 3, 244, 1], "dtype": "float32"}, {"name": "StatefulPartitionedCall/deeplabv3plus/stage3_1/b2_dw1/dw1/depthwise_bn_offset", "shape": [244], "dtype": "float32"}, {"name": "StatefulPartitionedCall/deeplabv3plus/stage3_1/b2_conv2/conv1/Conv2D_weights", "shape": [1, 1, 244, 244], "dtype": "float32"}, {"name": "StatefulPartitionedCall/deeplabv3plus/decoder_conv1_pointwise/Conv2D_bn_offset", "shape": [256], "dtype": "float32"}, {"name": "StatefulPartitionedCall/deeplabv3plus/stage3_1/b2_conv2/conv1/Conv2D_bn_offset", "shape": [244], "dtype": "float32"}, {"name": "StatefulPartitionedCall/deeplabv3plus/stage3_2/b2_conv1/conv1/Conv2D_weights", "shape": [1, 1, 244, 244], "dtype": "float32"}, {"name": "StatefulPartitionedCall/deeplabv3plus/stage3_2/b2_conv1/conv1/Conv2D_bn_offset", "shape": [244], "dtype": "float32"}, {"name": "StatefulPartitionedCall/deeplabv3plus/stage3_2/b2_dw1/dw1/depthwise_weights", "shape": [3, 3, 244, 1], "dtype": "float32"}, {"name": "StatefulPartitionedCall/deeplabv3plus/stage3_2/b2_dw1/dw1/depthwise_bn_offset", "shape": [244], "dtype": "float32"}, {"name": "StatefulPartitionedCall/deeplabv3plus/stage3_2/b2_conv2/conv1/Conv2D_weights", "shape": [1, 1, 244, 244], "dtype": "float32"}, {"name": "StatefulPartitionedCall/deeplabv3plus/stage3_2/b2_conv2/conv1/Conv2D_bn_offset", "shape": [244], "dtype": "float32"}, {"name": "StatefulPartitionedCall/deeplabv3plus/stage3_3/b2_conv1/conv1/Conv2D_weights", "shape": [1, 1, 244, 244], "dtype": "float32"}, {"name": "StatefulPartitionedCall/deeplabv3plus/feature_projection0_BN/FusedBatchNormV3/Offset", "shape": [48], "dtype": "float32"}, {"name": "StatefulPartitionedCall/deeplabv3plus/stage3_3/b2_conv1/conv1/Conv2D_bn_offset", "shape": [244], "dtype": "float32"}, {"name": "StatefulPartitionedCall/deeplabv3plus/stage3_3/b2_dw1/dw1/depthwise_weights", "shape": [3, 3, 244, 1], "dtype": "float32"}, {"name": "StatefulPartitionedCall/deeplabv3plus/stage3_3/b2_dw1/dw1/depthwise_bn_offset", "shape": [244], "dtype": "float32"}, {"name": "StatefulPartitionedCall/deeplabv3plus/stage3_3/b2_conv2/conv1/Conv2D_weights", "shape": [1, 1, 244, 244], "dtype": "float32"}, {"name": "StatefulPartitionedCall/deeplabv3plus/stage3_3/b2_conv2/conv1/Conv2D_bn_offset", "shape": [244], "dtype": "float32"}, {"name": "StatefulPartitionedCall/deeplabv3plus/stage3_4/b2_conv1/conv1/Conv2D_weights", "shape": [1, 1, 244, 244], "dtype": "float32"}, {"name": "StatefulPartitionedCall/deeplabv3plus/stage3_4/b2_conv1/conv1/Conv2D_bn_offset", "shape": [244], "dtype": "float32"}, {"name": "StatefulPartitionedCall/deeplabv3plus/stage3_4/b2_dw1/dw1/depthwise_weights", "shape": [3, 3, 244, 1], "dtype": "float32"}, {"name": "StatefulPartitionedCall/deeplabv3plus/stage3_4/b2_dw1/dw1/depthwise_bn_offset", "shape": [244], "dtype": "float32"}, {"name": "StatefulPartitionedCall/deeplabv3plus/stage3_4/b2_conv2/conv1/Conv2D_weights", "shape": [1, 1, 244, 244], "dtype": "float32"}, {"name": "StatefulPartitionedCall/deeplabv3plus/concat_projection_BN/FusedBatchNormV3/Scaled", "shape": [256], "dtype": "float32"}, {"name": "StatefulPartitionedCall/deeplabv3plus/stage3_4/b2_conv2/conv1/Conv2D_bn_offset", "shape": [244], "dtype": "float32"}, {"name": "StatefulPartitionedCall/deeplabv3plus/stage3_5/b2_conv1/conv1/Conv2D_weights", "shape": [1, 1, 244, 244], "dtype": "float32"}, {"name": "StatefulPartitionedCall/deeplabv3plus/stage3_5/b2_conv1/conv1/Conv2D_bn_offset", "shape": [244], "dtype": "float32"}, {"name": "StatefulPartitionedCall/deeplabv3plus/concat_projection_BN/FusedBatchNormV3/Offset", "shape": [256], "dtype": "float32"}, {"name": "StatefulPartitionedCall/deeplabv3plus/stage3_5/b2_dw1/dw1/depthwise_weights", "shape": [3, 3, 244, 1], "dtype": "float32"}, {"name": "StatefulPartitionedCall/deeplabv3plus/stage3_5/b2_dw1/dw1/depthwise_bn_offset", "shape": [244], "dtype": "float32"}, {"name": "StatefulPartitionedCall/deeplabv3plus/stage3_5/b2_conv2/conv1/Conv2D_weights", "shape": [1, 1, 244, 244], "dtype": "float32"}, {"name": "StatefulPartitionedCall/deeplabv3plus/stage3_5/b2_conv2/conv1/Conv2D_bn_offset", "shape": [244], "dtype": "float32"}, {"name": "StatefulPartitionedCall/deeplabv3plus/stage3_6/b2_conv1/conv1/Conv2D_weights", "shape": [1, 1, 244, 244], "dtype": "float32"}, {"name": "StatefulPartitionedCall/deeplabv3plus/stage3_6/b2_conv1/conv1/Conv2D_bn_offset", "shape": [244], "dtype": "float32"}, {"name": "StatefulPartitionedCall/deeplabv3plus/aspp3_depthwise_BN/FusedBatchNormV3/Scaled", "shape": [2816], "dtype": "float32"}, {"name": "StatefulPartitionedCall/deeplabv3plus/stage3_6/b2_dw1/dw1/depthwise_weights", "shape": [3, 3, 244, 1], "dtype": "float32"}, {"name": "StatefulPartitionedCall/deeplabv3plus/stage3_6/b2_dw1/dw1/depthwise_bn_offset", "shape": [244], "dtype": "float32"}, {"name": "StatefulPartitionedCall/deeplabv3plus/stage3_6/b2_conv2/conv1/Conv2D_weights", "shape": [1, 1, 244, 244], "dtype": "float32"}, {"name": "StatefulPartitionedCall/deeplabv3plus/stage3_6/b2_conv2/conv1/Conv2D_bn_offset", "shape": [244], "dtype": "float32"}, {"name": "StatefulPartitionedCall/deeplabv3plus/stage3_7/b2_conv1/conv1/Conv2D_weights", "shape": [1, 1, 244, 244], "dtype": "float32"}, {"name": "StatefulPartitionedCall/deeplabv3plus/aspp3_depthwise_BN/FusedBatchNormV3/Offset", "shape": [2816], "dtype": "float32"}, {"name": "StatefulPartitionedCall/deeplabv3plus/stage3_7/b2_conv1/conv1/Conv2D_bn_offset", "shape": [244], "dtype": "float32"}, {"name": "StatefulPartitionedCall/deeplabv3plus/stage3_7/b2_dw1/dw1/depthwise_weights", "shape": [3, 3, 244, 1], "dtype": "float32"}, {"name": "StatefulPartitionedCall/deeplabv3plus/stage3_7/b2_dw1/dw1/depthwise_bn_offset", "shape": [244], "dtype": "float32"}, {"name": "StatefulPartitionedCall/deeplabv3plus/stage3_7/b2_conv2/conv1/Conv2D_weights", "shape": [1, 1, 244, 244], "dtype": "float32"}, {"name": "StatefulPartitionedCall/deeplabv3plus/stage3_7/b2_conv2/conv1/Conv2D_bn_offset", "shape": [244], "dtype": "float32"}, {"name": "StatefulPartitionedCall/deeplabv3plus/conv5/conv1/Conv2D_weights", "shape": [1, 1, 488, 2048], "dtype": "float32"}, {"name": "StatefulPartitionedCall/deeplabv3plus/aspp2_depthwise_BN/FusedBatchNormV3/Scaled", "shape": [2560], "dtype": "float32"}, {"name": "StatefulPartitionedCall/deeplabv3plus/conv5/conv1/Conv2D_bn_offset", "shape": [2048], "dtype": "float32"}, {"name": "StatefulPartitionedCall/deeplabv3plus/aspp0/Conv2D_weights", "shape": [1, 1, 2048, 256], "dtype": "float32"}, {"name": "StatefulPartitionedCall/deeplabv3plus/aspp0/Conv2D_bn_offset", "shape": [256], "dtype": "float32"}, {"name": "StatefulPartitionedCall/deeplabv3plus/aspp2_depthwise_BN/FusedBatchNormV3/Offset", "shape": [2560], "dtype": "float32"}, {"name": "StatefulPartitionedCall/deeplabv3plus/aspp1_pointwise/Conv2D_weights", "shape": [1, 1, 2304, 256], "dtype": "float32"}, {"name": "StatefulPartitionedCall/deeplabv3plus/aspp1_pointwise/Conv2D_bn_offset", "shape": [256], "dtype": "float32"}, {"name": "StatefulPartitionedCall/deeplabv3plus/aspp2_pointwise/Conv2D_weights", "shape": [1, 1, 2560, 256], "dtype": "float32"}, {"name": "StatefulPartitionedCall/deeplabv3plus/aspp2_pointwise/Conv2D_bn_offset", "shape": [256], "dtype": "float32"}, {"name": "StatefulPartitionedCall/deeplabv3plus/aspp1_depthwise_BN/FusedBatchNormV3/Scaled", "shape": [2304], "dtype": "float32"}, {"name": "StatefulPartitionedCall/deeplabv3plus/aspp3_pointwise/Conv2D_weights", "shape": [1, 1, 2816, 256], "dtype": "float32"}, {"name": "StatefulPartitionedCall/deeplabv3plus/aspp3_pointwise/Conv2D_bn_offset", "shape": [256], "dtype": "float32"}, {"name": "StatefulPartitionedCall/deeplabv3plus/image_pooling/Conv2D_weights", "shape": [1, 1, 3072, 256], "dtype": "float32"}, {"name": "StatefulPartitionedCall/deeplabv3plus/aspp1_depthwise_BN/FusedBatchNormV3/Offset", "shape": [2304], "dtype": "float32"}, {"name": "StatefulPartitionedCall/deeplabv3plus/image_pooling/Conv2D_bn_offset", "shape": [256], "dtype": "float32"}]}]}