{"format": "graph-model", "generatedBy": "2.5.0", "convertedBy": "TensorFlow.js Converter v3.9.0", "signature": {"inputs": {"input_2": {"name": "input_2:0", "dtype": "DT_FLOAT", "tensorShape": {"dim": [{"size": "-1"}, {"size": "256"}, {"size": "256"}, {"size": "3"}]}}}, "outputs": {"conv2d_13": {"name": "Identity:0", "dtype": "DT_FLOAT", "tensorShape": {"dim": [{"size": "-1"}, {"size": "256"}, {"size": "256"}, {"size": "2"}]}}}}, "modelTopology": {"node": [{"name": "StatefulPartitionedCall/deeplabv3plus/lambda_12/Mean/reduction_indices", "op": "Const", "attr": {"value": {"tensor": {"dtype": "DT_INT32", "tensorShape": {}}}, "dtype": {"type": "DT_INT32"}}}, {"name": "StatefulPartitionedCall/deeplabv3plus/concatenate_11/concat/axis", "op": "Const", "attr": {"value": {"tensor": {"dtype": "DT_INT32", "tensorShape": {}}}, "dtype": {"type": "DT_INT32"}}}, {"name": "StatefulPartitionedCall/deeplabv3plus/global_average_pooling2d_3/Mean/reduction_indices", "op": "Const", "attr": {"value": {"tensor": {"dtype": "DT_INT32", "tensorShape": {"dim": [{"size": "2"}]}}}, "dtype": {"type": "DT_INT32"}}}, {"name": "StatefulPartitionedCall/deeplabv3plus/lambda_9/ExpandDims/dim", "op": "Const", "attr": {"value": {"tensor": {"dtype": "DT_INT32", "tensorShape": {}}}, "dtype": {"type": "DT_INT32"}}}, {"name": "StatefulPartitionedCall/deeplabv3plus/lambda_10/ExpandDims/dim", "op": "Const", "attr": {"value": {"tensor": {"dtype": "DT_INT32", "tensorShape": {}}}, "dtype": {"type": "DT_INT32"}}}, {"name": "StatefulPartitionedCall/deeplabv3plus/lambda_11/resize/size", "op": "Const", "attr": {"value": {"tensor": {"dtype": "DT_INT32", "tensorShape": {"dim": [{"size": "2"}]}}}, "dtype": {"type": "DT_INT32"}}}, {"name": "StatefulPartitionedCall/deeplabv3plus/expanded_conv_12/squeeze_excite/HardSigmoid/mul/y", "op": "Const", "attr": {"value": {"tensor": {"dtype": "DT_FLOAT", "tensorShape": {}}}, "dtype": {"type": "DT_FLOAT"}}}, {"name": "StatefulPartitionedCall/deeplabv3plus/expanded_conv_12/squeeze_excite/AvgPool/Mean/reduction_indices", "op": "Const", "attr": {"value": {"tensor": {"dtype": "DT_INT32", "tensorShape": {"dim": [{"size": "2"}]}}}, "dtype": {"type": "DT_INT32"}}}, {"name": "StatefulPartitionedCall/deeplabv3plus/reshape_65/strided_slice/stack", "op": "Const", "attr": {"value": {"tensor": {"dtype": "DT_INT32", "tensorShape": {"dim": [{"size": "1"}]}}}, "dtype": {"type": "DT_INT32"}}}, {"name": "StatefulPartitionedCall/deeplabv3plus/reshape_65/strided_slice/stack_1", "op": "Const", "attr": {"value": {"tensor": {"dtype": "DT_INT32", "tensorShape": {"dim": [{"size": "1"}]}}}, "dtype": {"type": "DT_INT32"}}}, {"name": "StatefulPartitionedCall/deeplabv3plus/reshape_65/strided_slice/stack_2", "op": "Const", "attr": {"value": {"tensor": {"dtype": "DT_INT32", "tensorShape": {"dim": [{"size": "1"}]}}}, "dtype": {"type": "DT_INT32"}}}, {"name": "StatefulPartitionedCall/deeplabv3plus/reshape_65/Reshape/shape/1", "op": "Const", "attr": {"value": {"tensor": {"dtype": "DT_INT32", "tensorShape": {}}}, "dtype": {"type": "DT_INT32"}}}, {"name": "StatefulPartitionedCall/deeplabv3plus/reshape_65/Reshape/shape/2", "op": "Const", "attr": {"value": {"tensor": {"dtype": "DT_INT32", "tensorShape": {}}}, "dtype": {"type": "DT_INT32"}}}, {"name": "StatefulPartitionedCall/deeplabv3plus/reshape_65/Reshape/shape/3", "op": "Const", "attr": {"value": {"tensor": {"dtype": "DT_INT32", "tensorShape": {}}}, "dtype": {"type": "DT_INT32"}}}, {"name": "StatefulPartitionedCall/deeplabv3plus/expanded_conv_12/squeeze_excite/Conv/Conv2D/ReadVariableOp", "op": "Const", "attr": {"value": {"tensor": {"dtype": "DT_FLOAT", "tensorShape": {"dim": [{"size": "1"}, {"size": "1"}, {"size": "672"}, {"size": "168"}]}}}, "dtype": {"type": "DT_FLOAT"}}}, {"name": "StatefulPartitionedCall/deeplabv3plus/expanded_conv_12/squeeze_excite/Conv/BiasAdd/ReadVariableOp", "op": "Const", "attr": {"value": {"tensor": {"dtype": "DT_FLOAT", "tensorShape": {"dim": [{"size": "168"}]}}}, "dtype": {"type": "DT_FLOAT"}}}, {"name": "StatefulPartitionedCall/deeplabv3plus/expanded_conv_12/squeeze_excite/Conv_1/Conv2D/ReadVariableOp", "op": "Const", "attr": {"value": {"tensor": {"dtype": "DT_FLOAT", "tensorShape": {"dim": [{"size": "1"}, {"size": "1"}, {"size": "168"}, {"size": "672"}]}}}, "dtype": {"type": "DT_FLOAT"}}}, {"name": "StatefulPartitionedCall/deeplabv3plus/expanded_conv_12/squeeze_excite/Conv_1/BiasAdd/ReadVariableOp", "op": "Const", "attr": {"value": {"tensor": {"dtype": "DT_FLOAT", "tensorShape": {"dim": [{"size": "672"}]}}}, "dtype": {"type": "DT_FLOAT"}}}, {"name": "StatefulPartitionedCall/deeplabv3plus/expanded_conv_12/squeeze_excite/HardSigmoid/add/y", "op": "Const", "attr": {"value": {"tensor": {"dtype": "DT_FLOAT", "tensorShape": {}}}, "dtype": {"type": "DT_FLOAT"}}}, {"name": "StatefulPartitionedCall/deeplabv3plus/expanded_conv_12/depthwise/HardSwish/hard_sigmoid_29/mul/y", "op": "Const", "attr": {"value": {"tensor": {"dtype": "DT_FLOAT", "tensorShape": {}}}, "dtype": {"type": "DT_FLOAT"}}}, {"name": "StatefulPartitionedCall/deeplabv3plus/expanded_conv_12/depthwise/HardSwish/hard_sigmoid_29/add/y", "op": "Const", "attr": {"value": {"tensor": {"dtype": "DT_FLOAT", "tensorShape": {}}}, "dtype": {"type": "DT_FLOAT"}}}, {"name": "StatefulPartitionedCall/deeplabv3plus/expanded_conv_12/expand/HardSwish/hard_sigmoid_28/mul/y", "op": "Const", "attr": {"value": {"tensor": {"dtype": "DT_FLOAT", "tensorShape": {}}}, "dtype": {"type": "DT_FLOAT"}}}, {"name": "StatefulPartitionedCall/deeplabv3plus/expanded_conv_12/expand/HardSwish/hard_sigmoid_28/add/y", "op": "Const", "attr": {"value": {"tensor": {"dtype": "DT_FLOAT", "tensorShape": {}}}, "dtype": {"type": "DT_FLOAT"}}}, {"name": "StatefulPartitionedCall/deeplabv3plus/expanded_conv//split12/split/split_dim", "op": "Const", "attr": {"value": {"tensor": {"dtype": "DT_INT32", "tensorShape": {}}}, "dtype": {"type": "DT_INT32"}}}, {"name": "StatefulPartitionedCall/deeplabv3plus/expanded_conv_11/squeeze_excite/HardSigmoid/mul/y", "op": "Const", "attr": {"value": {"tensor": {"dtype": "DT_FLOAT", "tensorShape": {}}}, "dtype": {"type": "DT_FLOAT"}}}, {"name": "StatefulPartitionedCall/deeplabv3plus/expanded_conv_11/squeeze_excite/AvgPool/Mean/reduction_indices", "op": "Const", "attr": {"value": {"tensor": {"dtype": "DT_INT32", "tensorShape": {"dim": [{"size": "2"}]}}}, "dtype": {"type": "DT_INT32"}}}, {"name": "StatefulPartitionedCall/deeplabv3plus/reshape_62/strided_slice/stack", "op": "Const", "attr": {"value": {"tensor": {"dtype": "DT_INT32", "tensorShape": {"dim": [{"size": "1"}]}}}, "dtype": {"type": "DT_INT32"}}}, {"name": "StatefulPartitionedCall/deeplabv3plus/reshape_62/strided_slice/stack_1", "op": "Const", "attr": {"value": {"tensor": {"dtype": "DT_INT32", "tensorShape": {"dim": [{"size": "1"}]}}}, "dtype": {"type": "DT_INT32"}}}, {"name": "StatefulPartitionedCall/deeplabv3plus/reshape_62/strided_slice/stack_2", "op": "Const", "attr": {"value": {"tensor": {"dtype": "DT_INT32", "tensorShape": {"dim": [{"size": "1"}]}}}, "dtype": {"type": "DT_INT32"}}}, {"name": "StatefulPartitionedCall/deeplabv3plus/reshape_62/Reshape/shape/1", "op": "Const", "attr": {"value": {"tensor": {"dtype": "DT_INT32", "tensorShape": {}}}, "dtype": {"type": "DT_INT32"}}}, {"name": "StatefulPartitionedCall/deeplabv3plus/reshape_62/Reshape/shape/2", "op": "Const", "attr": {"value": {"tensor": {"dtype": "DT_INT32", "tensorShape": {}}}, "dtype": {"type": "DT_INT32"}}}, {"name": "StatefulPartitionedCall/deeplabv3plus/reshape_62/Reshape/shape/3", "op": "Const", "attr": {"value": {"tensor": {"dtype": "DT_INT32", "tensorShape": {}}}, "dtype": {"type": "DT_INT32"}}}, {"name": "StatefulPartitionedCall/deeplabv3plus/expanded_conv_11/squeeze_excite/Conv/Conv2D/ReadVariableOp", "op": "Const", "attr": {"value": {"tensor": {"dtype": "DT_FLOAT", "tensorShape": {"dim": [{"size": "1"}, {"size": "1"}, {"size": "672"}, {"size": "168"}]}}}, "dtype": {"type": "DT_FLOAT"}}}, {"name": "StatefulPartitionedCall/deeplabv3plus/expanded_conv_11/squeeze_excite/Conv/BiasAdd/ReadVariableOp", "op": "Const", "attr": {"value": {"tensor": {"dtype": "DT_FLOAT", "tensorShape": {"dim": [{"size": "168"}]}}}, "dtype": {"type": "DT_FLOAT"}}}, {"name": "StatefulPartitionedCall/deeplabv3plus/expanded_conv_11/squeeze_excite/Conv_1/Conv2D/ReadVariableOp", "op": "Const", "attr": {"value": {"tensor": {"dtype": "DT_FLOAT", "tensorShape": {"dim": [{"size": "1"}, {"size": "1"}, {"size": "168"}, {"size": "672"}]}}}, "dtype": {"type": "DT_FLOAT"}}}, {"name": "StatefulPartitionedCall/deeplabv3plus/expanded_conv_11/squeeze_excite/Conv_1/BiasAdd/ReadVariableOp", "op": "Const", "attr": {"value": {"tensor": {"dtype": "DT_FLOAT", "tensorShape": {"dim": [{"size": "672"}]}}}, "dtype": {"type": "DT_FLOAT"}}}, {"name": "StatefulPartitionedCall/deeplabv3plus/expanded_conv_11/squeeze_excite/HardSigmoid/add/y", "op": "Const", "attr": {"value": {"tensor": {"dtype": "DT_FLOAT", "tensorShape": {}}}, "dtype": {"type": "DT_FLOAT"}}}, {"name": "StatefulPartitionedCall/deeplabv3plus/expanded_conv_11/depthwise/HardSwish/hard_sigmoid_27/mul/y", "op": "Const", "attr": {"value": {"tensor": {"dtype": "DT_FLOAT", "tensorShape": {}}}, "dtype": {"type": "DT_FLOAT"}}}, {"name": "StatefulPartitionedCall/deeplabv3plus/expanded_conv_11/depthwise/HardSwish/hard_sigmoid_27/add/y", "op": "Const", "attr": {"value": {"tensor": {"dtype": "DT_FLOAT", "tensorShape": {}}}, "dtype": {"type": "DT_FLOAT"}}}, {"name": "StatefulPartitionedCall/deeplabv3plus/expanded_conv_11/expand/HardSwish/hard_sigmoid_26/mul/y", "op": "Const", "attr": {"value": {"tensor": {"dtype": "DT_FLOAT", "tensorShape": {}}}, "dtype": {"type": "DT_FLOAT"}}}, {"name": "StatefulPartitionedCall/deeplabv3plus/expanded_conv_11/expand/HardSwish/hard_sigmoid_26/add/y", "op": "Const", "attr": {"value": {"tensor": {"dtype": "DT_FLOAT", "tensorShape": {}}}, "dtype": {"type": "DT_FLOAT"}}}, {"name": "StatefulPartitionedCall/deeplabv3plus/expanded_conv//split11/split/split_dim", "op": "Const", "attr": {"value": {"tensor": {"dtype": "DT_INT32", "tensorShape": {}}}, "dtype": {"type": "DT_INT32"}}}, {"name": "StatefulPartitionedCall/deeplabv3plus/expanded_conv_10/squeeze_excite/HardSigmoid/mul/y", "op": "Const", "attr": {"value": {"tensor": {"dtype": "DT_FLOAT", "tensorShape": {}}}, "dtype": {"type": "DT_FLOAT"}}}, {"name": "StatefulPartitionedCall/deeplabv3plus/expanded_conv_10/squeeze_excite/AvgPool/Mean/reduction_indices", "op": "Const", "attr": {"value": {"tensor": {"dtype": "DT_INT32", "tensorShape": {"dim": [{"size": "2"}]}}}, "dtype": {"type": "DT_INT32"}}}, {"name": "StatefulPartitionedCall/deeplabv3plus/reshape_59/strided_slice/stack", "op": "Const", "attr": {"value": {"tensor": {"dtype": "DT_INT32", "tensorShape": {"dim": [{"size": "1"}]}}}, "dtype": {"type": "DT_INT32"}}}, {"name": "StatefulPartitionedCall/deeplabv3plus/reshape_59/strided_slice/stack_1", "op": "Const", "attr": {"value": {"tensor": {"dtype": "DT_INT32", "tensorShape": {"dim": [{"size": "1"}]}}}, "dtype": {"type": "DT_INT32"}}}, {"name": "StatefulPartitionedCall/deeplabv3plus/reshape_59/strided_slice/stack_2", "op": "Const", "attr": {"value": {"tensor": {"dtype": "DT_INT32", "tensorShape": {"dim": [{"size": "1"}]}}}, "dtype": {"type": "DT_INT32"}}}, {"name": "StatefulPartitionedCall/deeplabv3plus/reshape_59/Reshape/shape/1", "op": "Const", "attr": {"value": {"tensor": {"dtype": "DT_INT32", "tensorShape": {}}}, "dtype": {"type": "DT_INT32"}}}, {"name": "StatefulPartitionedCall/deeplabv3plus/reshape_59/Reshape/shape/2", "op": "Const", "attr": {"value": {"tensor": {"dtype": "DT_INT32", "tensorShape": {}}}, "dtype": {"type": "DT_INT32"}}}, {"name": "StatefulPartitionedCall/deeplabv3plus/reshape_59/Reshape/shape/3", "op": "Const", "attr": {"value": {"tensor": {"dtype": "DT_INT32", "tensorShape": {}}}, "dtype": {"type": "DT_INT32"}}}, {"name": "StatefulPartitionedCall/deeplabv3plus/expanded_conv_10/squeeze_excite/Conv/Conv2D/ReadVariableOp", "op": "Const", "attr": {"value": {"tensor": {"dtype": "DT_FLOAT", "tensorShape": {"dim": [{"size": "1"}, {"size": "1"}, {"size": "672"}, {"size": "168"}]}}}, "dtype": {"type": "DT_FLOAT"}}}, {"name": "StatefulPartitionedCall/deeplabv3plus/expanded_conv_10/squeeze_excite/Conv/BiasAdd/ReadVariableOp", "op": "Const", "attr": {"value": {"tensor": {"dtype": "DT_FLOAT", "tensorShape": {"dim": [{"size": "168"}]}}}, "dtype": {"type": "DT_FLOAT"}}}, {"name": "StatefulPartitionedCall/deeplabv3plus/expanded_conv_10/squeeze_excite/Conv_1/Conv2D/ReadVariableOp", "op": "Const", "attr": {"value": {"tensor": {"dtype": "DT_FLOAT", "tensorShape": {"dim": [{"size": "1"}, {"size": "1"}, {"size": "168"}, {"size": "672"}]}}}, "dtype": {"type": "DT_FLOAT"}}}, {"name": "StatefulPartitionedCall/deeplabv3plus/expanded_conv_10/squeeze_excite/Conv_1/BiasAdd/ReadVariableOp", "op": "Const", "attr": {"value": {"tensor": {"dtype": "DT_FLOAT", "tensorShape": {"dim": [{"size": "672"}]}}}, "dtype": {"type": "DT_FLOAT"}}}, {"name": "StatefulPartitionedCall/deeplabv3plus/expanded_conv_10/squeeze_excite/HardSigmoid/add/y", "op": "Const", "attr": {"value": {"tensor": {"dtype": "DT_FLOAT", "tensorShape": {}}}, "dtype": {"type": "DT_FLOAT"}}}, {"name": "StatefulPartitionedCall/deeplabv3plus/expanded_conv_10/depthwise/HardSwish/hard_sigmoid_25/mul/y", "op": "Const", "attr": {"value": {"tensor": {"dtype": "DT_FLOAT", "tensorShape": {}}}, "dtype": {"type": "DT_FLOAT"}}}, {"name": "StatefulPartitionedCall/deeplabv3plus/expanded_conv_10/depthwise/HardSwish/hard_sigmoid_25/add/y", "op": "Const", "attr": {"value": {"tensor": {"dtype": "DT_FLOAT", "tensorShape": {}}}, "dtype": {"type": "DT_FLOAT"}}}, {"name": "StatefulPartitionedCall/deeplabv3plus/expanded_conv_10/expand/HardSwish/hard_sigmoid_24/mul/y", "op": "Const", "attr": {"value": {"tensor": {"dtype": "DT_FLOAT", "tensorShape": {}}}, "dtype": {"type": "DT_FLOAT"}}}, {"name": "StatefulPartitionedCall/deeplabv3plus/expanded_conv_10/expand/HardSwish/hard_sigmoid_24/add/y", "op": "Const", "attr": {"value": {"tensor": {"dtype": "DT_FLOAT", "tensorShape": {}}}, "dtype": {"type": "DT_FLOAT"}}}, {"name": "StatefulPartitionedCall/deeplabv3plus/expanded_conv//split10/split/split_dim", "op": "Const", "attr": {"value": {"tensor": {"dtype": "DT_INT32", "tensorShape": {}}}, "dtype": {"type": "DT_INT32"}}}, {"name": "StatefulPartitionedCall/deeplabv3plus/expanded_conv_9/depthwise/HardSwish/hard_sigmoid_23/mul/y", "op": "Const", "attr": {"value": {"tensor": {"dtype": "DT_FLOAT", "tensorShape": {}}}, "dtype": {"type": "DT_FLOAT"}}}, {"name": "StatefulPartitionedCall/deeplabv3plus/expanded_conv_9/depthwise/HardSwish/hard_sigmoid_23/add/y", "op": "Const", "attr": {"value": {"tensor": {"dtype": "DT_FLOAT", "tensorShape": {}}}, "dtype": {"type": "DT_FLOAT"}}}, {"name": "StatefulPartitionedCall/deeplabv3plus/expanded_conv_9/expand/HardSwish/hard_sigmoid_22/mul/y", "op": "Const", "attr": {"value": {"tensor": {"dtype": "DT_FLOAT", "tensorShape": {}}}, "dtype": {"type": "DT_FLOAT"}}}, {"name": "StatefulPartitionedCall/deeplabv3plus/expanded_conv_9/expand/HardSwish/hard_sigmoid_22/add/y", "op": "Const", "attr": {"value": {"tensor": {"dtype": "DT_FLOAT", "tensorShape": {}}}, "dtype": {"type": "DT_FLOAT"}}}, {"name": "StatefulPartitionedCall/deeplabv3plus/expanded_conv//split9/split/split_dim", "op": "Const", "attr": {"value": {"tensor": {"dtype": "DT_INT32", "tensorShape": {}}}, "dtype": {"type": "DT_INT32"}}}, {"name": "StatefulPartitionedCall/deeplabv3plus/expanded_conv_8/depthwise/HardSwish/hard_sigmoid_21/mul/y", "op": "Const", "attr": {"value": {"tensor": {"dtype": "DT_FLOAT", "tensorShape": {}}}, "dtype": {"type": "DT_FLOAT"}}}, {"name": "StatefulPartitionedCall/deeplabv3plus/expanded_conv_8/depthwise/HardSwish/hard_sigmoid_21/add/y", "op": "Const", "attr": {"value": {"tensor": {"dtype": "DT_FLOAT", "tensorShape": {}}}, "dtype": {"type": "DT_FLOAT"}}}, {"name": "StatefulPartitionedCall/deeplabv3plus/expanded_conv_8/expand/HardSwish/hard_sigmoid_20/mul/y", "op": "Const", "attr": {"value": {"tensor": {"dtype": "DT_FLOAT", "tensorShape": {}}}, "dtype": {"type": "DT_FLOAT"}}}, {"name": "StatefulPartitionedCall/deeplabv3plus/expanded_conv_8/expand/HardSwish/hard_sigmoid_20/add/y", "op": "Const", "attr": {"value": {"tensor": {"dtype": "DT_FLOAT", "tensorShape": {}}}, "dtype": {"type": "DT_FLOAT"}}}, {"name": "StatefulPartitionedCall/deeplabv3plus/expanded_conv//split8/split/split_dim", "op": "Const", "attr": {"value": {"tensor": {"dtype": "DT_INT32", "tensorShape": {}}}, "dtype": {"type": "DT_INT32"}}}, {"name": "StatefulPartitionedCall/deeplabv3plus/expanded_conv_7/depthwise/HardSwish/hard_sigmoid_19/mul/y", "op": "Const", "attr": {"value": {"tensor": {"dtype": "DT_FLOAT", "tensorShape": {}}}, "dtype": {"type": "DT_FLOAT"}}}, {"name": "StatefulPartitionedCall/deeplabv3plus/expanded_conv_7/depthwise/HardSwish/hard_sigmoid_19/add/y", "op": "Const", "attr": {"value": {"tensor": {"dtype": "DT_FLOAT", "tensorShape": {}}}, "dtype": {"type": "DT_FLOAT"}}}, {"name": "StatefulPartitionedCall/deeplabv3plus/expanded_conv_7/expand/HardSwish/hard_sigmoid_18/mul/y", "op": "Const", "attr": {"value": {"tensor": {"dtype": "DT_FLOAT", "tensorShape": {}}}, "dtype": {"type": "DT_FLOAT"}}}, {"name": "StatefulPartitionedCall/deeplabv3plus/expanded_conv_7/expand/HardSwish/hard_sigmoid_18/add/y", "op": "Const", "attr": {"value": {"tensor": {"dtype": "DT_FLOAT", "tensorShape": {}}}, "dtype": {"type": "DT_FLOAT"}}}, {"name": "StatefulPartitionedCall/deeplabv3plus/expanded_conv//split7/split/split_dim", "op": "Const", "attr": {"value": {"tensor": {"dtype": "DT_INT32", "tensorShape": {}}}, "dtype": {"type": "DT_INT32"}}}, {"name": "StatefulPartitionedCall/deeplabv3plus/expanded_conv_6/depthwise/HardSwish/hard_sigmoid_17/mul/y", "op": "Const", "attr": {"value": {"tensor": {"dtype": "DT_FLOAT", "tensorShape": {}}}, "dtype": {"type": "DT_FLOAT"}}}, {"name": "StatefulPartitionedCall/deeplabv3plus/expanded_conv_6/depthwise/HardSwish/hard_sigmoid_17/add/y", "op": "Const", "attr": {"value": {"tensor": {"dtype": "DT_FLOAT", "tensorShape": {}}}, "dtype": {"type": "DT_FLOAT"}}}, {"name": "StatefulPartitionedCall/deeplabv3plus/expanded_conv_6/expand/HardSwish/hard_sigmoid_16/mul/y", "op": "Const", "attr": {"value": {"tensor": {"dtype": "DT_FLOAT", "tensorShape": {}}}, "dtype": {"type": "DT_FLOAT"}}}, {"name": "StatefulPartitionedCall/deeplabv3plus/expanded_conv_6/expand/HardSwish/hard_sigmoid_16/add/y", "op": "Const", "attr": {"value": {"tensor": {"dtype": "DT_FLOAT", "tensorShape": {}}}, "dtype": {"type": "DT_FLOAT"}}}, {"name": "StatefulPartitionedCall/deeplabv3plus/expanded_conv_5/squeeze_excite/HardSigmoid/mul/y", "op": "Const", "attr": {"value": {"tensor": {"dtype": "DT_FLOAT", "tensorShape": {}}}, "dtype": {"type": "DT_FLOAT"}}}, {"name": "StatefulPartitionedCall/deeplabv3plus/expanded_conv_5/squeeze_excite/AvgPool/Mean/reduction_indices", "op": "Const", "attr": {"value": {"tensor": {"dtype": "DT_INT32", "tensorShape": {"dim": [{"size": "2"}]}}}, "dtype": {"type": "DT_INT32"}}}, {"name": "StatefulPartitionedCall/deeplabv3plus/reshape_48/strided_slice/stack", "op": "Const", "attr": {"value": {"tensor": {"dtype": "DT_INT32", "tensorShape": {"dim": [{"size": "1"}]}}}, "dtype": {"type": "DT_INT32"}}}, {"name": "StatefulPartitionedCall/deeplabv3plus/reshape_48/strided_slice/stack_1", "op": "Const", "attr": {"value": {"tensor": {"dtype": "DT_INT32", "tensorShape": {"dim": [{"size": "1"}]}}}, "dtype": {"type": "DT_INT32"}}}, {"name": "StatefulPartitionedCall/deeplabv3plus/reshape_48/strided_slice/stack_2", "op": "Const", "attr": {"value": {"tensor": {"dtype": "DT_INT32", "tensorShape": {"dim": [{"size": "1"}]}}}, "dtype": {"type": "DT_INT32"}}}, {"name": "StatefulPartitionedCall/deeplabv3plus/reshape_48/Reshape/shape/1", "op": "Const", "attr": {"value": {"tensor": {"dtype": "DT_INT32", "tensorShape": {}}}, "dtype": {"type": "DT_INT32"}}}, {"name": "StatefulPartitionedCall/deeplabv3plus/reshape_48/Reshape/shape/2", "op": "Const", "attr": {"value": {"tensor": {"dtype": "DT_INT32", "tensorShape": {}}}, "dtype": {"type": "DT_INT32"}}}, {"name": "StatefulPartitionedCall/deeplabv3plus/reshape_48/Reshape/shape/3", "op": "Const", "attr": {"value": {"tensor": {"dtype": "DT_INT32", "tensorShape": {}}}, "dtype": {"type": "DT_INT32"}}}, {"name": "StatefulPartitionedCall/deeplabv3plus/expanded_conv_5/squeeze_excite/Conv/Conv2D/ReadVariableOp", "op": "Const", "attr": {"value": {"tensor": {"dtype": "DT_FLOAT", "tensorShape": {"dim": [{"size": "1"}, {"size": "1"}, {"size": "200"}, {"size": "48"}]}}}, "dtype": {"type": "DT_FLOAT"}}}, {"name": "StatefulPartitionedCall/deeplabv3plus/expanded_conv_5/squeeze_excite/Conv/BiasAdd/ReadVariableOp", "op": "Const", "attr": {"value": {"tensor": {"dtype": "DT_FLOAT", "tensorShape": {"dim": [{"size": "48"}]}}}, "dtype": {"type": "DT_FLOAT"}}}, {"name": "StatefulPartitionedCall/deeplabv3plus/expanded_conv_5/squeeze_excite/Conv_1/Conv2D/ReadVariableOp", "op": "Const", "attr": {"value": {"tensor": {"dtype": "DT_FLOAT", "tensorShape": {"dim": [{"size": "1"}, {"size": "1"}, {"size": "48"}, {"size": "200"}]}}}, "dtype": {"type": "DT_FLOAT"}}}, {"name": "StatefulPartitionedCall/deeplabv3plus/expanded_conv_5/squeeze_excite/Conv_1/BiasAdd/ReadVariableOp", "op": "Const", "attr": {"value": {"tensor": {"dtype": "DT_FLOAT", "tensorShape": {"dim": [{"size": "200"}]}}}, "dtype": {"type": "DT_FLOAT"}}}, {"name": "StatefulPartitionedCall/deeplabv3plus/expanded_conv_5/squeeze_excite/HardSigmoid/add/y", "op": "Const", "attr": {"value": {"tensor": {"dtype": "DT_FLOAT", "tensorShape": {}}}, "dtype": {"type": "DT_FLOAT"}}}, {"name": "StatefulPartitionedCall/deeplabv3plus/expanded_conv//split5/split/split_dim", "op": "Const", "attr": {"value": {"tensor": {"dtype": "DT_INT32", "tensorShape": {}}}, "dtype": {"type": "DT_INT32"}}}, {"name": "StatefulPartitionedCall/deeplabv3plus/expanded_conv_4/squeeze_excite/HardSigmoid/mul/y", "op": "Const", "attr": {"value": {"tensor": {"dtype": "DT_FLOAT", "tensorShape": {}}}, "dtype": {"type": "DT_FLOAT"}}}, {"name": "StatefulPartitionedCall/deeplabv3plus/expanded_conv_4/squeeze_excite/AvgPool/Mean/reduction_indices", "op": "Const", "attr": {"value": {"tensor": {"dtype": "DT_INT32", "tensorShape": {"dim": [{"size": "2"}]}}}, "dtype": {"type": "DT_INT32"}}}, {"name": "StatefulPartitionedCall/deeplabv3plus/reshape_45/strided_slice/stack", "op": "Const", "attr": {"value": {"tensor": {"dtype": "DT_INT32", "tensorShape": {"dim": [{"size": "1"}]}}}, "dtype": {"type": "DT_INT32"}}}, {"name": "StatefulPartitionedCall/deeplabv3plus/reshape_45/strided_slice/stack_1", "op": "Const", "attr": {"value": {"tensor": {"dtype": "DT_INT32", "tensorShape": {"dim": [{"size": "1"}]}}}, "dtype": {"type": "DT_INT32"}}}, {"name": "StatefulPartitionedCall/deeplabv3plus/reshape_45/strided_slice/stack_2", "op": "Const", "attr": {"value": {"tensor": {"dtype": "DT_INT32", "tensorShape": {"dim": [{"size": "1"}]}}}, "dtype": {"type": "DT_INT32"}}}, {"name": "StatefulPartitionedCall/deeplabv3plus/reshape_45/Reshape/shape/1", "op": "Const", "attr": {"value": {"tensor": {"dtype": "DT_INT32", "tensorShape": {}}}, "dtype": {"type": "DT_INT32"}}}, {"name": "StatefulPartitionedCall/deeplabv3plus/reshape_45/Reshape/shape/2", "op": "Const", "attr": {"value": {"tensor": {"dtype": "DT_INT32", "tensorShape": {}}}, "dtype": {"type": "DT_INT32"}}}, {"name": "StatefulPartitionedCall/deeplabv3plus/reshape_45/Reshape/shape/3", "op": "Const", "attr": {"value": {"tensor": {"dtype": "DT_INT32", "tensorShape": {}}}, "dtype": {"type": "DT_INT32"}}}, {"name": "StatefulPartitionedCall/deeplabv3plus/expanded_conv_4/squeeze_excite/Conv/Conv2D/ReadVariableOp", "op": "Const", "attr": {"value": {"tensor": {"dtype": "DT_FLOAT", "tensorShape": {"dim": [{"size": "1"}, {"size": "1"}, {"size": "120"}, {"size": "32"}]}}}, "dtype": {"type": "DT_FLOAT"}}}, {"name": "StatefulPartitionedCall/deeplabv3plus/expanded_conv_4/squeeze_excite/Conv/BiasAdd/ReadVariableOp", "op": "Const", "attr": {"value": {"tensor": {"dtype": "DT_FLOAT", "tensorShape": {"dim": [{"size": "32"}]}}}, "dtype": {"type": "DT_FLOAT"}}}, {"name": "StatefulPartitionedCall/deeplabv3plus/expanded_conv_4/squeeze_excite/Conv_1/Conv2D/ReadVariableOp", "op": "Const", "attr": {"value": {"tensor": {"dtype": "DT_FLOAT", "tensorShape": {"dim": [{"size": "1"}, {"size": "1"}, {"size": "32"}, {"size": "120"}]}}}, "dtype": {"type": "DT_FLOAT"}}}, {"name": "StatefulPartitionedCall/deeplabv3plus/expanded_conv_4/squeeze_excite/Conv_1/BiasAdd/ReadVariableOp", "op": "Const", "attr": {"value": {"tensor": {"dtype": "DT_FLOAT", "tensorShape": {"dim": [{"size": "120"}]}}}, "dtype": {"type": "DT_FLOAT"}}}, {"name": "StatefulPartitionedCall/deeplabv3plus/expanded_conv_4/squeeze_excite/HardSigmoid/add/y", "op": "Const", "attr": {"value": {"tensor": {"dtype": "DT_FLOAT", "tensorShape": {}}}, "dtype": {"type": "DT_FLOAT"}}}, {"name": "StatefulPartitionedCall/deeplabv3plus/expanded_conv//split4/split/split_dim", "op": "Const", "attr": {"value": {"tensor": {"dtype": "DT_INT32", "tensorShape": {}}}, "dtype": {"type": "DT_INT32"}}}, {"name": "StatefulPartitionedCall/deeplabv3plus/expanded_conv_3/squeeze_excite/HardSigmoid/mul/y", "op": "Const", "attr": {"value": {"tensor": {"dtype": "DT_FLOAT", "tensorShape": {}}}, "dtype": {"type": "DT_FLOAT"}}}, {"name": "StatefulPartitionedCall/deeplabv3plus/expanded_conv_3/squeeze_excite/AvgPool/Mean/reduction_indices", "op": "Const", "attr": {"value": {"tensor": {"dtype": "DT_INT32", "tensorShape": {"dim": [{"size": "2"}]}}}, "dtype": {"type": "DT_INT32"}}}, {"name": "StatefulPartitionedCall/deeplabv3plus/reshape_42/strided_slice/stack", "op": "Const", "attr": {"value": {"tensor": {"dtype": "DT_INT32", "tensorShape": {"dim": [{"size": "1"}]}}}, "dtype": {"type": "DT_INT32"}}}, {"name": "StatefulPartitionedCall/deeplabv3plus/reshape_42/strided_slice/stack_1", "op": "Const", "attr": {"value": {"tensor": {"dtype": "DT_INT32", "tensorShape": {"dim": [{"size": "1"}]}}}, "dtype": {"type": "DT_INT32"}}}, {"name": "StatefulPartitionedCall/deeplabv3plus/reshape_42/strided_slice/stack_2", "op": "Const", "attr": {"value": {"tensor": {"dtype": "DT_INT32", "tensorShape": {"dim": [{"size": "1"}]}}}, "dtype": {"type": "DT_INT32"}}}, {"name": "StatefulPartitionedCall/deeplabv3plus/reshape_42/Reshape/shape/1", "op": "Const", "attr": {"value": {"tensor": {"dtype": "DT_INT32", "tensorShape": {}}}, "dtype": {"type": "DT_INT32"}}}, {"name": "StatefulPartitionedCall/deeplabv3plus/reshape_42/Reshape/shape/2", "op": "Const", "attr": {"value": {"tensor": {"dtype": "DT_INT32", "tensorShape": {}}}, "dtype": {"type": "DT_INT32"}}}, {"name": "StatefulPartitionedCall/deeplabv3plus/reshape_42/Reshape/shape/3", "op": "Const", "attr": {"value": {"tensor": {"dtype": "DT_INT32", "tensorShape": {}}}, "dtype": {"type": "DT_INT32"}}}, {"name": "StatefulPartitionedCall/deeplabv3plus/expanded_conv_3/squeeze_excite/Conv/Conv2D/ReadVariableOp", "op": "Const", "attr": {"value": {"tensor": {"dtype": "DT_FLOAT", "tensorShape": {"dim": [{"size": "1"}, {"size": "1"}, {"size": "120"}, {"size": "32"}]}}}, "dtype": {"type": "DT_FLOAT"}}}, {"name": "StatefulPartitionedCall/deeplabv3plus/expanded_conv_3/squeeze_excite/Conv/BiasAdd/ReadVariableOp", "op": "Const", "attr": {"value": {"tensor": {"dtype": "DT_FLOAT", "tensorShape": {"dim": [{"size": "32"}]}}}, "dtype": {"type": "DT_FLOAT"}}}, {"name": "StatefulPartitionedCall/deeplabv3plus/expanded_conv_3/squeeze_excite/Conv_1/Conv2D/ReadVariableOp", "op": "Const", "attr": {"value": {"tensor": {"dtype": "DT_FLOAT", "tensorShape": {"dim": [{"size": "1"}, {"size": "1"}, {"size": "32"}, {"size": "120"}]}}}, "dtype": {"type": "DT_FLOAT"}}}, {"name": "StatefulPartitionedCall/deeplabv3plus/expanded_conv_3/squeeze_excite/Conv_1/BiasAdd/ReadVariableOp", "op": "Const", "attr": {"value": {"tensor": {"dtype": "DT_FLOAT", "tensorShape": {"dim": [{"size": "120"}]}}}, "dtype": {"type": "DT_FLOAT"}}}, {"name": "StatefulPartitionedCall/deeplabv3plus/expanded_conv_3/squeeze_excite/HardSigmoid/add/y", "op": "Const", "attr": {"value": {"tensor": {"dtype": "DT_FLOAT", "tensorShape": {}}}, "dtype": {"type": "DT_FLOAT"}}}, {"name": "StatefulPartitionedCall/deeplabv3plus/expanded_conv_3//concat/concat/axis", "op": "Const", "attr": {"value": {"tensor": {"dtype": "DT_INT32", "tensorShape": {}}}, "dtype": {"type": "DT_INT32"}}}, {"name": "StatefulPartitionedCall/deeplabv3plus/expanded_conv_3//channelshuffle/reshape_43/strided_slice/stack", "op": "Const", "attr": {"value": {"tensor": {"dtype": "DT_INT32", "tensorShape": {"dim": [{"size": "1"}]}}}, "dtype": {"type": "DT_INT32"}}}, {"name": "StatefulPartitionedCall/deeplabv3plus/expanded_conv_3//channelshuffle/reshape_43/strided_slice/stack_1", "op": "Const", "attr": {"value": {"tensor": {"dtype": "DT_INT32", "tensorShape": {"dim": [{"size": "1"}]}}}, "dtype": {"type": "DT_INT32"}}}, {"name": "StatefulPartitionedCall/deeplabv3plus/expanded_conv_3//channelshuffle/reshape_43/strided_slice/stack_2", "op": "Const", "attr": {"value": {"tensor": {"dtype": "DT_INT32", "tensorShape": {"dim": [{"size": "1"}]}}}, "dtype": {"type": "DT_INT32"}}}, {"name": "StatefulPartitionedCall/deeplabv3plus/expanded_conv_3//channelshuffle/reshape_43/Reshape/shape/1", "op": "Const", "attr": {"value": {"tensor": {"dtype": "DT_INT32", "tensorShape": {}}}, "dtype": {"type": "DT_INT32"}}}, {"name": "StatefulPartitionedCall/deeplabv3plus/expanded_conv_3//channelshuffle/reshape_43/Reshape/shape/2", "op": "Const", "attr": {"value": {"tensor": {"dtype": "DT_INT32", "tensorShape": {}}}, "dtype": {"type": "DT_INT32"}}}, {"name": "StatefulPartitionedCall/deeplabv3plus/expanded_conv_3//channelshuffle/reshape_43/Reshape/shape/3", "op": "Const", "attr": {"value": {"tensor": {"dtype": "DT_INT32", "tensorShape": {}}}, "dtype": {"type": "DT_INT32"}}}, {"name": "StatefulPartitionedCall/deeplabv3plus/expanded_conv_3//channelshuffle/reshape_43/Reshape/shape/4", "op": "Const", "attr": {"value": {"tensor": {"dtype": "DT_INT32", "tensorShape": {}}}, "dtype": {"type": "DT_INT32"}}}, {"name": "StatefulPartitionedCall/deeplabv3plus/expanded_conv_3//channelshuffle/transpose/perm", "op": "Const", "attr": {"value": {"tensor": {"dtype": "DT_INT32", "tensorShape": {"dim": [{"size": "5"}]}}}, "dtype": {"type": "DT_INT32"}}}, {"name": "StatefulPartitionedCall/deeplabv3plus/expanded_conv_3//channelshuffle/reshape_44/strided_slice/stack", "op": "Const", "attr": {"value": {"tensor": {"dtype": "DT_INT32", "tensorShape": {"dim": [{"size": "1"}]}}}, "dtype": {"type": "DT_INT32"}}}, {"name": "StatefulPartitionedCall/deeplabv3plus/expanded_conv_3//channelshuffle/reshape_44/strided_slice/stack_1", "op": "Const", "attr": {"value": {"tensor": {"dtype": "DT_INT32", "tensorShape": {"dim": [{"size": "1"}]}}}, "dtype": {"type": "DT_INT32"}}}, {"name": "StatefulPartitionedCall/deeplabv3plus/expanded_conv_3//channelshuffle/reshape_44/strided_slice/stack_2", "op": "Const", "attr": {"value": {"tensor": {"dtype": "DT_INT32", "tensorShape": {"dim": [{"size": "1"}]}}}, "dtype": {"type": "DT_INT32"}}}, {"name": "StatefulPartitionedCall/deeplabv3plus/expanded_conv_3//channelshuffle/reshape_44/Reshape/shape/1", "op": "Const", "attr": {"value": {"tensor": {"dtype": "DT_INT32", "tensorShape": {}}}, "dtype": {"type": "DT_INT32"}}}, {"name": "StatefulPartitionedCall/deeplabv3plus/expanded_conv_3//channelshuffle/reshape_44/Reshape/shape/2", "op": "Const", "attr": {"value": {"tensor": {"dtype": "DT_INT32", "tensorShape": {}}}, "dtype": {"type": "DT_INT32"}}}, {"name": "StatefulPartitionedCall/deeplabv3plus/expanded_conv_3//channelshuffle/reshape_44/Reshape/shape/3", "op": "Const", "attr": {"value": {"tensor": {"dtype": "DT_INT32", "tensorShape": {}}}, "dtype": {"type": "DT_INT32"}}}, {"name": "StatefulPartitionedCall/deeplabv3plus/expanded_conv_4//concat/concat/axis", "op": "Const", "attr": {"value": {"tensor": {"dtype": "DT_INT32", "tensorShape": {}}}, "dtype": {"type": "DT_INT32"}}}, {"name": "StatefulPartitionedCall/deeplabv3plus/expanded_conv_4//channelshuffle/reshape_46/strided_slice/stack", "op": "Const", "attr": {"value": {"tensor": {"dtype": "DT_INT32", "tensorShape": {"dim": [{"size": "1"}]}}}, "dtype": {"type": "DT_INT32"}}}, {"name": "StatefulPartitionedCall/deeplabv3plus/expanded_conv_4//channelshuffle/reshape_46/strided_slice/stack_1", "op": "Const", "attr": {"value": {"tensor": {"dtype": "DT_INT32", "tensorShape": {"dim": [{"size": "1"}]}}}, "dtype": {"type": "DT_INT32"}}}, {"name": "StatefulPartitionedCall/deeplabv3plus/expanded_conv_4//channelshuffle/reshape_46/strided_slice/stack_2", "op": "Const", "attr": {"value": {"tensor": {"dtype": "DT_INT32", "tensorShape": {"dim": [{"size": "1"}]}}}, "dtype": {"type": "DT_INT32"}}}, {"name": "StatefulPartitionedCall/deeplabv3plus/expanded_conv_4//channelshuffle/reshape_46/Reshape/shape/1", "op": "Const", "attr": {"value": {"tensor": {"dtype": "DT_INT32", "tensorShape": {}}}, "dtype": {"type": "DT_INT32"}}}, {"name": "StatefulPartitionedCall/deeplabv3plus/expanded_conv_4//channelshuffle/reshape_46/Reshape/shape/2", "op": "Const", "attr": {"value": {"tensor": {"dtype": "DT_INT32", "tensorShape": {}}}, "dtype": {"type": "DT_INT32"}}}, {"name": "StatefulPartitionedCall/deeplabv3plus/expanded_conv_4//channelshuffle/reshape_46/Reshape/shape/3", "op": "Const", "attr": {"value": {"tensor": {"dtype": "DT_INT32", "tensorShape": {}}}, "dtype": {"type": "DT_INT32"}}}, {"name": "StatefulPartitionedCall/deeplabv3plus/expanded_conv_4//channelshuffle/reshape_46/Reshape/shape/4", "op": "Const", "attr": {"value": {"tensor": {"dtype": "DT_INT32", "tensorShape": {}}}, "dtype": {"type": "DT_INT32"}}}, {"name": "StatefulPartitionedCall/deeplabv3plus/expanded_conv_4//channelshuffle/transpose/perm", "op": "Const", "attr": {"value": {"tensor": {"dtype": "DT_INT32", "tensorShape": {"dim": [{"size": "5"}]}}}, "dtype": {"type": "DT_INT32"}}}, {"name": "StatefulPartitionedCall/deeplabv3plus/expanded_conv_4//channelshuffle/reshape_47/strided_slice/stack", "op": "Const", "attr": {"value": {"tensor": {"dtype": "DT_INT32", "tensorShape": {"dim": [{"size": "1"}]}}}, "dtype": {"type": "DT_INT32"}}}, {"name": "StatefulPartitionedCall/deeplabv3plus/expanded_conv_4//channelshuffle/reshape_47/strided_slice/stack_1", "op": "Const", "attr": {"value": {"tensor": {"dtype": "DT_INT32", "tensorShape": {"dim": [{"size": "1"}]}}}, "dtype": {"type": "DT_INT32"}}}, {"name": "StatefulPartitionedCall/deeplabv3plus/expanded_conv_4//channelshuffle/reshape_47/strided_slice/stack_2", "op": "Const", "attr": {"value": {"tensor": {"dtype": "DT_INT32", "tensorShape": {"dim": [{"size": "1"}]}}}, "dtype": {"type": "DT_INT32"}}}, {"name": "StatefulPartitionedCall/deeplabv3plus/expanded_conv_4//channelshuffle/reshape_47/Reshape/shape/1", "op": "Const", "attr": {"value": {"tensor": {"dtype": "DT_INT32", "tensorShape": {}}}, "dtype": {"type": "DT_INT32"}}}, {"name": "StatefulPartitionedCall/deeplabv3plus/expanded_conv_4//channelshuffle/reshape_47/Reshape/shape/2", "op": "Const", "attr": {"value": {"tensor": {"dtype": "DT_INT32", "tensorShape": {}}}, "dtype": {"type": "DT_INT32"}}}, {"name": "StatefulPartitionedCall/deeplabv3plus/expanded_conv_4//channelshuffle/reshape_47/Reshape/shape/3", "op": "Const", "attr": {"value": {"tensor": {"dtype": "DT_INT32", "tensorShape": {}}}, "dtype": {"type": "DT_INT32"}}}, {"name": "StatefulPartitionedCall/deeplabv3plus/expanded_conv_5//concat/concat/axis", "op": "Const", "attr": {"value": {"tensor": {"dtype": "DT_INT32", "tensorShape": {}}}, "dtype": {"type": "DT_INT32"}}}, {"name": "StatefulPartitionedCall/deeplabv3plus/expanded_conv_5//channelshuffle/reshape_49/strided_slice/stack", "op": "Const", "attr": {"value": {"tensor": {"dtype": "DT_INT32", "tensorShape": {"dim": [{"size": "1"}]}}}, "dtype": {"type": "DT_INT32"}}}, {"name": "StatefulPartitionedCall/deeplabv3plus/expanded_conv_5//channelshuffle/reshape_49/strided_slice/stack_1", "op": "Const", "attr": {"value": {"tensor": {"dtype": "DT_INT32", "tensorShape": {"dim": [{"size": "1"}]}}}, "dtype": {"type": "DT_INT32"}}}, {"name": "StatefulPartitionedCall/deeplabv3plus/expanded_conv_5//channelshuffle/reshape_49/strided_slice/stack_2", "op": "Const", "attr": {"value": {"tensor": {"dtype": "DT_INT32", "tensorShape": {"dim": [{"size": "1"}]}}}, "dtype": {"type": "DT_INT32"}}}, {"name": "StatefulPartitionedCall/deeplabv3plus/expanded_conv_5//channelshuffle/reshape_49/Reshape/shape/1", "op": "Const", "attr": {"value": {"tensor": {"dtype": "DT_INT32", "tensorShape": {}}}, "dtype": {"type": "DT_INT32"}}}, {"name": "StatefulPartitionedCall/deeplabv3plus/expanded_conv_5//channelshuffle/reshape_49/Reshape/shape/2", "op": "Const", "attr": {"value": {"tensor": {"dtype": "DT_INT32", "tensorShape": {}}}, "dtype": {"type": "DT_INT32"}}}, {"name": "StatefulPartitionedCall/deeplabv3plus/expanded_conv_5//channelshuffle/reshape_49/Reshape/shape/3", "op": "Const", "attr": {"value": {"tensor": {"dtype": "DT_INT32", "tensorShape": {}}}, "dtype": {"type": "DT_INT32"}}}, {"name": "StatefulPartitionedCall/deeplabv3plus/expanded_conv_5//channelshuffle/reshape_49/Reshape/shape/4", "op": "Const", "attr": {"value": {"tensor": {"dtype": "DT_INT32", "tensorShape": {}}}, "dtype": {"type": "DT_INT32"}}}, {"name": "StatefulPartitionedCall/deeplabv3plus/expanded_conv_5//channelshuffle/transpose/perm", "op": "Const", "attr": {"value": {"tensor": {"dtype": "DT_INT32", "tensorShape": {"dim": [{"size": "5"}]}}}, "dtype": {"type": "DT_INT32"}}}, {"name": "StatefulPartitionedCall/deeplabv3plus/expanded_conv_5//channelshuffle/reshape_50/strided_slice/stack", "op": "Const", "attr": {"value": {"tensor": {"dtype": "DT_INT32", "tensorShape": {"dim": [{"size": "1"}]}}}, "dtype": {"type": "DT_INT32"}}}, {"name": "StatefulPartitionedCall/deeplabv3plus/expanded_conv_5//channelshuffle/reshape_50/strided_slice/stack_1", "op": "Const", "attr": {"value": {"tensor": {"dtype": "DT_INT32", "tensorShape": {"dim": [{"size": "1"}]}}}, "dtype": {"type": "DT_INT32"}}}, {"name": "StatefulPartitionedCall/deeplabv3plus/expanded_conv_5//channelshuffle/reshape_50/strided_slice/stack_2", "op": "Const", "attr": {"value": {"tensor": {"dtype": "DT_INT32", "tensorShape": {"dim": [{"size": "1"}]}}}, "dtype": {"type": "DT_INT32"}}}, {"name": "StatefulPartitionedCall/deeplabv3plus/expanded_conv_5//channelshuffle/reshape_50/Reshape/shape/1", "op": "Const", "attr": {"value": {"tensor": {"dtype": "DT_INT32", "tensorShape": {}}}, "dtype": {"type": "DT_INT32"}}}, {"name": "StatefulPartitionedCall/deeplabv3plus/expanded_conv_5//channelshuffle/reshape_50/Reshape/shape/2", "op": "Const", "attr": {"value": {"tensor": {"dtype": "DT_INT32", "tensorShape": {}}}, "dtype": {"type": "DT_INT32"}}}, {"name": "StatefulPartitionedCall/deeplabv3plus/expanded_conv_5//channelshuffle/reshape_50/Reshape/shape/3", "op": "Const", "attr": {"value": {"tensor": {"dtype": "DT_INT32", "tensorShape": {}}}, "dtype": {"type": "DT_INT32"}}}, {"name": "StatefulPartitionedCall/deeplabv3plus/expanded_conv_6//concat/concat/axis", "op": "Const", "attr": {"value": {"tensor": {"dtype": "DT_INT32", "tensorShape": {}}}, "dtype": {"type": "DT_INT32"}}}, {"name": "StatefulPartitionedCall/deeplabv3plus/expanded_conv_6//channelshuffle/reshape_51/strided_slice/stack", "op": "Const", "attr": {"value": {"tensor": {"dtype": "DT_INT32", "tensorShape": {"dim": [{"size": "1"}]}}}, "dtype": {"type": "DT_INT32"}}}, {"name": "StatefulPartitionedCall/deeplabv3plus/expanded_conv_6//channelshuffle/reshape_51/strided_slice/stack_1", "op": "Const", "attr": {"value": {"tensor": {"dtype": "DT_INT32", "tensorShape": {"dim": [{"size": "1"}]}}}, "dtype": {"type": "DT_INT32"}}}, {"name": "StatefulPartitionedCall/deeplabv3plus/expanded_conv_6//channelshuffle/reshape_51/strided_slice/stack_2", "op": "Const", "attr": {"value": {"tensor": {"dtype": "DT_INT32", "tensorShape": {"dim": [{"size": "1"}]}}}, "dtype": {"type": "DT_INT32"}}}, {"name": "StatefulPartitionedCall/deeplabv3plus/expanded_conv_6//channelshuffle/reshape_51/Reshape/shape/1", "op": "Const", "attr": {"value": {"tensor": {"dtype": "DT_INT32", "tensorShape": {}}}, "dtype": {"type": "DT_INT32"}}}, {"name": "StatefulPartitionedCall/deeplabv3plus/expanded_conv_6//channelshuffle/reshape_51/Reshape/shape/2", "op": "Const", "attr": {"value": {"tensor": {"dtype": "DT_INT32", "tensorShape": {}}}, "dtype": {"type": "DT_INT32"}}}, {"name": "StatefulPartitionedCall/deeplabv3plus/expanded_conv_6//channelshuffle/reshape_51/Reshape/shape/3", "op": "Const", "attr": {"value": {"tensor": {"dtype": "DT_INT32", "tensorShape": {}}}, "dtype": {"type": "DT_INT32"}}}, {"name": "StatefulPartitionedCall/deeplabv3plus/expanded_conv_6//channelshuffle/reshape_51/Reshape/shape/4", "op": "Const", "attr": {"value": {"tensor": {"dtype": "DT_INT32", "tensorShape": {}}}, "dtype": {"type": "DT_INT32"}}}, {"name": "StatefulPartitionedCall/deeplabv3plus/expanded_conv_6//channelshuffle/transpose/perm", "op": "Const", "attr": {"value": {"tensor": {"dtype": "DT_INT32", "tensorShape": {"dim": [{"size": "5"}]}}}, "dtype": {"type": "DT_INT32"}}}, {"name": "StatefulPartitionedCall/deeplabv3plus/expanded_conv_6//channelshuffle/reshape_52/strided_slice/stack", "op": "Const", "attr": {"value": {"tensor": {"dtype": "DT_INT32", "tensorShape": {"dim": [{"size": "1"}]}}}, "dtype": {"type": "DT_INT32"}}}, {"name": "StatefulPartitionedCall/deeplabv3plus/expanded_conv_6//channelshuffle/reshape_52/strided_slice/stack_1", "op": "Const", "attr": {"value": {"tensor": {"dtype": "DT_INT32", "tensorShape": {"dim": [{"size": "1"}]}}}, "dtype": {"type": "DT_INT32"}}}, {"name": "StatefulPartitionedCall/deeplabv3plus/expanded_conv_6//channelshuffle/reshape_52/strided_slice/stack_2", "op": "Const", "attr": {"value": {"tensor": {"dtype": "DT_INT32", "tensorShape": {"dim": [{"size": "1"}]}}}, "dtype": {"type": "DT_INT32"}}}, {"name": "StatefulPartitionedCall/deeplabv3plus/expanded_conv_6//channelshuffle/reshape_52/Reshape/shape/1", "op": "Const", "attr": {"value": {"tensor": {"dtype": "DT_INT32", "tensorShape": {}}}, "dtype": {"type": "DT_INT32"}}}, {"name": "StatefulPartitionedCall/deeplabv3plus/expanded_conv_6//channelshuffle/reshape_52/Reshape/shape/2", "op": "Const", "attr": {"value": {"tensor": {"dtype": "DT_INT32", "tensorShape": {}}}, "dtype": {"type": "DT_INT32"}}}, {"name": "StatefulPartitionedCall/deeplabv3plus/expanded_conv_6//channelshuffle/reshape_52/Reshape/shape/3", "op": "Const", "attr": {"value": {"tensor": {"dtype": "DT_INT32", "tensorShape": {}}}, "dtype": {"type": "DT_INT32"}}}, {"name": "StatefulPartitionedCall/deeplabv3plus/expanded_conv_7//concat/concat/axis", "op": "Const", "attr": {"value": {"tensor": {"dtype": "DT_INT32", "tensorShape": {}}}, "dtype": {"type": "DT_INT32"}}}, {"name": "StatefulPartitionedCall/deeplabv3plus/expanded_conv_7//channelshuffle/reshape_53/strided_slice/stack", "op": "Const", "attr": {"value": {"tensor": {"dtype": "DT_INT32", "tensorShape": {"dim": [{"size": "1"}]}}}, "dtype": {"type": "DT_INT32"}}}, {"name": "StatefulPartitionedCall/deeplabv3plus/expanded_conv_7//channelshuffle/reshape_53/strided_slice/stack_1", "op": "Const", "attr": {"value": {"tensor": {"dtype": "DT_INT32", "tensorShape": {"dim": [{"size": "1"}]}}}, "dtype": {"type": "DT_INT32"}}}, {"name": "StatefulPartitionedCall/deeplabv3plus/expanded_conv_7//channelshuffle/reshape_53/strided_slice/stack_2", "op": "Const", "attr": {"value": {"tensor": {"dtype": "DT_INT32", "tensorShape": {"dim": [{"size": "1"}]}}}, "dtype": {"type": "DT_INT32"}}}, {"name": "StatefulPartitionedCall/deeplabv3plus/expanded_conv_7//channelshuffle/reshape_53/Reshape/shape/1", "op": "Const", "attr": {"value": {"tensor": {"dtype": "DT_INT32", "tensorShape": {}}}, "dtype": {"type": "DT_INT32"}}}, {"name": "StatefulPartitionedCall/deeplabv3plus/expanded_conv_7//channelshuffle/reshape_53/Reshape/shape/2", "op": "Const", "attr": {"value": {"tensor": {"dtype": "DT_INT32", "tensorShape": {}}}, "dtype": {"type": "DT_INT32"}}}, {"name": "StatefulPartitionedCall/deeplabv3plus/expanded_conv_7//channelshuffle/reshape_53/Reshape/shape/3", "op": "Const", "attr": {"value": {"tensor": {"dtype": "DT_INT32", "tensorShape": {}}}, "dtype": {"type": "DT_INT32"}}}, {"name": "StatefulPartitionedCall/deeplabv3plus/expanded_conv_7//channelshuffle/reshape_53/Reshape/shape/4", "op": "Const", "attr": {"value": {"tensor": {"dtype": "DT_INT32", "tensorShape": {}}}, "dtype": {"type": "DT_INT32"}}}, {"name": "StatefulPartitionedCall/deeplabv3plus/expanded_conv_7//channelshuffle/transpose/perm", "op": "Const", "attr": {"value": {"tensor": {"dtype": "DT_INT32", "tensorShape": {"dim": [{"size": "5"}]}}}, "dtype": {"type": "DT_INT32"}}}, {"name": "StatefulPartitionedCall/deeplabv3plus/expanded_conv_7//channelshuffle/reshape_54/strided_slice/stack", "op": "Const", "attr": {"value": {"tensor": {"dtype": "DT_INT32", "tensorShape": {"dim": [{"size": "1"}]}}}, "dtype": {"type": "DT_INT32"}}}, {"name": "StatefulPartitionedCall/deeplabv3plus/expanded_conv_7//channelshuffle/reshape_54/strided_slice/stack_1", "op": "Const", "attr": {"value": {"tensor": {"dtype": "DT_INT32", "tensorShape": {"dim": [{"size": "1"}]}}}, "dtype": {"type": "DT_INT32"}}}, {"name": "StatefulPartitionedCall/deeplabv3plus/expanded_conv_7//channelshuffle/reshape_54/strided_slice/stack_2", "op": "Const", "attr": {"value": {"tensor": {"dtype": "DT_INT32", "tensorShape": {"dim": [{"size": "1"}]}}}, "dtype": {"type": "DT_INT32"}}}, {"name": "StatefulPartitionedCall/deeplabv3plus/expanded_conv_7//channelshuffle/reshape_54/Reshape/shape/1", "op": "Const", "attr": {"value": {"tensor": {"dtype": "DT_INT32", "tensorShape": {}}}, "dtype": {"type": "DT_INT32"}}}, {"name": "StatefulPartitionedCall/deeplabv3plus/expanded_conv_7//channelshuffle/reshape_54/Reshape/shape/2", "op": "Const", "attr": {"value": {"tensor": {"dtype": "DT_INT32", "tensorShape": {}}}, "dtype": {"type": "DT_INT32"}}}, {"name": "StatefulPartitionedCall/deeplabv3plus/expanded_conv_7//channelshuffle/reshape_54/Reshape/shape/3", "op": "Const", "attr": {"value": {"tensor": {"dtype": "DT_INT32", "tensorShape": {}}}, "dtype": {"type": "DT_INT32"}}}, {"name": "StatefulPartitionedCall/deeplabv3plus/expanded_conv_8//concat/concat/axis", "op": "Const", "attr": {"value": {"tensor": {"dtype": "DT_INT32", "tensorShape": {}}}, "dtype": {"type": "DT_INT32"}}}, {"name": "StatefulPartitionedCall/deeplabv3plus/expanded_conv_8//channelshuffle/reshape_55/strided_slice/stack", "op": "Const", "attr": {"value": {"tensor": {"dtype": "DT_INT32", "tensorShape": {"dim": [{"size": "1"}]}}}, "dtype": {"type": "DT_INT32"}}}, {"name": "StatefulPartitionedCall/deeplabv3plus/expanded_conv_8//channelshuffle/reshape_55/strided_slice/stack_1", "op": "Const", "attr": {"value": {"tensor": {"dtype": "DT_INT32", "tensorShape": {"dim": [{"size": "1"}]}}}, "dtype": {"type": "DT_INT32"}}}, {"name": "StatefulPartitionedCall/deeplabv3plus/expanded_conv_8//channelshuffle/reshape_55/strided_slice/stack_2", "op": "Const", "attr": {"value": {"tensor": {"dtype": "DT_INT32", "tensorShape": {"dim": [{"size": "1"}]}}}, "dtype": {"type": "DT_INT32"}}}, {"name": "StatefulPartitionedCall/deeplabv3plus/expanded_conv_8//channelshuffle/reshape_55/Reshape/shape/1", "op": "Const", "attr": {"value": {"tensor": {"dtype": "DT_INT32", "tensorShape": {}}}, "dtype": {"type": "DT_INT32"}}}, {"name": "StatefulPartitionedCall/deeplabv3plus/expanded_conv_8//channelshuffle/reshape_55/Reshape/shape/2", "op": "Const", "attr": {"value": {"tensor": {"dtype": "DT_INT32", "tensorShape": {}}}, "dtype": {"type": "DT_INT32"}}}, {"name": "StatefulPartitionedCall/deeplabv3plus/expanded_conv_8//channelshuffle/reshape_55/Reshape/shape/3", "op": "Const", "attr": {"value": {"tensor": {"dtype": "DT_INT32", "tensorShape": {}}}, "dtype": {"type": "DT_INT32"}}}, {"name": "StatefulPartitionedCall/deeplabv3plus/expanded_conv_8//channelshuffle/reshape_55/Reshape/shape/4", "op": "Const", "attr": {"value": {"tensor": {"dtype": "DT_INT32", "tensorShape": {}}}, "dtype": {"type": "DT_INT32"}}}, {"name": "StatefulPartitionedCall/deeplabv3plus/expanded_conv_8//channelshuffle/transpose/perm", "op": "Const", "attr": {"value": {"tensor": {"dtype": "DT_INT32", "tensorShape": {"dim": [{"size": "5"}]}}}, "dtype": {"type": "DT_INT32"}}}, {"name": "StatefulPartitionedCall/deeplabv3plus/expanded_conv_8//channelshuffle/reshape_56/strided_slice/stack", "op": "Const", "attr": {"value": {"tensor": {"dtype": "DT_INT32", "tensorShape": {"dim": [{"size": "1"}]}}}, "dtype": {"type": "DT_INT32"}}}, {"name": "StatefulPartitionedCall/deeplabv3plus/expanded_conv_8//channelshuffle/reshape_56/strided_slice/stack_1", "op": "Const", "attr": {"value": {"tensor": {"dtype": "DT_INT32", "tensorShape": {"dim": [{"size": "1"}]}}}, "dtype": {"type": "DT_INT32"}}}, {"name": "StatefulPartitionedCall/deeplabv3plus/expanded_conv_8//channelshuffle/reshape_56/strided_slice/stack_2", "op": "Const", "attr": {"value": {"tensor": {"dtype": "DT_INT32", "tensorShape": {"dim": [{"size": "1"}]}}}, "dtype": {"type": "DT_INT32"}}}, {"name": "StatefulPartitionedCall/deeplabv3plus/expanded_conv_8//channelshuffle/reshape_56/Reshape/shape/1", "op": "Const", "attr": {"value": {"tensor": {"dtype": "DT_INT32", "tensorShape": {}}}, "dtype": {"type": "DT_INT32"}}}, {"name": "StatefulPartitionedCall/deeplabv3plus/expanded_conv_8//channelshuffle/reshape_56/Reshape/shape/2", "op": "Const", "attr": {"value": {"tensor": {"dtype": "DT_INT32", "tensorShape": {}}}, "dtype": {"type": "DT_INT32"}}}, {"name": "StatefulPartitionedCall/deeplabv3plus/expanded_conv_8//channelshuffle/reshape_56/Reshape/shape/3", "op": "Const", "attr": {"value": {"tensor": {"dtype": "DT_INT32", "tensorShape": {}}}, "dtype": {"type": "DT_INT32"}}}, {"name": "StatefulPartitionedCall/deeplabv3plus/expanded_conv_9//concat/concat/axis", "op": "Const", "attr": {"value": {"tensor": {"dtype": "DT_INT32", "tensorShape": {}}}, "dtype": {"type": "DT_INT32"}}}, {"name": "StatefulPartitionedCall/deeplabv3plus/expanded_conv_9//channelshuffle/reshape_57/strided_slice/stack", "op": "Const", "attr": {"value": {"tensor": {"dtype": "DT_INT32", "tensorShape": {"dim": [{"size": "1"}]}}}, "dtype": {"type": "DT_INT32"}}}, {"name": "StatefulPartitionedCall/deeplabv3plus/expanded_conv_9//channelshuffle/reshape_57/strided_slice/stack_1", "op": "Const", "attr": {"value": {"tensor": {"dtype": "DT_INT32", "tensorShape": {"dim": [{"size": "1"}]}}}, "dtype": {"type": "DT_INT32"}}}, {"name": "StatefulPartitionedCall/deeplabv3plus/expanded_conv_9//channelshuffle/reshape_57/strided_slice/stack_2", "op": "Const", "attr": {"value": {"tensor": {"dtype": "DT_INT32", "tensorShape": {"dim": [{"size": "1"}]}}}, "dtype": {"type": "DT_INT32"}}}, {"name": "StatefulPartitionedCall/deeplabv3plus/expanded_conv_9//channelshuffle/reshape_57/Reshape/shape/1", "op": "Const", "attr": {"value": {"tensor": {"dtype": "DT_INT32", "tensorShape": {}}}, "dtype": {"type": "DT_INT32"}}}, {"name": "StatefulPartitionedCall/deeplabv3plus/expanded_conv_9//channelshuffle/reshape_57/Reshape/shape/2", "op": "Const", "attr": {"value": {"tensor": {"dtype": "DT_INT32", "tensorShape": {}}}, "dtype": {"type": "DT_INT32"}}}, {"name": "StatefulPartitionedCall/deeplabv3plus/expanded_conv_9//channelshuffle/reshape_57/Reshape/shape/3", "op": "Const", "attr": {"value": {"tensor": {"dtype": "DT_INT32", "tensorShape": {}}}, "dtype": {"type": "DT_INT32"}}}, {"name": "StatefulPartitionedCall/deeplabv3plus/expanded_conv_9//channelshuffle/reshape_57/Reshape/shape/4", "op": "Const", "attr": {"value": {"tensor": {"dtype": "DT_INT32", "tensorShape": {}}}, "dtype": {"type": "DT_INT32"}}}, {"name": "StatefulPartitionedCall/deeplabv3plus/expanded_conv_9//channelshuffle/transpose/perm", "op": "Const", "attr": {"value": {"tensor": {"dtype": "DT_INT32", "tensorShape": {"dim": [{"size": "5"}]}}}, "dtype": {"type": "DT_INT32"}}}, {"name": "StatefulPartitionedCall/deeplabv3plus/expanded_conv_9//channelshuffle/reshape_58/strided_slice/stack", "op": "Const", "attr": {"value": {"tensor": {"dtype": "DT_INT32", "tensorShape": {"dim": [{"size": "1"}]}}}, "dtype": {"type": "DT_INT32"}}}, {"name": "StatefulPartitionedCall/deeplabv3plus/expanded_conv_9//channelshuffle/reshape_58/strided_slice/stack_1", "op": "Const", "attr": {"value": {"tensor": {"dtype": "DT_INT32", "tensorShape": {"dim": [{"size": "1"}]}}}, "dtype": {"type": "DT_INT32"}}}, {"name": "StatefulPartitionedCall/deeplabv3plus/expanded_conv_9//channelshuffle/reshape_58/strided_slice/stack_2", "op": "Const", "attr": {"value": {"tensor": {"dtype": "DT_INT32", "tensorShape": {"dim": [{"size": "1"}]}}}, "dtype": {"type": "DT_INT32"}}}, {"name": "StatefulPartitionedCall/deeplabv3plus/expanded_conv_9//channelshuffle/reshape_58/Reshape/shape/1", "op": "Const", "attr": {"value": {"tensor": {"dtype": "DT_INT32", "tensorShape": {}}}, "dtype": {"type": "DT_INT32"}}}, {"name": "StatefulPartitionedCall/deeplabv3plus/expanded_conv_9//channelshuffle/reshape_58/Reshape/shape/2", "op": "Const", "attr": {"value": {"tensor": {"dtype": "DT_INT32", "tensorShape": {}}}, "dtype": {"type": "DT_INT32"}}}, {"name": "StatefulPartitionedCall/deeplabv3plus/expanded_conv_9//channelshuffle/reshape_58/Reshape/shape/3", "op": "Const", "attr": {"value": {"tensor": {"dtype": "DT_INT32", "tensorShape": {}}}, "dtype": {"type": "DT_INT32"}}}, {"name": "StatefulPartitionedCall/deeplabv3plus/expanded_conv_10//concat/concat/axis", "op": "Const", "attr": {"value": {"tensor": {"dtype": "DT_INT32", "tensorShape": {}}}, "dtype": {"type": "DT_INT32"}}}, {"name": "StatefulPartitionedCall/deeplabv3plus/expanded_conv_10//channelshuffle/reshape_60/strided_slice/stack", "op": "Const", "attr": {"value": {"tensor": {"dtype": "DT_INT32", "tensorShape": {"dim": [{"size": "1"}]}}}, "dtype": {"type": "DT_INT32"}}}, {"name": "StatefulPartitionedCall/deeplabv3plus/expanded_conv_10//channelshuffle/reshape_60/strided_slice/stack_1", "op": "Const", "attr": {"value": {"tensor": {"dtype": "DT_INT32", "tensorShape": {"dim": [{"size": "1"}]}}}, "dtype": {"type": "DT_INT32"}}}, {"name": "StatefulPartitionedCall/deeplabv3plus/expanded_conv_10//channelshuffle/reshape_60/strided_slice/stack_2", "op": "Const", "attr": {"value": {"tensor": {"dtype": "DT_INT32", "tensorShape": {"dim": [{"size": "1"}]}}}, "dtype": {"type": "DT_INT32"}}}, {"name": "StatefulPartitionedCall/deeplabv3plus/expanded_conv_10//channelshuffle/reshape_60/Reshape/shape/1", "op": "Const", "attr": {"value": {"tensor": {"dtype": "DT_INT32", "tensorShape": {}}}, "dtype": {"type": "DT_INT32"}}}, {"name": "StatefulPartitionedCall/deeplabv3plus/expanded_conv_10//channelshuffle/reshape_60/Reshape/shape/2", "op": "Const", "attr": {"value": {"tensor": {"dtype": "DT_INT32", "tensorShape": {}}}, "dtype": {"type": "DT_INT32"}}}, {"name": "StatefulPartitionedCall/deeplabv3plus/expanded_conv_10//channelshuffle/reshape_60/Reshape/shape/3", "op": "Const", "attr": {"value": {"tensor": {"dtype": "DT_INT32", "tensorShape": {}}}, "dtype": {"type": "DT_INT32"}}}, {"name": "StatefulPartitionedCall/deeplabv3plus/expanded_conv_10//channelshuffle/reshape_60/Reshape/shape/4", "op": "Const", "attr": {"value": {"tensor": {"dtype": "DT_INT32", "tensorShape": {}}}, "dtype": {"type": "DT_INT32"}}}, {"name": "StatefulPartitionedCall/deeplabv3plus/expanded_conv_10//channelshuffle/transpose/perm", "op": "Const", "attr": {"value": {"tensor": {"dtype": "DT_INT32", "tensorShape": {"dim": [{"size": "5"}]}}}, "dtype": {"type": "DT_INT32"}}}, {"name": "StatefulPartitionedCall/deeplabv3plus/expanded_conv_10//channelshuffle/reshape_61/strided_slice/stack", "op": "Const", "attr": {"value": {"tensor": {"dtype": "DT_INT32", "tensorShape": {"dim": [{"size": "1"}]}}}, "dtype": {"type": "DT_INT32"}}}, {"name": "StatefulPartitionedCall/deeplabv3plus/expanded_conv_10//channelshuffle/reshape_61/strided_slice/stack_1", "op": "Const", "attr": {"value": {"tensor": {"dtype": "DT_INT32", "tensorShape": {"dim": [{"size": "1"}]}}}, "dtype": {"type": "DT_INT32"}}}, {"name": "StatefulPartitionedCall/deeplabv3plus/expanded_conv_10//channelshuffle/reshape_61/strided_slice/stack_2", "op": "Const", "attr": {"value": {"tensor": {"dtype": "DT_INT32", "tensorShape": {"dim": [{"size": "1"}]}}}, "dtype": {"type": "DT_INT32"}}}, {"name": "StatefulPartitionedCall/deeplabv3plus/expanded_conv_10//channelshuffle/reshape_61/Reshape/shape/1", "op": "Const", "attr": {"value": {"tensor": {"dtype": "DT_INT32", "tensorShape": {}}}, "dtype": {"type": "DT_INT32"}}}, {"name": "StatefulPartitionedCall/deeplabv3plus/expanded_conv_10//channelshuffle/reshape_61/Reshape/shape/2", "op": "Const", "attr": {"value": {"tensor": {"dtype": "DT_INT32", "tensorShape": {}}}, "dtype": {"type": "DT_INT32"}}}, {"name": "StatefulPartitionedCall/deeplabv3plus/expanded_conv_10//channelshuffle/reshape_61/Reshape/shape/3", "op": "Const", "attr": {"value": {"tensor": {"dtype": "DT_INT32", "tensorShape": {}}}, "dtype": {"type": "DT_INT32"}}}, {"name": "StatefulPartitionedCall/deeplabv3plus/expanded_conv_11//concat/concat/axis", "op": "Const", "attr": {"value": {"tensor": {"dtype": "DT_INT32", "tensorShape": {}}}, "dtype": {"type": "DT_INT32"}}}, {"name": "StatefulPartitionedCall/deeplabv3plus/expanded_conv_11//channelshuffle/reshape_63/strided_slice/stack", "op": "Const", "attr": {"value": {"tensor": {"dtype": "DT_INT32", "tensorShape": {"dim": [{"size": "1"}]}}}, "dtype": {"type": "DT_INT32"}}}, {"name": "StatefulPartitionedCall/deeplabv3plus/expanded_conv_11//channelshuffle/reshape_63/strided_slice/stack_1", "op": "Const", "attr": {"value": {"tensor": {"dtype": "DT_INT32", "tensorShape": {"dim": [{"size": "1"}]}}}, "dtype": {"type": "DT_INT32"}}}, {"name": "StatefulPartitionedCall/deeplabv3plus/expanded_conv_11//channelshuffle/reshape_63/strided_slice/stack_2", "op": "Const", "attr": {"value": {"tensor": {"dtype": "DT_INT32", "tensorShape": {"dim": [{"size": "1"}]}}}, "dtype": {"type": "DT_INT32"}}}, {"name": "StatefulPartitionedCall/deeplabv3plus/expanded_conv_11//channelshuffle/reshape_63/Reshape/shape/1", "op": "Const", "attr": {"value": {"tensor": {"dtype": "DT_INT32", "tensorShape": {}}}, "dtype": {"type": "DT_INT32"}}}, {"name": "StatefulPartitionedCall/deeplabv3plus/expanded_conv_11//channelshuffle/reshape_63/Reshape/shape/2", "op": "Const", "attr": {"value": {"tensor": {"dtype": "DT_INT32", "tensorShape": {}}}, "dtype": {"type": "DT_INT32"}}}, {"name": "StatefulPartitionedCall/deeplabv3plus/expanded_conv_11//channelshuffle/reshape_63/Reshape/shape/3", "op": "Const", "attr": {"value": {"tensor": {"dtype": "DT_INT32", "tensorShape": {}}}, "dtype": {"type": "DT_INT32"}}}, {"name": "StatefulPartitionedCall/deeplabv3plus/expanded_conv_11//channelshuffle/reshape_63/Reshape/shape/4", "op": "Const", "attr": {"value": {"tensor": {"dtype": "DT_INT32", "tensorShape": {}}}, "dtype": {"type": "DT_INT32"}}}, {"name": "StatefulPartitionedCall/deeplabv3plus/expanded_conv_11//channelshuffle/transpose/perm", "op": "Const", "attr": {"value": {"tensor": {"dtype": "DT_INT32", "tensorShape": {"dim": [{"size": "5"}]}}}, "dtype": {"type": "DT_INT32"}}}, {"name": "StatefulPartitionedCall/deeplabv3plus/expanded_conv_11//channelshuffle/reshape_64/strided_slice/stack", "op": "Const", "attr": {"value": {"tensor": {"dtype": "DT_INT32", "tensorShape": {"dim": [{"size": "1"}]}}}, "dtype": {"type": "DT_INT32"}}}, {"name": "StatefulPartitionedCall/deeplabv3plus/expanded_conv_11//channelshuffle/reshape_64/strided_slice/stack_1", "op": "Const", "attr": {"value": {"tensor": {"dtype": "DT_INT32", "tensorShape": {"dim": [{"size": "1"}]}}}, "dtype": {"type": "DT_INT32"}}}, {"name": "StatefulPartitionedCall/deeplabv3plus/expanded_conv_11//channelshuffle/reshape_64/strided_slice/stack_2", "op": "Const", "attr": {"value": {"tensor": {"dtype": "DT_INT32", "tensorShape": {"dim": [{"size": "1"}]}}}, "dtype": {"type": "DT_INT32"}}}, {"name": "StatefulPartitionedCall/deeplabv3plus/expanded_conv_11//channelshuffle/reshape_64/Reshape/shape/1", "op": "Const", "attr": {"value": {"tensor": {"dtype": "DT_INT32", "tensorShape": {}}}, "dtype": {"type": "DT_INT32"}}}, {"name": "StatefulPartitionedCall/deeplabv3plus/expanded_conv_11//channelshuffle/reshape_64/Reshape/shape/2", "op": "Const", "attr": {"value": {"tensor": {"dtype": "DT_INT32", "tensorShape": {}}}, "dtype": {"type": "DT_INT32"}}}, {"name": "StatefulPartitionedCall/deeplabv3plus/expanded_conv_11//channelshuffle/reshape_64/Reshape/shape/3", "op": "Const", "attr": {"value": {"tensor": {"dtype": "DT_INT32", "tensorShape": {}}}, "dtype": {"type": "DT_INT32"}}}, {"name": "StatefulPartitionedCall/deeplabv3plus/expanded_conv_12//concat/concat/axis", "op": "Const", "attr": {"value": {"tensor": {"dtype": "DT_INT32", "tensorShape": {}}}, "dtype": {"type": "DT_INT32"}}}, {"name": "StatefulPartitionedCall/deeplabv3plus/expanded_conv_12//channelshuffle/reshape_66/strided_slice/stack", "op": "Const", "attr": {"value": {"tensor": {"dtype": "DT_INT32", "tensorShape": {"dim": [{"size": "1"}]}}}, "dtype": {"type": "DT_INT32"}}}, {"name": "StatefulPartitionedCall/deeplabv3plus/expanded_conv_12//channelshuffle/reshape_66/strided_slice/stack_1", "op": "Const", "attr": {"value": {"tensor": {"dtype": "DT_INT32", "tensorShape": {"dim": [{"size": "1"}]}}}, "dtype": {"type": "DT_INT32"}}}, {"name": "StatefulPartitionedCall/deeplabv3plus/expanded_conv_12//channelshuffle/reshape_66/strided_slice/stack_2", "op": "Const", "attr": {"value": {"tensor": {"dtype": "DT_INT32", "tensorShape": {"dim": [{"size": "1"}]}}}, "dtype": {"type": "DT_INT32"}}}, {"name": "StatefulPartitionedCall/deeplabv3plus/expanded_conv_12//channelshuffle/reshape_66/Reshape/shape/1", "op": "Const", "attr": {"value": {"tensor": {"dtype": "DT_INT32", "tensorShape": {}}}, "dtype": {"type": "DT_INT32"}}}, {"name": "StatefulPartitionedCall/deeplabv3plus/expanded_conv_12//channelshuffle/reshape_66/Reshape/shape/2", "op": "Const", "attr": {"value": {"tensor": {"dtype": "DT_INT32", "tensorShape": {}}}, "dtype": {"type": "DT_INT32"}}}, {"name": "StatefulPartitionedCall/deeplabv3plus/expanded_conv_12//channelshuffle/reshape_66/Reshape/shape/3", "op": "Const", "attr": {"value": {"tensor": {"dtype": "DT_INT32", "tensorShape": {}}}, "dtype": {"type": "DT_INT32"}}}, {"name": "StatefulPartitionedCall/deeplabv3plus/expanded_conv_12//channelshuffle/reshape_66/Reshape/shape/4", "op": "Const", "attr": {"value": {"tensor": {"dtype": "DT_INT32", "tensorShape": {}}}, "dtype": {"type": "DT_INT32"}}}, {"name": "StatefulPartitionedCall/deeplabv3plus/expanded_conv_12//channelshuffle/transpose/perm", "op": "Const", "attr": {"value": {"tensor": {"dtype": "DT_INT32", "tensorShape": {"dim": [{"size": "5"}]}}}, "dtype": {"type": "DT_INT32"}}}, {"name": "StatefulPartitionedCall/deeplabv3plus/expanded_conv_12//channelshuffle/reshape_67/strided_slice/stack", "op": "Const", "attr": {"value": {"tensor": {"dtype": "DT_INT32", "tensorShape": {"dim": [{"size": "1"}]}}}, "dtype": {"type": "DT_INT32"}}}, {"name": "StatefulPartitionedCall/deeplabv3plus/expanded_conv_12//channelshuffle/reshape_67/strided_slice/stack_1", "op": "Const", "attr": {"value": {"tensor": {"dtype": "DT_INT32", "tensorShape": {"dim": [{"size": "1"}]}}}, "dtype": {"type": "DT_INT32"}}}, {"name": "StatefulPartitionedCall/deeplabv3plus/expanded_conv_12//channelshuffle/reshape_67/strided_slice/stack_2", "op": "Const", "attr": {"value": {"tensor": {"dtype": "DT_INT32", "tensorShape": {"dim": [{"size": "1"}]}}}, "dtype": {"type": "DT_INT32"}}}, {"name": "StatefulPartitionedCall/deeplabv3plus/expanded_conv_12//channelshuffle/reshape_67/Reshape/shape/1", "op": "Const", "attr": {"value": {"tensor": {"dtype": "DT_INT32", "tensorShape": {}}}, "dtype": {"type": "DT_INT32"}}}, {"name": "StatefulPartitionedCall/deeplabv3plus/expanded_conv_12//channelshuffle/reshape_67/Reshape/shape/2", "op": "Const", "attr": {"value": {"tensor": {"dtype": "DT_INT32", "tensorShape": {}}}, "dtype": {"type": "DT_INT32"}}}, {"name": "StatefulPartitionedCall/deeplabv3plus/expanded_conv_12//channelshuffle/reshape_67/Reshape/shape/3", "op": "Const", "attr": {"value": {"tensor": {"dtype": "DT_INT32", "tensorShape": {}}}, "dtype": {"type": "DT_INT32"}}}, {"name": "StatefulPartitionedCall/deeplabv3plus/concatenate_8/concat/axis", "op": "Const", "attr": {"value": {"tensor": {"dtype": "DT_INT32", "tensorShape": {}}}, "dtype": {"type": "DT_INT32"}}}, {"name": "StatefulPartitionedCall/deeplabv3plus/aspp1_depthwise/depthwise/SpaceToBatchND/block_shape", "op": "Const", "attr": {"value": {"tensor": {"dtype": "DT_INT32", "tensorShape": {"dim": [{"size": "2"}]}}}, "dtype": {"type": "DT_INT32"}}}, {"name": "StatefulPartitionedCall/deeplabv3plus/aspp1_depthwise/depthwise/SpaceToBatchND/paddings", "op": "Const", "attr": {"value": {"tensor": {"dtype": "DT_INT32", "tensorShape": {"dim": [{"size": "2"}, {"size": "2"}]}}}, "dtype": {"type": "DT_INT32"}}}, {"name": "StatefulPartitionedCall/deeplabv3plus/aspp1_depthwise/depthwise/ReadVariableOp", "op": "Const", "attr": {"value": {"tensor": {"dtype": "DT_FLOAT", "tensorShape": {"dim": [{"size": "3"}, {"size": "3"}, {"size": "510"}, {"size": "1"}]}}}, "dtype": {"type": "DT_FLOAT"}}}, {"name": "StatefulPartitionedCall/deeplabv3plus/aspp1_depthwise/depthwise/BatchToSpaceND/block_shape", "op": "Const", "attr": {"value": {"tensor": {"dtype": "DT_INT32", "tensorShape": {"dim": [{"size": "2"}]}}}, "dtype": {"type": "DT_INT32"}}}, {"name": "StatefulPartitionedCall/deeplabv3plus/aspp1_depthwise/depthwise/BatchToSpaceND/crops", "op": "Const", "attr": {"value": {"tensor": {"dtype": "DT_INT32", "tensorShape": {"dim": [{"size": "2"}, {"size": "2"}]}}}, "dtype": {"type": "DT_INT32"}}}, {"name": "StatefulPartitionedCall/deeplabv3plus/concatenate_9/concat/axis", "op": "Const", "attr": {"value": {"tensor": {"dtype": "DT_INT32", "tensorShape": {}}}, "dtype": {"type": "DT_INT32"}}}, {"name": "StatefulPartitionedCall/deeplabv3plus/aspp2_depthwise/depthwise/SpaceToBatchND/block_shape", "op": "Const", "attr": {"value": {"tensor": {"dtype": "DT_INT32", "tensorShape": {"dim": [{"size": "2"}]}}}, "dtype": {"type": "DT_INT32"}}}, {"name": "StatefulPartitionedCall/deeplabv3plus/aspp2_depthwise/depthwise/SpaceToBatchND/paddings", "op": "Const", "attr": {"value": {"tensor": {"dtype": "DT_INT32", "tensorShape": {"dim": [{"size": "2"}, {"size": "2"}]}}}, "dtype": {"type": "DT_INT32"}}}, {"name": "StatefulPartitionedCall/deeplabv3plus/aspp2_depthwise/depthwise/ReadVariableOp", "op": "Const", "attr": {"value": {"tensor": {"dtype": "DT_FLOAT", "tensorShape": {"dim": [{"size": "3"}, {"size": "3"}, {"size": "766"}, {"size": "1"}]}}}, "dtype": {"type": "DT_FLOAT"}}}, {"name": "StatefulPartitionedCall/deeplabv3plus/aspp2_depthwise/depthwise/BatchToSpaceND/block_shape", "op": "Const", "attr": {"value": {"tensor": {"dtype": "DT_INT32", "tensorShape": {"dim": [{"size": "2"}]}}}, "dtype": {"type": "DT_INT32"}}}, {"name": "StatefulPartitionedCall/deeplabv3plus/aspp2_depthwise/depthwise/BatchToSpaceND/crops", "op": "Const", "attr": {"value": {"tensor": {"dtype": "DT_INT32", "tensorShape": {"dim": [{"size": "2"}, {"size": "2"}]}}}, "dtype": {"type": "DT_INT32"}}}, {"name": "StatefulPartitionedCall/deeplabv3plus/concatenate_10/concat/axis", "op": "Const", "attr": {"value": {"tensor": {"dtype": "DT_INT32", "tensorShape": {}}}, "dtype": {"type": "DT_INT32"}}}, {"name": "StatefulPartitionedCall/deeplabv3plus/aspp3_depthwise/depthwise/SpaceToBatchND/block_shape", "op": "Const", "attr": {"value": {"tensor": {"dtype": "DT_INT32", "tensorShape": {"dim": [{"size": "2"}]}}}, "dtype": {"type": "DT_INT32"}}}, {"name": "StatefulPartitionedCall/deeplabv3plus/aspp3_depthwise/depthwise/SpaceToBatchND/paddings", "op": "Const", "attr": {"value": {"tensor": {"dtype": "DT_INT32", "tensorShape": {"dim": [{"size": "2"}, {"size": "2"}]}}}, "dtype": {"type": "DT_INT32"}}}, {"name": "StatefulPartitionedCall/deeplabv3plus/aspp3_depthwise/depthwise/ReadVariableOp", "op": "Const", "attr": {"value": {"tensor": {"dtype": "DT_FLOAT", "tensorShape": {"dim": [{"size": "3"}, {"size": "3"}, {"size": "1022"}, {"size": "1"}]}}}, "dtype": {"type": "DT_FLOAT"}}}, {"name": "StatefulPartitionedCall/deeplabv3plus/aspp3_depthwise/depthwise/BatchToSpaceND/block_shape", "op": "Const", "attr": {"value": {"tensor": {"dtype": "DT_INT32", "tensorShape": {"dim": [{"size": "2"}]}}}, "dtype": {"type": "DT_INT32"}}}, {"name": "StatefulPartitionedCall/deeplabv3plus/aspp3_depthwise/depthwise/BatchToSpaceND/crops", "op": "Const", "attr": {"value": {"tensor": {"dtype": "DT_INT32", "tensorShape": {"dim": [{"size": "2"}, {"size": "2"}]}}}, "dtype": {"type": "DT_INT32"}}}, {"name": "StatefulPartitionedCall/deeplabv3plus/concatenate_12/concat/axis", "op": "Const", "attr": {"value": {"tensor": {"dtype": "DT_INT32", "tensorShape": {}}}, "dtype": {"type": "DT_INT32"}}}, {"name": "StatefulPartitionedCall/deeplabv3plus/concat_projection/Conv2D/ReadVariableOp", "op": "Const", "attr": {"value": {"tensor": {"dtype": "DT_FLOAT", "tensorShape": {"dim": [{"size": "1"}, {"size": "1"}, {"size": "1280"}, {"size": "256"}]}}}, "dtype": {"type": "DT_FLOAT"}}}, {"name": "StatefulPartitionedCall/deeplabv3plus/global_average_pooling2d_4/Mean/reduction_indices", "op": "Const", "attr": {"value": {"tensor": {"dtype": "DT_INT32", "tensorShape": {"dim": [{"size": "2"}]}}}, "dtype": {"type": "DT_INT32"}}}, {"name": "StatefulPartitionedCall/deeplabv3plus/reshape_68/strided_slice/stack", "op": "Const", "attr": {"value": {"tensor": {"dtype": "DT_INT32", "tensorShape": {"dim": [{"size": "1"}]}}}, "dtype": {"type": "DT_INT32"}}}, {"name": "StatefulPartitionedCall/deeplabv3plus/reshape_68/strided_slice/stack_1", "op": "Const", "attr": {"value": {"tensor": {"dtype": "DT_INT32", "tensorShape": {"dim": [{"size": "1"}]}}}, "dtype": {"type": "DT_INT32"}}}, {"name": "StatefulPartitionedCall/deeplabv3plus/reshape_68/strided_slice/stack_2", "op": "Const", "attr": {"value": {"tensor": {"dtype": "DT_INT32", "tensorShape": {"dim": [{"size": "1"}]}}}, "dtype": {"type": "DT_INT32"}}}, {"name": "StatefulPartitionedCall/deeplabv3plus/reshape_68/Reshape/shape/1", "op": "Const", "attr": {"value": {"tensor": {"dtype": "DT_INT32", "tensorShape": {}}}, "dtype": {"type": "DT_INT32"}}}, {"name": "StatefulPartitionedCall/deeplabv3plus/reshape_68/Reshape/shape/2", "op": "Const", "attr": {"value": {"tensor": {"dtype": "DT_INT32", "tensorShape": {}}}, "dtype": {"type": "DT_INT32"}}}, {"name": "StatefulPartitionedCall/deeplabv3plus/conv1d_2/conv1d/ExpandDims/dim", "op": "Const", "attr": {"value": {"tensor": {"dtype": "DT_INT32", "tensorShape": {}}}, "dtype": {"type": "DT_INT32"}}}, {"name": "StatefulPartitionedCall/deeplabv3plus/conv1d_2/conv1d/ExpandDims_1", "op": "Const", "attr": {"value": {"tensor": {"dtype": "DT_FLOAT", "tensorShape": {"dim": [{"size": "1"}, {"size": "5"}, {"size": "1"}, {"size": "1"}]}}}, "dtype": {"type": "DT_FLOAT"}}}, {"name": "StatefulPartitionedCall/deeplabv3plus/reshape_69/strided_slice/stack", "op": "Const", "attr": {"value": {"tensor": {"dtype": "DT_INT32", "tensorShape": {"dim": [{"size": "1"}]}}}, "dtype": {"type": "DT_INT32"}}}, {"name": "StatefulPartitionedCall/deeplabv3plus/reshape_69/strided_slice/stack_1", "op": "Const", "attr": {"value": {"tensor": {"dtype": "DT_INT32", "tensorShape": {"dim": [{"size": "1"}]}}}, "dtype": {"type": "DT_INT32"}}}, {"name": "StatefulPartitionedCall/deeplabv3plus/reshape_69/strided_slice/stack_2", "op": "Const", "attr": {"value": {"tensor": {"dtype": "DT_INT32", "tensorShape": {"dim": [{"size": "1"}]}}}, "dtype": {"type": "DT_INT32"}}}, {"name": "StatefulPartitionedCall/deeplabv3plus/reshape_69/Reshape/shape/1", "op": "Const", "attr": {"value": {"tensor": {"dtype": "DT_INT32", "tensorShape": {}}}, "dtype": {"type": "DT_INT32"}}}, {"name": "StatefulPartitionedCall/deeplabv3plus/reshape_69/Reshape/shape/2", "op": "Const", "attr": {"value": {"tensor": {"dtype": "DT_INT32", "tensorShape": {}}}, "dtype": {"type": "DT_INT32"}}}, {"name": "StatefulPartitionedCall/deeplabv3plus/reshape_69/Reshape/shape/3", "op": "Const", "attr": {"value": {"tensor": {"dtype": "DT_INT32", "tensorShape": {}}}, "dtype": {"type": "DT_INT32"}}}, {"name": "StatefulPartitionedCall/deeplabv3plus/lambda_13/Max/reduction_indices", "op": "Const", "attr": {"value": {"tensor": {"dtype": "DT_INT32", "tensorShape": {}}}, "dtype": {"type": "DT_INT32"}}}, {"name": "StatefulPartitionedCall/deeplabv3plus/concatenate_13/concat/axis", "op": "Const", "attr": {"value": {"tensor": {"dtype": "DT_INT32", "tensorShape": {}}}, "dtype": {"type": "DT_INT32"}}}, {"name": "StatefulPartitionedCall/deeplabv3plus/conv2d_10/Conv2D/ReadVariableOp", "op": "Const", "attr": {"value": {"tensor": {"dtype": "DT_FLOAT", "tensorShape": {"dim": [{"size": "7"}, {"size": "7"}, {"size": "2"}, {"size": "1"}]}}}, "dtype": {"type": "DT_FLOAT"}}}, {"name": "StatefulPartitionedCall/deeplabv3plus/lambda_14/resize/size", "op": "Const", "attr": {"value": {"tensor": {"dtype": "DT_INT32", "tensorShape": {"dim": [{"size": "2"}]}}}, "dtype": {"type": "DT_INT32"}}}, {"name": "StatefulPartitionedCall/deeplabv3plus/lambda_15/Mean/reduction_indices", "op": "Const", "attr": {"value": {"tensor": {"dtype": "DT_INT32", "tensorShape": {}}}, "dtype": {"type": "DT_INT32"}}}, {"name": "StatefulPartitionedCall/deeplabv3plus/expanded_conv//split2/split/split_dim", "op": "Const", "attr": {"value": {"tensor": {"dtype": "DT_INT32", "tensorShape": {}}}, "dtype": {"type": "DT_INT32"}}}, {"name": "StatefulPartitionedCall/deeplabv3plus/expanded_conv//split0/split/split_dim", "op": "Const", "attr": {"value": {"tensor": {"dtype": "DT_INT32", "tensorShape": {}}}, "dtype": {"type": "DT_INT32"}}}, {"name": "StatefulPartitionedCall/deeplabv3plus/Conv/HardSwish/hard_sigmoid_15/mul/y", "op": "Const", "attr": {"value": {"tensor": {"dtype": "DT_FLOAT", "tensorShape": {}}}, "dtype": {"type": "DT_FLOAT"}}}, {"name": "StatefulPartitionedCall/deeplabv3plus/Conv/HardSwish/hard_sigmoid_15/add/y", "op": "Const", "attr": {"value": {"tensor": {"dtype": "DT_FLOAT", "tensorShape": {}}}, "dtype": {"type": "DT_FLOAT"}}}, {"name": "StatefulPartitionedCall/deeplabv3plus/expanded_conv//concat/concat/axis", "op": "Const", "attr": {"value": {"tensor": {"dtype": "DT_INT32", "tensorShape": {}}}, "dtype": {"type": "DT_INT32"}}}, {"name": "StatefulPartitionedCall/deeplabv3plus/expanded_conv//channelshuffle/reshape_36/strided_slice/stack", "op": "Const", "attr": {"value": {"tensor": {"dtype": "DT_INT32", "tensorShape": {"dim": [{"size": "1"}]}}}, "dtype": {"type": "DT_INT32"}}}, {"name": "StatefulPartitionedCall/deeplabv3plus/expanded_conv//channelshuffle/reshape_36/strided_slice/stack_1", "op": "Const", "attr": {"value": {"tensor": {"dtype": "DT_INT32", "tensorShape": {"dim": [{"size": "1"}]}}}, "dtype": {"type": "DT_INT32"}}}, {"name": "StatefulPartitionedCall/deeplabv3plus/expanded_conv//channelshuffle/reshape_36/strided_slice/stack_2", "op": "Const", "attr": {"value": {"tensor": {"dtype": "DT_INT32", "tensorShape": {"dim": [{"size": "1"}]}}}, "dtype": {"type": "DT_INT32"}}}, {"name": "StatefulPartitionedCall/deeplabv3plus/expanded_conv//channelshuffle/reshape_36/Reshape/shape/1", "op": "Const", "attr": {"value": {"tensor": {"dtype": "DT_INT32", "tensorShape": {}}}, "dtype": {"type": "DT_INT32"}}}, {"name": "StatefulPartitionedCall/deeplabv3plus/expanded_conv//channelshuffle/reshape_36/Reshape/shape/2", "op": "Const", "attr": {"value": {"tensor": {"dtype": "DT_INT32", "tensorShape": {}}}, "dtype": {"type": "DT_INT32"}}}, {"name": "StatefulPartitionedCall/deeplabv3plus/expanded_conv//channelshuffle/reshape_36/Reshape/shape/3", "op": "Const", "attr": {"value": {"tensor": {"dtype": "DT_INT32", "tensorShape": {}}}, "dtype": {"type": "DT_INT32"}}}, {"name": "StatefulPartitionedCall/deeplabv3plus/expanded_conv//channelshuffle/reshape_36/Reshape/shape/4", "op": "Const", "attr": {"value": {"tensor": {"dtype": "DT_INT32", "tensorShape": {}}}, "dtype": {"type": "DT_INT32"}}}, {"name": "StatefulPartitionedCall/deeplabv3plus/expanded_conv//channelshuffle/transpose/perm", "op": "Const", "attr": {"value": {"tensor": {"dtype": "DT_INT32", "tensorShape": {"dim": [{"size": "5"}]}}}, "dtype": {"type": "DT_INT32"}}}, {"name": "StatefulPartitionedCall/deeplabv3plus/expanded_conv//channelshuffle/reshape_37/strided_slice/stack", "op": "Const", "attr": {"value": {"tensor": {"dtype": "DT_INT32", "tensorShape": {"dim": [{"size": "1"}]}}}, "dtype": {"type": "DT_INT32"}}}, {"name": "StatefulPartitionedCall/deeplabv3plus/expanded_conv//channelshuffle/reshape_37/strided_slice/stack_1", "op": "Const", "attr": {"value": {"tensor": {"dtype": "DT_INT32", "tensorShape": {"dim": [{"size": "1"}]}}}, "dtype": {"type": "DT_INT32"}}}, {"name": "StatefulPartitionedCall/deeplabv3plus/expanded_conv//channelshuffle/reshape_37/strided_slice/stack_2", "op": "Const", "attr": {"value": {"tensor": {"dtype": "DT_INT32", "tensorShape": {"dim": [{"size": "1"}]}}}, "dtype": {"type": "DT_INT32"}}}, {"name": "StatefulPartitionedCall/deeplabv3plus/expanded_conv//channelshuffle/reshape_37/Reshape/shape/1", "op": "Const", "attr": {"value": {"tensor": {"dtype": "DT_INT32", "tensorShape": {}}}, "dtype": {"type": "DT_INT32"}}}, {"name": "StatefulPartitionedCall/deeplabv3plus/expanded_conv//channelshuffle/reshape_37/Reshape/shape/2", "op": "Const", "attr": {"value": {"tensor": {"dtype": "DT_INT32", "tensorShape": {}}}, "dtype": {"type": "DT_INT32"}}}, {"name": "StatefulPartitionedCall/deeplabv3plus/expanded_conv//channelshuffle/reshape_37/Reshape/shape/3", "op": "Const", "attr": {"value": {"tensor": {"dtype": "DT_INT32", "tensorShape": {}}}, "dtype": {"type": "DT_INT32"}}}, {"name": "StatefulPartitionedCall/deeplabv3plus/expanded_conv_1//concat/concat/axis", "op": "Const", "attr": {"value": {"tensor": {"dtype": "DT_INT32", "tensorShape": {}}}, "dtype": {"type": "DT_INT32"}}}, {"name": "StatefulPartitionedCall/deeplabv3plus/expanded_conv_1//channelshuffle/reshape_38/strided_slice/stack", "op": "Const", "attr": {"value": {"tensor": {"dtype": "DT_INT32", "tensorShape": {"dim": [{"size": "1"}]}}}, "dtype": {"type": "DT_INT32"}}}, {"name": "StatefulPartitionedCall/deeplabv3plus/expanded_conv_1//channelshuffle/reshape_38/strided_slice/stack_1", "op": "Const", "attr": {"value": {"tensor": {"dtype": "DT_INT32", "tensorShape": {"dim": [{"size": "1"}]}}}, "dtype": {"type": "DT_INT32"}}}, {"name": "StatefulPartitionedCall/deeplabv3plus/expanded_conv_1//channelshuffle/reshape_38/strided_slice/stack_2", "op": "Const", "attr": {"value": {"tensor": {"dtype": "DT_INT32", "tensorShape": {"dim": [{"size": "1"}]}}}, "dtype": {"type": "DT_INT32"}}}, {"name": "StatefulPartitionedCall/deeplabv3plus/expanded_conv_1//channelshuffle/reshape_38/Reshape/shape/1", "op": "Const", "attr": {"value": {"tensor": {"dtype": "DT_INT32", "tensorShape": {}}}, "dtype": {"type": "DT_INT32"}}}, {"name": "StatefulPartitionedCall/deeplabv3plus/expanded_conv_1//channelshuffle/reshape_38/Reshape/shape/2", "op": "Const", "attr": {"value": {"tensor": {"dtype": "DT_INT32", "tensorShape": {}}}, "dtype": {"type": "DT_INT32"}}}, {"name": "StatefulPartitionedCall/deeplabv3plus/expanded_conv_1//channelshuffle/reshape_38/Reshape/shape/3", "op": "Const", "attr": {"value": {"tensor": {"dtype": "DT_INT32", "tensorShape": {}}}, "dtype": {"type": "DT_INT32"}}}, {"name": "StatefulPartitionedCall/deeplabv3plus/expanded_conv_1//channelshuffle/reshape_38/Reshape/shape/4", "op": "Const", "attr": {"value": {"tensor": {"dtype": "DT_INT32", "tensorShape": {}}}, "dtype": {"type": "DT_INT32"}}}, {"name": "StatefulPartitionedCall/deeplabv3plus/expanded_conv_1//channelshuffle/transpose/perm", "op": "Const", "attr": {"value": {"tensor": {"dtype": "DT_INT32", "tensorShape": {"dim": [{"size": "5"}]}}}, "dtype": {"type": "DT_INT32"}}}, {"name": "StatefulPartitionedCall/deeplabv3plus/expanded_conv_1//channelshuffle/reshape_39/strided_slice/stack", "op": "Const", "attr": {"value": {"tensor": {"dtype": "DT_INT32", "tensorShape": {"dim": [{"size": "1"}]}}}, "dtype": {"type": "DT_INT32"}}}, {"name": "StatefulPartitionedCall/deeplabv3plus/expanded_conv_1//channelshuffle/reshape_39/strided_slice/stack_1", "op": "Const", "attr": {"value": {"tensor": {"dtype": "DT_INT32", "tensorShape": {"dim": [{"size": "1"}]}}}, "dtype": {"type": "DT_INT32"}}}, {"name": "StatefulPartitionedCall/deeplabv3plus/expanded_conv_1//channelshuffle/reshape_39/strided_slice/stack_2", "op": "Const", "attr": {"value": {"tensor": {"dtype": "DT_INT32", "tensorShape": {"dim": [{"size": "1"}]}}}, "dtype": {"type": "DT_INT32"}}}, {"name": "StatefulPartitionedCall/deeplabv3plus/expanded_conv_1//channelshuffle/reshape_39/Reshape/shape/1", "op": "Const", "attr": {"value": {"tensor": {"dtype": "DT_INT32", "tensorShape": {}}}, "dtype": {"type": "DT_INT32"}}}, {"name": "StatefulPartitionedCall/deeplabv3plus/expanded_conv_1//channelshuffle/reshape_39/Reshape/shape/2", "op": "Const", "attr": {"value": {"tensor": {"dtype": "DT_INT32", "tensorShape": {}}}, "dtype": {"type": "DT_INT32"}}}, {"name": "StatefulPartitionedCall/deeplabv3plus/expanded_conv_1//channelshuffle/reshape_39/Reshape/shape/3", "op": "Const", "attr": {"value": {"tensor": {"dtype": "DT_INT32", "tensorShape": {}}}, "dtype": {"type": "DT_INT32"}}}, {"name": "StatefulPartitionedCall/deeplabv3plus/expanded_conv_2//concat/concat/axis", "op": "Const", "attr": {"value": {"tensor": {"dtype": "DT_INT32", "tensorShape": {}}}, "dtype": {"type": "DT_INT32"}}}, {"name": "StatefulPartitionedCall/deeplabv3plus/expanded_conv_2//channelshuffle/reshape_40/strided_slice/stack", "op": "Const", "attr": {"value": {"tensor": {"dtype": "DT_INT32", "tensorShape": {"dim": [{"size": "1"}]}}}, "dtype": {"type": "DT_INT32"}}}, {"name": "StatefulPartitionedCall/deeplabv3plus/expanded_conv_2//channelshuffle/reshape_40/strided_slice/stack_1", "op": "Const", "attr": {"value": {"tensor": {"dtype": "DT_INT32", "tensorShape": {"dim": [{"size": "1"}]}}}, "dtype": {"type": "DT_INT32"}}}, {"name": "StatefulPartitionedCall/deeplabv3plus/expanded_conv_2//channelshuffle/reshape_40/strided_slice/stack_2", "op": "Const", "attr": {"value": {"tensor": {"dtype": "DT_INT32", "tensorShape": {"dim": [{"size": "1"}]}}}, "dtype": {"type": "DT_INT32"}}}, {"name": "StatefulPartitionedCall/deeplabv3plus/expanded_conv_2//channelshuffle/reshape_40/Reshape/shape/1", "op": "Const", "attr": {"value": {"tensor": {"dtype": "DT_INT32", "tensorShape": {}}}, "dtype": {"type": "DT_INT32"}}}, {"name": "StatefulPartitionedCall/deeplabv3plus/expanded_conv_2//channelshuffle/reshape_40/Reshape/shape/2", "op": "Const", "attr": {"value": {"tensor": {"dtype": "DT_INT32", "tensorShape": {}}}, "dtype": {"type": "DT_INT32"}}}, {"name": "StatefulPartitionedCall/deeplabv3plus/expanded_conv_2//channelshuffle/reshape_40/Reshape/shape/3", "op": "Const", "attr": {"value": {"tensor": {"dtype": "DT_INT32", "tensorShape": {}}}, "dtype": {"type": "DT_INT32"}}}, {"name": "StatefulPartitionedCall/deeplabv3plus/expanded_conv_2//channelshuffle/reshape_40/Reshape/shape/4", "op": "Const", "attr": {"value": {"tensor": {"dtype": "DT_INT32", "tensorShape": {}}}, "dtype": {"type": "DT_INT32"}}}, {"name": "StatefulPartitionedCall/deeplabv3plus/expanded_conv_2//channelshuffle/transpose/perm", "op": "Const", "attr": {"value": {"tensor": {"dtype": "DT_INT32", "tensorShape": {"dim": [{"size": "5"}]}}}, "dtype": {"type": "DT_INT32"}}}, {"name": "StatefulPartitionedCall/deeplabv3plus/expanded_conv_2//channelshuffle/reshape_41/strided_slice/stack", "op": "Const", "attr": {"value": {"tensor": {"dtype": "DT_INT32", "tensorShape": {"dim": [{"size": "1"}]}}}, "dtype": {"type": "DT_INT32"}}}, {"name": "StatefulPartitionedCall/deeplabv3plus/expanded_conv_2//channelshuffle/reshape_41/strided_slice/stack_1", "op": "Const", "attr": {"value": {"tensor": {"dtype": "DT_INT32", "tensorShape": {"dim": [{"size": "1"}]}}}, "dtype": {"type": "DT_INT32"}}}, {"name": "StatefulPartitionedCall/deeplabv3plus/expanded_conv_2//channelshuffle/reshape_41/strided_slice/stack_2", "op": "Const", "attr": {"value": {"tensor": {"dtype": "DT_INT32", "tensorShape": {"dim": [{"size": "1"}]}}}, "dtype": {"type": "DT_INT32"}}}, {"name": "StatefulPartitionedCall/deeplabv3plus/expanded_conv_2//channelshuffle/reshape_41/Reshape/shape/1", "op": "Const", "attr": {"value": {"tensor": {"dtype": "DT_INT32", "tensorShape": {}}}, "dtype": {"type": "DT_INT32"}}}, {"name": "StatefulPartitionedCall/deeplabv3plus/expanded_conv_2//channelshuffle/reshape_41/Reshape/shape/2", "op": "Const", "attr": {"value": {"tensor": {"dtype": "DT_INT32", "tensorShape": {}}}, "dtype": {"type": "DT_INT32"}}}, {"name": "StatefulPartitionedCall/deeplabv3plus/expanded_conv_2//channelshuffle/reshape_41/Reshape/shape/3", "op": "Const", "attr": {"value": {"tensor": {"dtype": "DT_INT32", "tensorShape": {}}}, "dtype": {"type": "DT_INT32"}}}, {"name": "StatefulPartitionedCall/deeplabv3plus/feature_projection0/Conv2D/ReadVariableOp", "op": "Const", "attr": {"value": {"tensor": {"dtype": "DT_FLOAT", "tensorShape": {"dim": [{"size": "1"}, {"size": "1"}, {"size": "48"}, {"size": "48"}]}}}, "dtype": {"type": "DT_FLOAT"}}}, {"name": "StatefulPartitionedCall/deeplabv3plus/global_average_pooling2d_5/Mean/reduction_indices", "op": "Const", "attr": {"value": {"tensor": {"dtype": "DT_INT32", "tensorShape": {"dim": [{"size": "2"}]}}}, "dtype": {"type": "DT_INT32"}}}, {"name": "StatefulPartitionedCall/deeplabv3plus/reshape_70/strided_slice/stack", "op": "Const", "attr": {"value": {"tensor": {"dtype": "DT_INT32", "tensorShape": {"dim": [{"size": "1"}]}}}, "dtype": {"type": "DT_INT32"}}}, {"name": "StatefulPartitionedCall/deeplabv3plus/reshape_70/strided_slice/stack_1", "op": "Const", "attr": {"value": {"tensor": {"dtype": "DT_INT32", "tensorShape": {"dim": [{"size": "1"}]}}}, "dtype": {"type": "DT_INT32"}}}, {"name": "StatefulPartitionedCall/deeplabv3plus/reshape_70/strided_slice/stack_2", "op": "Const", "attr": {"value": {"tensor": {"dtype": "DT_INT32", "tensorShape": {"dim": [{"size": "1"}]}}}, "dtype": {"type": "DT_INT32"}}}, {"name": "StatefulPartitionedCall/deeplabv3plus/reshape_70/Reshape/shape/1", "op": "Const", "attr": {"value": {"tensor": {"dtype": "DT_INT32", "tensorShape": {}}}, "dtype": {"type": "DT_INT32"}}}, {"name": "StatefulPartitionedCall/deeplabv3plus/reshape_70/Reshape/shape/2", "op": "Const", "attr": {"value": {"tensor": {"dtype": "DT_INT32", "tensorShape": {}}}, "dtype": {"type": "DT_INT32"}}}, {"name": "StatefulPartitionedCall/deeplabv3plus/conv1d_3/conv1d/ExpandDims/dim", "op": "Const", "attr": {"value": {"tensor": {"dtype": "DT_INT32", "tensorShape": {}}}, "dtype": {"type": "DT_INT32"}}}, {"name": "StatefulPartitionedCall/deeplabv3plus/conv1d_3/conv1d/ExpandDims_1", "op": "Const", "attr": {"value": {"tensor": {"dtype": "DT_FLOAT", "tensorShape": {"dim": [{"size": "1"}, {"size": "3"}, {"size": "1"}, {"size": "1"}]}}}, "dtype": {"type": "DT_FLOAT"}}}, {"name": "StatefulPartitionedCall/deeplabv3plus/reshape_71/strided_slice/stack", "op": "Const", "attr": {"value": {"tensor": {"dtype": "DT_INT32", "tensorShape": {"dim": [{"size": "1"}]}}}, "dtype": {"type": "DT_INT32"}}}, {"name": "StatefulPartitionedCall/deeplabv3plus/reshape_71/strided_slice/stack_1", "op": "Const", "attr": {"value": {"tensor": {"dtype": "DT_INT32", "tensorShape": {"dim": [{"size": "1"}]}}}, "dtype": {"type": "DT_INT32"}}}, {"name": "StatefulPartitionedCall/deeplabv3plus/reshape_71/strided_slice/stack_2", "op": "Const", "attr": {"value": {"tensor": {"dtype": "DT_INT32", "tensorShape": {"dim": [{"size": "1"}]}}}, "dtype": {"type": "DT_INT32"}}}, {"name": "StatefulPartitionedCall/deeplabv3plus/reshape_71/Reshape/shape/1", "op": "Const", "attr": {"value": {"tensor": {"dtype": "DT_INT32", "tensorShape": {}}}, "dtype": {"type": "DT_INT32"}}}, {"name": "StatefulPartitionedCall/deeplabv3plus/reshape_71/Reshape/shape/2", "op": "Const", "attr": {"value": {"tensor": {"dtype": "DT_INT32", "tensorShape": {}}}, "dtype": {"type": "DT_INT32"}}}, {"name": "StatefulPartitionedCall/deeplabv3plus/reshape_71/Reshape/shape/3", "op": "Const", "attr": {"value": {"tensor": {"dtype": "DT_INT32", "tensorShape": {}}}, "dtype": {"type": "DT_INT32"}}}, {"name": "StatefulPartitionedCall/deeplabv3plus/lambda_16/Max/reduction_indices", "op": "Const", "attr": {"value": {"tensor": {"dtype": "DT_INT32", "tensorShape": {}}}, "dtype": {"type": "DT_INT32"}}}, {"name": "StatefulPartitionedCall/deeplabv3plus/concatenate_14/concat/axis", "op": "Const", "attr": {"value": {"tensor": {"dtype": "DT_INT32", "tensorShape": {}}}, "dtype": {"type": "DT_INT32"}}}, {"name": "StatefulPartitionedCall/deeplabv3plus/conv2d_11/Conv2D/ReadVariableOp", "op": "Const", "attr": {"value": {"tensor": {"dtype": "DT_FLOAT", "tensorShape": {"dim": [{"size": "7"}, {"size": "7"}, {"size": "2"}, {"size": "1"}]}}}, "dtype": {"type": "DT_FLOAT"}}}, {"name": "StatefulPartitionedCall/deeplabv3plus/concatenate_15/concat/axis", "op": "Const", "attr": {"value": {"tensor": {"dtype": "DT_INT32", "tensorShape": {}}}, "dtype": {"type": "DT_INT32"}}}, {"name": "StatefulPartitionedCall/deeplabv3plus/conv2d_12/Conv2D/ReadVariableOp", "op": "Const", "attr": {"value": {"tensor": {"dtype": "DT_FLOAT", "tensorShape": {"dim": [{"size": "3"}, {"size": "3"}, {"size": "256"}, {"size": "256"}]}}}, "dtype": {"type": "DT_FLOAT"}}}, {"name": "StatefulPartitionedCall/deeplabv3plus/conv2d_12/BiasAdd/ReadVariableOp", "op": "Const", "attr": {"value": {"tensor": {"dtype": "DT_FLOAT", "tensorShape": {"dim": [{"size": "256"}]}}}, "dtype": {"type": "DT_FLOAT"}}}, {"name": "StatefulPartitionedCall/deeplabv3plus/lambda_17/resize/size", "op": "Const", "attr": {"value": {"tensor": {"dtype": "DT_INT32", "tensorShape": {"dim": [{"size": "2"}]}}}, "dtype": {"type": "DT_INT32"}}}, {"name": "StatefulPartitionedCall/deeplabv3plus/conv2d_13/Conv2D/ReadVariableOp", "op": "Const", "attr": {"value": {"tensor": {"dtype": "DT_FLOAT", "tensorShape": {"dim": [{"size": "1"}, {"size": "1"}, {"size": "256"}, {"size": "2"}]}}}, "dtype": {"type": "DT_FLOAT"}}}, {"name": "StatefulPartitionedCall/deeplabv3plus/conv2d_13/BiasAdd/ReadVariableOp", "op": "Const", "attr": {"value": {"tensor": {"dtype": "DT_FLOAT", "tensorShape": {"dim": [{"size": "2"}]}}}, "dtype": {"type": "DT_FLOAT"}}}, {"name": "input_2", "op": "Placeholder", "attr": {"shape": {"shape": {"dim": [{"size": "-1"}, {"size": "256"}, {"size": "256"}, {"size": "3"}]}}, "dtype": {"type": "DT_FLOAT"}}}, {"name": "StatefulPartitionedCall/deeplabv3plus/Conv/Conv2D_weights", "op": "Const", "attr": {"value": {"tensor": {"dtype": "DT_FLOAT", "tensorShape": {"dim": [{"size": "3"}, {"size": "3"}, {"size": "3"}, {"size": "16"}]}}}, "dtype": {"type": "DT_FLOAT"}}}, {"name": "StatefulPartitionedCall/deeplabv3plus/Conv/Conv2D_bn_offset", "op": "Const", "attr": {"value": {"tensor": {"dtype": "DT_FLOAT", "tensorShape": {"dim": [{"size": "16"}]}}}, "dtype": {"type": "DT_FLOAT"}}}, {"name": "StatefulPartitionedCall/deeplabv3plus/expanded_conv/depthwise/depthwise_weights", "op": "Const", "attr": {"value": {"tensor": {"dtype": "DT_FLOAT", "tensorShape": {"dim": [{"size": "3"}, {"size": "3"}, {"size": "8"}, {"size": "1"}]}}}, "dtype": {"type": "DT_FLOAT"}}}, {"name": "StatefulPartitionedCall/deeplabv3plus/expanded_conv/depthwise/depthwise_bn_offset", "op": "Const", "attr": {"value": {"tensor": {"dtype": "DT_FLOAT", "tensorShape": {"dim": [{"size": "8"}]}}}, "dtype": {"type": "DT_FLOAT"}}}, {"name": "StatefulPartitionedCall/deeplabv3plus/expanded_conv/project/Conv2D_weights", "op": "Const", "attr": {"value": {"tensor": {"dtype": "DT_FLOAT", "tensorShape": {"dim": [{"size": "1"}, {"size": "1"}, {"size": "8"}, {"size": "16"}]}}}, "dtype": {"type": "DT_FLOAT"}}}, {"name": "StatefulPartitionedCall/deeplabv3plus/expanded_conv/project/Conv2D_bn_offset", "op": "Const", "attr": {"value": {"tensor": {"dtype": "DT_FLOAT", "tensorShape": {"dim": [{"size": "16"}]}}}, "dtype": {"type": "DT_FLOAT"}}}, {"name": "StatefulPartitionedCall/deeplabv3plus/depthwise_conv2d_3/depthwise_weights", "op": "Const", "attr": {"value": {"tensor": {"dtype": "DT_FLOAT", "tensorShape": {"dim": [{"size": "3"}, {"size": "3"}, {"size": "24"}, {"size": "1"}]}}}, "dtype": {"type": "DT_FLOAT"}}}, {"name": "StatefulPartitionedCall/deeplabv3plus/depthwise_conv2d_3/depthwise_bn_offset", "op": "Const", "attr": {"value": {"tensor": {"dtype": "DT_FLOAT", "tensorShape": {"dim": [{"size": "24"}]}}}, "dtype": {"type": "DT_FLOAT"}}}, {"name": "StatefulPartitionedCall/deeplabv3plus/expanded_conv_1/expand/Conv2D_weights", "op": "Const", "attr": {"value": {"tensor": {"dtype": "DT_FLOAT", "tensorShape": {"dim": [{"size": "1"}, {"size": "1"}, {"size": "24"}, {"size": "64"}]}}}, "dtype": {"type": "DT_FLOAT"}}}, {"name": "StatefulPartitionedCall/deeplabv3plus/expanded_conv_1/expand/Conv2D_bn_offset", "op": "Const", "attr": {"value": {"tensor": {"dtype": "DT_FLOAT", "tensorShape": {"dim": [{"size": "64"}]}}}, "dtype": {"type": "DT_FLOAT"}}}, {"name": "StatefulPartitionedCall/deeplabv3plus/conv2d_7/Conv2D_weights", "op": "Const", "attr": {"value": {"tensor": {"dtype": "DT_FLOAT", "tensorShape": {"dim": [{"size": "3"}, {"size": "3"}, {"size": "24"}, {"size": "16"}]}}}, "dtype": {"type": "DT_FLOAT"}}}, {"name": "StatefulPartitionedCall/deeplabv3plus/conv2d_7/Conv2D_bn_offset", "op": "Const", "attr": {"value": {"tensor": {"dtype": "DT_FLOAT", "tensorShape": {"dim": [{"size": "16"}]}}}, "dtype": {"type": "DT_FLOAT"}}}, {"name": "StatefulPartitionedCall/deeplabv3plus/expanded_conv_1/depthwise/depthwise_weights", "op": "Const", "attr": {"value": {"tensor": {"dtype": "DT_FLOAT", "tensorShape": {"dim": [{"size": "3"}, {"size": "3"}, {"size": "64"}, {"size": "1"}]}}}, "dtype": {"type": "DT_FLOAT"}}}, {"name": "StatefulPartitionedCall/deeplabv3plus/expanded_conv_1/depthwise/depthwise_bn_offset", "op": "Const", "attr": {"value": {"tensor": {"dtype": "DT_FLOAT", "tensorShape": {"dim": [{"size": "64"}]}}}, "dtype": {"type": "DT_FLOAT"}}}, {"name": "StatefulPartitionedCall/deeplabv3plus/expanded_conv_1/project/Conv2D_weights", "op": "Const", "attr": {"value": {"tensor": {"dtype": "DT_FLOAT", "tensorShape": {"dim": [{"size": "1"}, {"size": "1"}, {"size": "64"}, {"size": "16"}]}}}, "dtype": {"type": "DT_FLOAT"}}}, {"name": "StatefulPartitionedCall/deeplabv3plus/expanded_conv_1/project/Conv2D_bn_offset", "op": "Const", "attr": {"value": {"tensor": {"dtype": "DT_FLOAT", "tensorShape": {"dim": [{"size": "16"}]}}}, "dtype": {"type": "DT_FLOAT"}}}, {"name": "StatefulPartitionedCall/deeplabv3plus/expanded_conv_2/expand/Conv2D_weights", "op": "Const", "attr": {"value": {"tensor": {"dtype": "DT_FLOAT", "tensorShape": {"dim": [{"size": "1"}, {"size": "1"}, {"size": "16"}, {"size": "72"}]}}}, "dtype": {"type": "DT_FLOAT"}}}, {"name": "StatefulPartitionedCall/deeplabv3plus/expanded_conv_2/expand/Conv2D_bn_offset", "op": "Const", "attr": {"value": {"tensor": {"dtype": "DT_FLOAT", "tensorShape": {"dim": [{"size": "72"}]}}}, "dtype": {"type": "DT_FLOAT"}}}, {"name": "StatefulPartitionedCall/deeplabv3plus/expanded_conv_2/depthwise/depthwise_weights", "op": "Const", "attr": {"value": {"tensor": {"dtype": "DT_FLOAT", "tensorShape": {"dim": [{"size": "3"}, {"size": "3"}, {"size": "72"}, {"size": "1"}]}}}, "dtype": {"type": "DT_FLOAT"}}}, {"name": "StatefulPartitionedCall/deeplabv3plus/expanded_conv_2/depthwise/depthwise_bn_offset", "op": "Const", "attr": {"value": {"tensor": {"dtype": "DT_FLOAT", "tensorShape": {"dim": [{"size": "72"}]}}}, "dtype": {"type": "DT_FLOAT"}}}, {"name": "StatefulPartitionedCall/deeplabv3plus/expanded_conv_2/project/Conv2D_weights", "op": "Const", "attr": {"value": {"tensor": {"dtype": "DT_FLOAT", "tensorShape": {"dim": [{"size": "1"}, {"size": "1"}, {"size": "72"}, {"size": "32"}]}}}, "dtype": {"type": "DT_FLOAT"}}}, {"name": "StatefulPartitionedCall/deeplabv3plus/expanded_conv_2/project/Conv2D_bn_offset", "op": "Const", "attr": {"value": {"tensor": {"dtype": "DT_FLOAT", "tensorShape": {"dim": [{"size": "32"}]}}}, "dtype": {"type": "DT_FLOAT"}}}, {"name": "StatefulPartitionedCall/deeplabv3plus/depthwise_conv2d_4/depthwise_weights", "op": "Const", "attr": {"value": {"tensor": {"dtype": "DT_FLOAT", "tensorShape": {"dim": [{"size": "5"}, {"size": "5"}, {"size": "48"}, {"size": "1"}]}}}, "dtype": {"type": "DT_FLOAT"}}}, {"name": "StatefulPartitionedCall/deeplabv3plus/depthwise_conv2d_4/depthwise_bn_offset", "op": "Const", "attr": {"value": {"tensor": {"dtype": "DT_FLOAT", "tensorShape": {"dim": [{"size": "48"}]}}}, "dtype": {"type": "DT_FLOAT"}}}, {"name": "StatefulPartitionedCall/deeplabv3plus/expanded_conv_3/expand/Conv2D_weights", "op": "Const", "attr": {"value": {"tensor": {"dtype": "DT_FLOAT", "tensorShape": {"dim": [{"size": "1"}, {"size": "1"}, {"size": "48"}, {"size": "120"}]}}}, "dtype": {"type": "DT_FLOAT"}}}, {"name": "StatefulPartitionedCall/deeplabv3plus/expanded_conv_3/expand/Conv2D_bn_offset", "op": "Const", "attr": {"value": {"tensor": {"dtype": "DT_FLOAT", "tensorShape": {"dim": [{"size": "120"}]}}}, "dtype": {"type": "DT_FLOAT"}}}, {"name": "StatefulPartitionedCall/deeplabv3plus/conv2d_8/Conv2D_weights", "op": "Const", "attr": {"value": {"tensor": {"dtype": "DT_FLOAT", "tensorShape": {"dim": [{"size": "5"}, {"size": "5"}, {"size": "48"}, {"size": "32"}]}}}, "dtype": {"type": "DT_FLOAT"}}}, {"name": "StatefulPartitionedCall/deeplabv3plus/conv2d_8/Conv2D_bn_offset", "op": "Const", "attr": {"value": {"tensor": {"dtype": "DT_FLOAT", "tensorShape": {"dim": [{"size": "32"}]}}}, "dtype": {"type": "DT_FLOAT"}}}, {"name": "StatefulPartitionedCall/deeplabv3plus/expanded_conv_3/depthwise/depthwise_weights", "op": "Const", "attr": {"value": {"tensor": {"dtype": "DT_FLOAT", "tensorShape": {"dim": [{"size": "5"}, {"size": "5"}, {"size": "120"}, {"size": "1"}]}}}, "dtype": {"type": "DT_FLOAT"}}}, {"name": "StatefulPartitionedCall/deeplabv3plus/expanded_conv_3/depthwise/depthwise_bn_offset", "op": "Const", "attr": {"value": {"tensor": {"dtype": "DT_FLOAT", "tensorShape": {"dim": [{"size": "120"}]}}}, "dtype": {"type": "DT_FLOAT"}}}, {"name": "StatefulPartitionedCall/deeplabv3plus/expanded_conv_3/project/Conv2D_weights", "op": "Const", "attr": {"value": {"tensor": {"dtype": "DT_FLOAT", "tensorShape": {"dim": [{"size": "1"}, {"size": "1"}, {"size": "120"}, {"size": "32"}]}}}, "dtype": {"type": "DT_FLOAT"}}}, {"name": "StatefulPartitionedCall/deeplabv3plus/expanded_conv_3/project/Conv2D_bn_offset", "op": "Const", "attr": {"value": {"tensor": {"dtype": "DT_FLOAT", "tensorShape": {"dim": [{"size": "32"}]}}}, "dtype": {"type": "DT_FLOAT"}}}, {"name": "StatefulPartitionedCall/deeplabv3plus/expanded_conv_4/expand/Conv2D_weights", "op": "Const", "attr": {"value": {"tensor": {"dtype": "DT_FLOAT", "tensorShape": {"dim": [{"size": "1"}, {"size": "1"}, {"size": "32"}, {"size": "120"}]}}}, "dtype": {"type": "DT_FLOAT"}}}, {"name": "StatefulPartitionedCall/deeplabv3plus/expanded_conv_4/expand/Conv2D_bn_offset", "op": "Const", "attr": {"value": {"tensor": {"dtype": "DT_FLOAT", "tensorShape": {"dim": [{"size": "120"}]}}}, "dtype": {"type": "DT_FLOAT"}}}, {"name": "StatefulPartitionedCall/deeplabv3plus/decoder_conv0_depthwise/depthwise_weights", "op": "Const", "attr": {"value": {"tensor": {"dtype": "DT_FLOAT", "tensorShape": {"dim": [{"size": "3"}, {"size": "3"}, {"size": "304"}, {"size": "1"}]}}}, "dtype": {"type": "DT_FLOAT"}}}, {"name": "StatefulPartitionedCall/deeplabv3plus/expanded_conv_4/depthwise/depthwise_weights", "op": "Const", "attr": {"value": {"tensor": {"dtype": "DT_FLOAT", "tensorShape": {"dim": [{"size": "5"}, {"size": "5"}, {"size": "120"}, {"size": "1"}]}}}, "dtype": {"type": "DT_FLOAT"}}}, {"name": "StatefulPartitionedCall/deeplabv3plus/expanded_conv_4/depthwise/depthwise_bn_offset", "op": "Const", "attr": {"value": {"tensor": {"dtype": "DT_FLOAT", "tensorShape": {"dim": [{"size": "120"}]}}}, "dtype": {"type": "DT_FLOAT"}}}, {"name": "StatefulPartitionedCall/deeplabv3plus/decoder_conv0_depthwise/depthwise_bn_offset", "op": "Const", "attr": {"value": {"tensor": {"dtype": "DT_FLOAT", "tensorShape": {"dim": [{"size": "304"}]}}}, "dtype": {"type": "DT_FLOAT"}}}, {"name": "StatefulPartitionedCall/deeplabv3plus/expanded_conv_4/project/Conv2D_weights", "op": "Const", "attr": {"value": {"tensor": {"dtype": "DT_FLOAT", "tensorShape": {"dim": [{"size": "1"}, {"size": "1"}, {"size": "120"}, {"size": "64"}]}}}, "dtype": {"type": "DT_FLOAT"}}}, {"name": "StatefulPartitionedCall/deeplabv3plus/expanded_conv_4/project/Conv2D_bn_offset", "op": "Const", "attr": {"value": {"tensor": {"dtype": "DT_FLOAT", "tensorShape": {"dim": [{"size": "64"}]}}}, "dtype": {"type": "DT_FLOAT"}}}, {"name": "StatefulPartitionedCall/deeplabv3plus/decoder_conv0_pointwise/Conv2D_weights", "op": "Const", "attr": {"value": {"tensor": {"dtype": "DT_FLOAT", "tensorShape": {"dim": [{"size": "1"}, {"size": "1"}, {"size": "304"}, {"size": "256"}]}}}, "dtype": {"type": "DT_FLOAT"}}}, {"name": "StatefulPartitionedCall/deeplabv3plus/expanded_conv_5/expand/Conv2D_weights", "op": "Const", "attr": {"value": {"tensor": {"dtype": "DT_FLOAT", "tensorShape": {"dim": [{"size": "1"}, {"size": "1"}, {"size": "48"}, {"size": "200"}]}}}, "dtype": {"type": "DT_FLOAT"}}}, {"name": "StatefulPartitionedCall/deeplabv3plus/expanded_conv_5/expand/Conv2D_bn_offset", "op": "Const", "attr": {"value": {"tensor": {"dtype": "DT_FLOAT", "tensorShape": {"dim": [{"size": "200"}]}}}, "dtype": {"type": "DT_FLOAT"}}}, {"name": "StatefulPartitionedCall/deeplabv3plus/decoder_conv0_pointwise/Conv2D_bn_offset", "op": "Const", "attr": {"value": {"tensor": {"dtype": "DT_FLOAT", "tensorShape": {"dim": [{"size": "256"}]}}}, "dtype": {"type": "DT_FLOAT"}}}, {"name": "StatefulPartitionedCall/deeplabv3plus/expanded_conv_5/depthwise/depthwise_weights", "op": "Const", "attr": {"value": {"tensor": {"dtype": "DT_FLOAT", "tensorShape": {"dim": [{"size": "5"}, {"size": "5"}, {"size": "200"}, {"size": "1"}]}}}, "dtype": {"type": "DT_FLOAT"}}}, {"name": "StatefulPartitionedCall/deeplabv3plus/expanded_conv_5/depthwise/depthwise_bn_offset", "op": "Const", "attr": {"value": {"tensor": {"dtype": "DT_FLOAT", "tensorShape": {"dim": [{"size": "200"}]}}}, "dtype": {"type": "DT_FLOAT"}}}, {"name": "StatefulPartitionedCall/deeplabv3plus/decoder_conv1_depthwise/depthwise_weights", "op": "Const", "attr": {"value": {"tensor": {"dtype": "DT_FLOAT", "tensorShape": {"dim": [{"size": "3"}, {"size": "3"}, {"size": "256"}, {"size": "1"}]}}}, "dtype": {"type": "DT_FLOAT"}}}, {"name": "StatefulPartitionedCall/deeplabv3plus/expanded_conv_5/project/Conv2D_weights", "op": "Const", "attr": {"value": {"tensor": {"dtype": "DT_FLOAT", "tensorShape": {"dim": [{"size": "1"}, {"size": "1"}, {"size": "200"}, {"size": "64"}]}}}, "dtype": {"type": "DT_FLOAT"}}}, {"name": "StatefulPartitionedCall/deeplabv3plus/expanded_conv_5/project/Conv2D_bn_offset", "op": "Const", "attr": {"value": {"tensor": {"dtype": "DT_FLOAT", "tensorShape": {"dim": [{"size": "64"}]}}}, "dtype": {"type": "DT_FLOAT"}}}, {"name": "StatefulPartitionedCall/deeplabv3plus/decoder_conv1_depthwise/depthwise_bn_offset", "op": "Const", "attr": {"value": {"tensor": {"dtype": "DT_FLOAT", "tensorShape": {"dim": [{"size": "256"}]}}}, "dtype": {"type": "DT_FLOAT"}}}, {"name": "StatefulPartitionedCall/deeplabv3plus/depthwise_conv2d_5/depthwise_weights", "op": "Const", "attr": {"value": {"tensor": {"dtype": "DT_FLOAT", "tensorShape": {"dim": [{"size": "3"}, {"size": "3"}, {"size": "112"}, {"size": "1"}]}}}, "dtype": {"type": "DT_FLOAT"}}}, {"name": "StatefulPartitionedCall/deeplabv3plus/depthwise_conv2d_5/depthwise_bn_offset", "op": "Const", "attr": {"value": {"tensor": {"dtype": "DT_FLOAT", "tensorShape": {"dim": [{"size": "112"}]}}}, "dtype": {"type": "DT_FLOAT"}}}, {"name": "StatefulPartitionedCall/deeplabv3plus/expanded_conv_6/expand/Conv2D_weights", "op": "Const", "attr": {"value": {"tensor": {"dtype": "DT_FLOAT", "tensorShape": {"dim": [{"size": "1"}, {"size": "1"}, {"size": "112"}, {"size": "184"}]}}}, "dtype": {"type": "DT_FLOAT"}}}, {"name": "StatefulPartitionedCall/deeplabv3plus/expanded_conv_6/expand/Conv2D_bn_offset", "op": "Const", "attr": {"value": {"tensor": {"dtype": "DT_FLOAT", "tensorShape": {"dim": [{"size": "184"}]}}}, "dtype": {"type": "DT_FLOAT"}}}, {"name": "StatefulPartitionedCall/deeplabv3plus/conv2d_9/Conv2D_weights", "op": "Const", "attr": {"value": {"tensor": {"dtype": "DT_FLOAT", "tensorShape": {"dim": [{"size": "3"}, {"size": "3"}, {"size": "112"}, {"size": "64"}]}}}, "dtype": {"type": "DT_FLOAT"}}}, {"name": "StatefulPartitionedCall/deeplabv3plus/conv2d_9/Conv2D_bn_offset", "op": "Const", "attr": {"value": {"tensor": {"dtype": "DT_FLOAT", "tensorShape": {"dim": [{"size": "64"}]}}}, "dtype": {"type": "DT_FLOAT"}}}, {"name": "StatefulPartitionedCall/deeplabv3plus/decoder_conv1_pointwise/Conv2D_weights", "op": "Const", "attr": {"value": {"tensor": {"dtype": "DT_FLOAT", "tensorShape": {"dim": [{"size": "1"}, {"size": "1"}, {"size": "256"}, {"size": "256"}]}}}, "dtype": {"type": "DT_FLOAT"}}}, {"name": "StatefulPartitionedCall/deeplabv3plus/expanded_conv_6/depthwise/depthwise_weights", "op": "Const", "attr": {"value": {"tensor": {"dtype": "DT_FLOAT", "tensorShape": {"dim": [{"size": "3"}, {"size": "3"}, {"size": "184"}, {"size": "1"}]}}}, "dtype": {"type": "DT_FLOAT"}}}, {"name": "StatefulPartitionedCall/deeplabv3plus/expanded_conv_6/depthwise/depthwise_bn_offset", "op": "Const", "attr": {"value": {"tensor": {"dtype": "DT_FLOAT", "tensorShape": {"dim": [{"size": "184"}]}}}, "dtype": {"type": "DT_FLOAT"}}}, {"name": "StatefulPartitionedCall/deeplabv3plus/expanded_conv_6/project/Conv2D_weights", "op": "Const", "attr": {"value": {"tensor": {"dtype": "DT_FLOAT", "tensorShape": {"dim": [{"size": "1"}, {"size": "1"}, {"size": "184"}, {"size": "64"}]}}}, "dtype": {"type": "DT_FLOAT"}}}, {"name": "StatefulPartitionedCall/deeplabv3plus/feature_projection0_BN/FusedBatchNormV3/Scaled", "op": "Const", "attr": {"value": {"tensor": {"dtype": "DT_FLOAT", "tensorShape": {"dim": [{"size": "48"}]}}}, "dtype": {"type": "DT_FLOAT"}}}, {"name": "StatefulPartitionedCall/deeplabv3plus/expanded_conv_6/project/Conv2D_bn_offset", "op": "Const", "attr": {"value": {"tensor": {"dtype": "DT_FLOAT", "tensorShape": {"dim": [{"size": "64"}]}}}, "dtype": {"type": "DT_FLOAT"}}}, {"name": "StatefulPartitionedCall/deeplabv3plus/decoder_conv1_pointwise/Conv2D_bn_offset", "op": "Const", "attr": {"value": {"tensor": {"dtype": "DT_FLOAT", "tensorShape": {"dim": [{"size": "256"}]}}}, "dtype": {"type": "DT_FLOAT"}}}, {"name": "StatefulPartitionedCall/deeplabv3plus/expanded_conv_7/expand/Conv2D_weights", "op": "Const", "attr": {"value": {"tensor": {"dtype": "DT_FLOAT", "tensorShape": {"dim": [{"size": "1"}, {"size": "1"}, {"size": "64"}, {"size": "480"}]}}}, "dtype": {"type": "DT_FLOAT"}}}, {"name": "StatefulPartitionedCall/deeplabv3plus/expanded_conv_7/expand/Conv2D_bn_offset", "op": "Const", "attr": {"value": {"tensor": {"dtype": "DT_FLOAT", "tensorShape": {"dim": [{"size": "480"}]}}}, "dtype": {"type": "DT_FLOAT"}}}, {"name": "StatefulPartitionedCall/deeplabv3plus/expanded_conv_7/depthwise/depthwise_weights", "op": "Const", "attr": {"value": {"tensor": {"dtype": "DT_FLOAT", "tensorShape": {"dim": [{"size": "3"}, {"size": "3"}, {"size": "480"}, {"size": "1"}]}}}, "dtype": {"type": "DT_FLOAT"}}}, {"name": "StatefulPartitionedCall/deeplabv3plus/expanded_conv_7/depthwise/depthwise_bn_offset", "op": "Const", "attr": {"value": {"tensor": {"dtype": "DT_FLOAT", "tensorShape": {"dim": [{"size": "480"}]}}}, "dtype": {"type": "DT_FLOAT"}}}, {"name": "StatefulPartitionedCall/deeplabv3plus/expanded_conv_7/project/Conv2D_weights", "op": "Const", "attr": {"value": {"tensor": {"dtype": "DT_FLOAT", "tensorShape": {"dim": [{"size": "1"}, {"size": "1"}, {"size": "480"}, {"size": "128"}]}}}, "dtype": {"type": "DT_FLOAT"}}}, {"name": "StatefulPartitionedCall/deeplabv3plus/expanded_conv_7/project/Conv2D_bn_offset", "op": "Const", "attr": {"value": {"tensor": {"dtype": "DT_FLOAT", "tensorShape": {"dim": [{"size": "128"}]}}}, "dtype": {"type": "DT_FLOAT"}}}, {"name": "StatefulPartitionedCall/deeplabv3plus/expanded_conv_8/expand/Conv2D_weights", "op": "Const", "attr": {"value": {"tensor": {"dtype": "DT_FLOAT", "tensorShape": {"dim": [{"size": "1"}, {"size": "1"}, {"size": "96"}, {"size": "480"}]}}}, "dtype": {"type": "DT_FLOAT"}}}, {"name": "StatefulPartitionedCall/deeplabv3plus/expanded_conv_8/expand/Conv2D_bn_offset", "op": "Const", "attr": {"value": {"tensor": {"dtype": "DT_FLOAT", "tensorShape": {"dim": [{"size": "480"}]}}}, "dtype": {"type": "DT_FLOAT"}}}, {"name": "StatefulPartitionedCall/deeplabv3plus/expanded_conv_8/depthwise/depthwise_weights", "op": "Const", "attr": {"value": {"tensor": {"dtype": "DT_FLOAT", "tensorShape": {"dim": [{"size": "3"}, {"size": "3"}, {"size": "480"}, {"size": "1"}]}}}, "dtype": {"type": "DT_FLOAT"}}}, {"name": "StatefulPartitionedCall/deeplabv3plus/expanded_conv_8/depthwise/depthwise_bn_offset", "op": "Const", "attr": {"value": {"tensor": {"dtype": "DT_FLOAT", "tensorShape": {"dim": [{"size": "480"}]}}}, "dtype": {"type": "DT_FLOAT"}}}, {"name": "StatefulPartitionedCall/deeplabv3plus/expanded_conv_8/project/Conv2D_weights", "op": "Const", "attr": {"value": {"tensor": {"dtype": "DT_FLOAT", "tensorShape": {"dim": [{"size": "1"}, {"size": "1"}, {"size": "480"}, {"size": "128"}]}}}, "dtype": {"type": "DT_FLOAT"}}}, {"name": "StatefulPartitionedCall/deeplabv3plus/expanded_conv_8/project/Conv2D_bn_offset", "op": "Const", "attr": {"value": {"tensor": {"dtype": "DT_FLOAT", "tensorShape": {"dim": [{"size": "128"}]}}}, "dtype": {"type": "DT_FLOAT"}}}, {"name": "StatefulPartitionedCall/deeplabv3plus/feature_projection0_BN/FusedBatchNormV3/Offset", "op": "Const", "attr": {"value": {"tensor": {"dtype": "DT_FLOAT", "tensorShape": {"dim": [{"size": "48"}]}}}, "dtype": {"type": "DT_FLOAT"}}}, {"name": "StatefulPartitionedCall/deeplabv3plus/expanded_conv_9/expand/Conv2D_weights", "op": "Const", "attr": {"value": {"tensor": {"dtype": "DT_FLOAT", "tensorShape": {"dim": [{"size": "1"}, {"size": "1"}, {"size": "112"}, {"size": "480"}]}}}, "dtype": {"type": "DT_FLOAT"}}}, {"name": "StatefulPartitionedCall/deeplabv3plus/expanded_conv_9/expand/Conv2D_bn_offset", "op": "Const", "attr": {"value": {"tensor": {"dtype": "DT_FLOAT", "tensorShape": {"dim": [{"size": "480"}]}}}, "dtype": {"type": "DT_FLOAT"}}}, {"name": "StatefulPartitionedCall/deeplabv3plus/expanded_conv_9/depthwise/depthwise_weights", "op": "Const", "attr": {"value": {"tensor": {"dtype": "DT_FLOAT", "tensorShape": {"dim": [{"size": "3"}, {"size": "3"}, {"size": "480"}, {"size": "1"}]}}}, "dtype": {"type": "DT_FLOAT"}}}, {"name": "StatefulPartitionedCall/deeplabv3plus/expanded_conv_9/depthwise/depthwise_bn_offset", "op": "Const", "attr": {"value": {"tensor": {"dtype": "DT_FLOAT", "tensorShape": {"dim": [{"size": "480"}]}}}, "dtype": {"type": "DT_FLOAT"}}}, {"name": "StatefulPartitionedCall/deeplabv3plus/expanded_conv_9/project/Conv2D_weights", "op": "Const", "attr": {"value": {"tensor": {"dtype": "DT_FLOAT", "tensorShape": {"dim": [{"size": "1"}, {"size": "1"}, {"size": "480"}, {"size": "128"}]}}}, "dtype": {"type": "DT_FLOAT"}}}, {"name": "StatefulPartitionedCall/deeplabv3plus/expanded_conv_9/project/Conv2D_bn_offset", "op": "Const", "attr": {"value": {"tensor": {"dtype": "DT_FLOAT", "tensorShape": {"dim": [{"size": "128"}]}}}, "dtype": {"type": "DT_FLOAT"}}}, {"name": "StatefulPartitionedCall/deeplabv3plus/expanded_conv_10/expand/Conv2D_weights", "op": "Const", "attr": {"value": {"tensor": {"dtype": "DT_FLOAT", "tensorShape": {"dim": [{"size": "1"}, {"size": "1"}, {"size": "120"}, {"size": "672"}]}}}, "dtype": {"type": "DT_FLOAT"}}}, {"name": "StatefulPartitionedCall/deeplabv3plus/expanded_conv_10/expand/Conv2D_bn_offset", "op": "Const", "attr": {"value": {"tensor": {"dtype": "DT_FLOAT", "tensorShape": {"dim": [{"size": "672"}]}}}, "dtype": {"type": "DT_FLOAT"}}}, {"name": "StatefulPartitionedCall/deeplabv3plus/expanded_conv_10/depthwise/depthwise_weights", "op": "Const", "attr": {"value": {"tensor": {"dtype": "DT_FLOAT", "tensorShape": {"dim": [{"size": "3"}, {"size": "3"}, {"size": "672"}, {"size": "1"}]}}}, "dtype": {"type": "DT_FLOAT"}}}, {"name": "StatefulPartitionedCall/deeplabv3plus/expanded_conv_10/depthwise/depthwise_bn_offset", "op": "Const", "attr": {"value": {"tensor": {"dtype": "DT_FLOAT", "tensorShape": {"dim": [{"size": "672"}]}}}, "dtype": {"type": "DT_FLOAT"}}}, {"name": "StatefulPartitionedCall/deeplabv3plus/concat_projection_BN/FusedBatchNormV3/Scaled", "op": "Const", "attr": {"value": {"tensor": {"dtype": "DT_FLOAT", "tensorShape": {"dim": [{"size": "256"}]}}}, "dtype": {"type": "DT_FLOAT"}}}, {"name": "StatefulPartitionedCall/deeplabv3plus/expanded_conv_10/project/Conv2D_weights", "op": "Const", "attr": {"value": {"tensor": {"dtype": "DT_FLOAT", "tensorShape": {"dim": [{"size": "1"}, {"size": "1"}, {"size": "672"}, {"size": "128"}]}}}, "dtype": {"type": "DT_FLOAT"}}}, {"name": "StatefulPartitionedCall/deeplabv3plus/expanded_conv_10/project/Conv2D_bn_offset", "op": "Const", "attr": {"value": {"tensor": {"dtype": "DT_FLOAT", "tensorShape": {"dim": [{"size": "128"}]}}}, "dtype": {"type": "DT_FLOAT"}}}, {"name": "StatefulPartitionedCall/deeplabv3plus/concat_projection_BN/FusedBatchNormV3/Offset", "op": "Const", "attr": {"value": {"tensor": {"dtype": "DT_FLOAT", "tensorShape": {"dim": [{"size": "256"}]}}}, "dtype": {"type": "DT_FLOAT"}}}, {"name": "StatefulPartitionedCall/deeplabv3plus/expanded_conv_11/expand/Conv2D_weights", "op": "Const", "attr": {"value": {"tensor": {"dtype": "DT_FLOAT", "tensorShape": {"dim": [{"size": "1"}, {"size": "1"}, {"size": "124"}, {"size": "672"}]}}}, "dtype": {"type": "DT_FLOAT"}}}, {"name": "StatefulPartitionedCall/deeplabv3plus/expanded_conv_11/expand/Conv2D_bn_offset", "op": "Const", "attr": {"value": {"tensor": {"dtype": "DT_FLOAT", "tensorShape": {"dim": [{"size": "672"}]}}}, "dtype": {"type": "DT_FLOAT"}}}, {"name": "StatefulPartitionedCall/deeplabv3plus/expanded_conv_11/depthwise/depthwise_weights", "op": "Const", "attr": {"value": {"tensor": {"dtype": "DT_FLOAT", "tensorShape": {"dim": [{"size": "3"}, {"size": "3"}, {"size": "672"}, {"size": "1"}]}}}, "dtype": {"type": "DT_FLOAT"}}}, {"name": "StatefulPartitionedCall/deeplabv3plus/expanded_conv_11/depthwise/depthwise_bn_offset", "op": "Const", "attr": {"value": {"tensor": {"dtype": "DT_FLOAT", "tensorShape": {"dim": [{"size": "672"}]}}}, "dtype": {"type": "DT_FLOAT"}}}, {"name": "StatefulPartitionedCall/deeplabv3plus/aspp3_depthwise_BN/FusedBatchNormV3/Scaled", "op": "Const", "attr": {"value": {"tensor": {"dtype": "DT_FLOAT", "tensorShape": {"dim": [{"size": "1022"}]}}}, "dtype": {"type": "DT_FLOAT"}}}, {"name": "StatefulPartitionedCall/deeplabv3plus/expanded_conv_11/project/Conv2D_weights", "op": "Const", "attr": {"value": {"tensor": {"dtype": "DT_FLOAT", "tensorShape": {"dim": [{"size": "1"}, {"size": "1"}, {"size": "672"}, {"size": "128"}]}}}, "dtype": {"type": "DT_FLOAT"}}}, {"name": "StatefulPartitionedCall/deeplabv3plus/expanded_conv_11/project/Conv2D_bn_offset", "op": "Const", "attr": {"value": {"tensor": {"dtype": "DT_FLOAT", "tensorShape": {"dim": [{"size": "128"}]}}}, "dtype": {"type": "DT_FLOAT"}}}, {"name": "StatefulPartitionedCall/deeplabv3plus/expanded_conv_12/expand/Conv2D_weights", "op": "Const", "attr": {"value": {"tensor": {"dtype": "DT_FLOAT", "tensorShape": {"dim": [{"size": "1"}, {"size": "1"}, {"size": "126"}, {"size": "672"}]}}}, "dtype": {"type": "DT_FLOAT"}}}, {"name": "StatefulPartitionedCall/deeplabv3plus/aspp3_depthwise_BN/FusedBatchNormV3/Offset", "op": "Const", "attr": {"value": {"tensor": {"dtype": "DT_FLOAT", "tensorShape": {"dim": [{"size": "1022"}]}}}, "dtype": {"type": "DT_FLOAT"}}}, {"name": "StatefulPartitionedCall/deeplabv3plus/expanded_conv_12/expand/Conv2D_bn_offset", "op": "Const", "attr": {"value": {"tensor": {"dtype": "DT_FLOAT", "tensorShape": {"dim": [{"size": "672"}]}}}, "dtype": {"type": "DT_FLOAT"}}}, {"name": "StatefulPartitionedCall/deeplabv3plus/expanded_conv_12/depthwise/depthwise_weights", "op": "Const", "attr": {"value": {"tensor": {"dtype": "DT_FLOAT", "tensorShape": {"dim": [{"size": "3"}, {"size": "3"}, {"size": "672"}, {"size": "1"}]}}}, "dtype": {"type": "DT_FLOAT"}}}, {"name": "StatefulPartitionedCall/deeplabv3plus/expanded_conv_12/depthwise/depthwise_bn_offset", "op": "Const", "attr": {"value": {"tensor": {"dtype": "DT_FLOAT", "tensorShape": {"dim": [{"size": "672"}]}}}, "dtype": {"type": "DT_FLOAT"}}}, {"name": "StatefulPartitionedCall/deeplabv3plus/expanded_conv_12/project/Conv2D_weights", "op": "Const", "attr": {"value": {"tensor": {"dtype": "DT_FLOAT", "tensorShape": {"dim": [{"size": "1"}, {"size": "1"}, {"size": "672"}, {"size": "128"}]}}}, "dtype": {"type": "DT_FLOAT"}}}, {"name": "StatefulPartitionedCall/deeplabv3plus/aspp2_depthwise_BN/FusedBatchNormV3/Scaled", "op": "Const", "attr": {"value": {"tensor": {"dtype": "DT_FLOAT", "tensorShape": {"dim": [{"size": "766"}]}}}, "dtype": {"type": "DT_FLOAT"}}}, {"name": "StatefulPartitionedCall/deeplabv3plus/expanded_conv_12/project/Conv2D_bn_offset", "op": "Const", "attr": {"value": {"tensor": {"dtype": "DT_FLOAT", "tensorShape": {"dim": [{"size": "128"}]}}}, "dtype": {"type": "DT_FLOAT"}}}, {"name": "StatefulPartitionedCall/deeplabv3plus/aspp0/Conv2D_weights", "op": "Const", "attr": {"value": {"tensor": {"dtype": "DT_FLOAT", "tensorShape": {"dim": [{"size": "1"}, {"size": "1"}, {"size": "254"}, {"size": "256"}]}}}, "dtype": {"type": "DT_FLOAT"}}}, {"name": "StatefulPartitionedCall/deeplabv3plus/aspp0/Conv2D_bn_offset", "op": "Const", "attr": {"value": {"tensor": {"dtype": "DT_FLOAT", "tensorShape": {"dim": [{"size": "256"}]}}}, "dtype": {"type": "DT_FLOAT"}}}, {"name": "StatefulPartitionedCall/deeplabv3plus/aspp2_depthwise_BN/FusedBatchNormV3/Offset", "op": "Const", "attr": {"value": {"tensor": {"dtype": "DT_FLOAT", "tensorShape": {"dim": [{"size": "766"}]}}}, "dtype": {"type": "DT_FLOAT"}}}, {"name": "StatefulPartitionedCall/deeplabv3plus/aspp1_pointwise/Conv2D_weights", "op": "Const", "attr": {"value": {"tensor": {"dtype": "DT_FLOAT", "tensorShape": {"dim": [{"size": "1"}, {"size": "1"}, {"size": "510"}, {"size": "256"}]}}}, "dtype": {"type": "DT_FLOAT"}}}, {"name": "StatefulPartitionedCall/deeplabv3plus/aspp1_pointwise/Conv2D_bn_offset", "op": "Const", "attr": {"value": {"tensor": {"dtype": "DT_FLOAT", "tensorShape": {"dim": [{"size": "256"}]}}}, "dtype": {"type": "DT_FLOAT"}}}, {"name": "StatefulPartitionedCall/deeplabv3plus/aspp2_pointwise/Conv2D_weights", "op": "Const", "attr": {"value": {"tensor": {"dtype": "DT_FLOAT", "tensorShape": {"dim": [{"size": "1"}, {"size": "1"}, {"size": "766"}, {"size": "256"}]}}}, "dtype": {"type": "DT_FLOAT"}}}, {"name": "StatefulPartitionedCall/deeplabv3plus/aspp2_pointwise/Conv2D_bn_offset", "op": "Const", "attr": {"value": {"tensor": {"dtype": "DT_FLOAT", "tensorShape": {"dim": [{"size": "256"}]}}}, "dtype": {"type": "DT_FLOAT"}}}, {"name": "StatefulPartitionedCall/deeplabv3plus/aspp1_depthwise_BN/FusedBatchNormV3/Scaled", "op": "Const", "attr": {"value": {"tensor": {"dtype": "DT_FLOAT", "tensorShape": {"dim": [{"size": "510"}]}}}, "dtype": {"type": "DT_FLOAT"}}}, {"name": "StatefulPartitionedCall/deeplabv3plus/aspp3_pointwise/Conv2D_weights", "op": "Const", "attr": {"value": {"tensor": {"dtype": "DT_FLOAT", "tensorShape": {"dim": [{"size": "1"}, {"size": "1"}, {"size": "1022"}, {"size": "256"}]}}}, "dtype": {"type": "DT_FLOAT"}}}, {"name": "StatefulPartitionedCall/deeplabv3plus/aspp3_pointwise/Conv2D_bn_offset", "op": "Const", "attr": {"value": {"tensor": {"dtype": "DT_FLOAT", "tensorShape": {"dim": [{"size": "256"}]}}}, "dtype": {"type": "DT_FLOAT"}}}, {"name": "StatefulPartitionedCall/deeplabv3plus/image_pooling/Conv2D_weights", "op": "Const", "attr": {"value": {"tensor": {"dtype": "DT_FLOAT", "tensorShape": {"dim": [{"size": "1"}, {"size": "1"}, {"size": "1278"}, {"size": "256"}]}}}, "dtype": {"type": "DT_FLOAT"}}}, {"name": "StatefulPartitionedCall/deeplabv3plus/aspp1_depthwise_BN/FusedBatchNormV3/Offset", "op": "Const", "attr": {"value": {"tensor": {"dtype": "DT_FLOAT", "tensorShape": {"dim": [{"size": "510"}]}}}, "dtype": {"type": "DT_FLOAT"}}}, {"name": "StatefulPartitionedCall/deeplabv3plus/image_pooling/Conv2D_bn_offset", "op": "Const", "attr": {"value": {"tensor": {"dtype": "DT_FLOAT", "tensorShape": {"dim": [{"size": "256"}]}}}, "dtype": {"type": "DT_FLOAT"}}}, {"name": "StatefulPartitionedCall/deeplabv3plus/Conv/BatchNorm/FusedBatchNormV3", "op": "_FusedConv2D", "input": ["input_2", "StatefulPartitionedCall/deeplabv3plus/Conv/Conv2D_weights", "StatefulPartitionedCall/deeplabv3plus/Conv/Conv2D_bn_offset"], "device": "/device:CPU:0", "attr": {"dilations": {"list": {"i": ["1", "1", "1", "1"]}}, "T": {"type": "DT_FLOAT"}, "data_format": {"s": "TkhXQw=="}, "strides": {"list": {"i": ["1", "2", "2", "1"]}}, "explicit_paddings": {"list": {}}, "use_cudnn_on_gpu": {"b": true}, "num_args": {"i": "1"}, "epsilon": {"f": 0.0}, "padding": {"s": "U0FNRQ=="}, "fused_ops": {"list": {"s": ["Qmlhc0FkZA=="]}}}}, {"name": "StatefulPartitionedCall/deeplabv3plus/Conv/HardSwish/hard_sigmoid_15/add", "op": "AddV2", "input": ["StatefulPartitionedCall/deeplabv3plus/Conv/BatchNorm/FusedBatchNormV3", "StatefulPartitionedCall/deeplabv3plus/Conv/HardSwish/hard_sigmoid_15/add/y"], "attr": {"T": {"type": "DT_FLOAT"}}}, {"name": "StatefulPartitionedCall/deeplabv3plus/Conv/HardSwish/hard_sigmoid_15/re_lu_24/Relu6", "op": "Relu6", "input": ["StatefulPartitionedCall/deeplabv3plus/Conv/HardSwish/hard_sigmoid_15/add"], "attr": {"T": {"type": "DT_FLOAT"}}}, {"name": "StatefulPartitionedCall/deeplabv3plus/Conv/HardSwish/hard_sigmoid_15/mul", "op": "Mul", "input": ["StatefulPartitionedCall/deeplabv3plus/Conv/HardSwish/hard_sigmoid_15/mul/y", "StatefulPartitionedCall/deeplabv3plus/Conv/HardSwish/hard_sigmoid_15/re_lu_24/Relu6"], "attr": {"_grappler_ArithmeticOptimizer_MinimizeBroadcasts": {"b": true}, "T": {"type": "DT_FLOAT"}}}, {"name": "StatefulPartitionedCall/deeplabv3plus/Conv/HardSwish/mul", "op": "Mul", "input": ["StatefulPartitionedCall/deeplabv3plus/Conv/HardSwish/hard_sigmoid_15/mul", "StatefulPartitionedCall/deeplabv3plus/Conv/BatchNorm/FusedBatchNormV3"], "attr": {"_grappler_ArithmeticOptimizer_MinimizeBroadcasts": {"b": true}, "T": {"type": "DT_FLOAT"}}}, {"name": "StatefulPartitionedCall/deeplabv3plus/expanded_conv//split0/split", "op": "Split", "input": ["StatefulPartitionedCall/deeplabv3plus/expanded_conv//split0/split/split_dim", "StatefulPartitionedCall/deeplabv3plus/Conv/HardSwish/mul"], "attr": {"T": {"type": "DT_FLOAT"}, "num_split": {"i": "2"}}}, {"name": "StatefulPartitionedCall/deeplabv3plus/expanded_conv/depthwise/depthwise", "op": "FusedDepthwiseConv2dNative", "input": ["StatefulPartitionedCall/deeplabv3plus/expanded_conv//split0/split:1", "StatefulPartitionedCall/deeplabv3plus/expanded_conv/depthwise/depthwise_weights", "StatefulPartitionedCall/deeplabv3plus/expanded_conv/depthwise/depthwise_bn_offset"], "attr": {"dilations": {"list": {"i": ["1", "1", "1", "1"]}}, "T": {"type": "DT_FLOAT"}, "data_format": {"s": "TkhXQw=="}, "strides": {"list": {"i": ["1", "1", "1", "1"]}}, "explicit_paddings": {"list": {}}, "padding": {"s": "U0FNRQ=="}, "num_args": {"i": "1"}, "fused_ops": {"list": {"s": ["Qmlhc0FkZA==", "UmVsdQ=="]}}}}, {"name": "StatefulPartitionedCall/deeplabv3plus/expanded_conv/project/Relu/Relu", "op": "_FusedConv2D", "input": ["StatefulPartitionedCall/deeplabv3plus/expanded_conv/depthwise/depthwise", "StatefulPartitionedCall/deeplabv3plus/expanded_conv/project/Conv2D_weights", "StatefulPartitionedCall/deeplabv3plus/expanded_conv/project/Conv2D_bn_offset"], "device": "/device:CPU:0", "attr": {"dilations": {"list": {"i": ["1", "1", "1", "1"]}}, "T": {"type": "DT_FLOAT"}, "data_format": {"s": "TkhXQw=="}, "strides": {"list": {"i": ["1", "1", "1", "1"]}}, "explicit_paddings": {"list": {}}, "use_cudnn_on_gpu": {"b": true}, "num_args": {"i": "1"}, "epsilon": {"f": 0.0}, "padding": {"s": "U0FNRQ=="}, "fused_ops": {"list": {"s": ["Qmlhc0FkZA==", "UmVsdQ=="]}}}}, {"name": "StatefulPartitionedCall/deeplabv3plus/expanded_conv//concat/concat", "op": "ConcatV2", "input": ["StatefulPartitionedCall/deeplabv3plus/expanded_conv//split0/split", "StatefulPartitionedCall/deeplabv3plus/expanded_conv/project/Relu/Relu", "StatefulPartitionedCall/deeplabv3plus/expanded_conv//concat/concat/axis"], "attr": {"Tidx": {"type": "DT_INT32"}, "T": {"type": "DT_FLOAT"}, "N": {"i": "2"}}}, {"name": "StatefulPartitionedCall/deeplabv3plus/expanded_conv//channelshuffle/reshape_36/Shape", "op": "Shape", "input": ["StatefulPartitionedCall/deeplabv3plus/expanded_conv//concat/concat"], "attr": {"T": {"type": "DT_FLOAT"}, "out_type": {"type": "DT_INT32"}}}, {"name": "StatefulPartitionedCall/deeplabv3plus/expanded_conv//channelshuffle/reshape_36/strided_slice", "op": "StridedSlice", "input": ["StatefulPartitionedCall/deeplabv3plus/expanded_conv//channelshuffle/reshape_36/Shape", "StatefulPartitionedCall/deeplabv3plus/expanded_conv//channelshuffle/reshape_36/strided_slice/stack", "StatefulPartitionedCall/deeplabv3plus/expanded_conv//channelshuffle/reshape_36/strided_slice/stack_1", "StatefulPartitionedCall/deeplabv3plus/expanded_conv//channelshuffle/reshape_36/strided_slice/stack_2"], "attr": {"T": {"type": "DT_INT32"}, "Index": {"type": "DT_INT32"}, "shrink_axis_mask": {"i": "1"}, "ellipsis_mask": {"i": "0"}, "begin_mask": {"i": "0"}, "new_axis_mask": {"i": "0"}, "end_mask": {"i": "0"}}}, {"name": "StatefulPartitionedCall/deeplabv3plus/expanded_conv//channelshuffle/reshape_36/Reshape/shape", "op": "Pack", "input": ["StatefulPartitionedCall/deeplabv3plus/expanded_conv//channelshuffle/reshape_36/strided_slice", "StatefulPartitionedCall/deeplabv3plus/expanded_conv//channelshuffle/reshape_36/Reshape/shape/1", "StatefulPartitionedCall/deeplabv3plus/expanded_conv//channelshuffle/reshape_36/Reshape/shape/2", "StatefulPartitionedCall/deeplabv3plus/expanded_conv//channelshuffle/reshape_36/Reshape/shape/3", "StatefulPartitionedCall/deeplabv3plus/expanded_conv//channelshuffle/reshape_36/Reshape/shape/4"], "attr": {"T": {"type": "DT_INT32"}, "axis": {"i": "0"}, "N": {"i": "5"}}}, {"name": "StatefulPartitionedCall/deeplabv3plus/expanded_conv//channelshuffle/reshape_36/Reshape", "op": "Reshape", "input": ["StatefulPartitionedCall/deeplabv3plus/expanded_conv//concat/concat", "StatefulPartitionedCall/deeplabv3plus/expanded_conv//channelshuffle/reshape_36/Reshape/shape"], "attr": {"T": {"type": "DT_FLOAT"}, "Tshape": {"type": "DT_INT32"}}}, {"name": "StatefulPartitionedCall/deeplabv3plus/expanded_conv//channelshuffle/transpose", "op": "Transpose", "input": ["StatefulPartitionedCall/deeplabv3plus/expanded_conv//channelshuffle/reshape_36/Reshape", "StatefulPartitionedCall/deeplabv3plus/expanded_conv//channelshuffle/transpose/perm"], "attr": {"Tperm": {"type": "DT_INT32"}, "T": {"type": "DT_FLOAT"}}}, {"name": "StatefulPartitionedCall/deeplabv3plus/expanded_conv//channelshuffle/reshape_37/Shape", "op": "Shape", "input": ["StatefulPartitionedCall/deeplabv3plus/expanded_conv//channelshuffle/transpose"], "attr": {"T": {"type": "DT_FLOAT"}, "out_type": {"type": "DT_INT32"}}}, {"name": "StatefulPartitionedCall/deeplabv3plus/expanded_conv//channelshuffle/reshape_37/strided_slice", "op": "StridedSlice", "input": ["StatefulPartitionedCall/deeplabv3plus/expanded_conv//channelshuffle/reshape_37/Shape", "StatefulPartitionedCall/deeplabv3plus/expanded_conv//channelshuffle/reshape_37/strided_slice/stack", "StatefulPartitionedCall/deeplabv3plus/expanded_conv//channelshuffle/reshape_37/strided_slice/stack_1", "StatefulPartitionedCall/deeplabv3plus/expanded_conv//channelshuffle/reshape_37/strided_slice/stack_2"], "attr": {"T": {"type": "DT_INT32"}, "Index": {"type": "DT_INT32"}, "shrink_axis_mask": {"i": "1"}, "ellipsis_mask": {"i": "0"}, "begin_mask": {"i": "0"}, "new_axis_mask": {"i": "0"}, "end_mask": {"i": "0"}}}, {"name": "StatefulPartitionedCall/deeplabv3plus/expanded_conv//channelshuffle/reshape_37/Reshape/shape", "op": "Pack", "input": ["StatefulPartitionedCall/deeplabv3plus/expanded_conv//channelshuffle/reshape_37/strided_slice", "StatefulPartitionedCall/deeplabv3plus/expanded_conv//channelshuffle/reshape_37/Reshape/shape/1", "StatefulPartitionedCall/deeplabv3plus/expanded_conv//channelshuffle/reshape_37/Reshape/shape/2", "StatefulPartitionedCall/deeplabv3plus/expanded_conv//channelshuffle/reshape_37/Reshape/shape/3"], "attr": {"T": {"type": "DT_INT32"}, "axis": {"i": "0"}, "N": {"i": "4"}}}, {"name": "StatefulPartitionedCall/deeplabv3plus/expanded_conv//channelshuffle/reshape_37/Reshape", "op": "Reshape", "input": ["StatefulPartitionedCall/deeplabv3plus/expanded_conv//channelshuffle/transpose", "StatefulPartitionedCall/deeplabv3plus/expanded_conv//channelshuffle/reshape_37/Reshape/shape"], "attr": {"T": {"type": "DT_FLOAT"}, "Tshape": {"type": "DT_INT32"}}}, {"name": "StatefulPartitionedCall/deeplabv3plus/depthwise_conv2d_3/depthwise", "op": "FusedDepthwiseConv2dNative", "input": ["StatefulPartitionedCall/deeplabv3plus/expanded_conv//channelshuffle/reshape_37/Reshape", "StatefulPartitionedCall/deeplabv3plus/depthwise_conv2d_3/depthwise_weights", "StatefulPartitionedCall/deeplabv3plus/depthwise_conv2d_3/depthwise_bn_offset"], "attr": {"dilations": {"list": {"i": ["1", "1", "1", "1"]}}, "T": {"type": "DT_FLOAT"}, "data_format": {"s": "TkhXQw=="}, "strides": {"list": {"i": ["1", "2", "2", "1"]}}, "explicit_paddings": {"list": {}}, "padding": {"s": "U0FNRQ=="}, "num_args": {"i": "1"}, "fused_ops": {"list": {"s": ["Qmlhc0FkZA=="]}}}}, {"name": "StatefulPartitionedCall/deeplabv3plus/expanded_conv_1/expand/ReLU/Relu", "op": "_FusedConv2D", "input": ["StatefulPartitionedCall/deeplabv3plus/expanded_conv//channelshuffle/reshape_37/Reshape", "StatefulPartitionedCall/deeplabv3plus/expanded_conv_1/expand/Conv2D_weights", "StatefulPartitionedCall/deeplabv3plus/expanded_conv_1/expand/Conv2D_bn_offset"], "device": "/device:CPU:0", "attr": {"dilations": {"list": {"i": ["1", "1", "1", "1"]}}, "T": {"type": "DT_FLOAT"}, "data_format": {"s": "TkhXQw=="}, "strides": {"list": {"i": ["1", "1", "1", "1"]}}, "explicit_paddings": {"list": {}}, "use_cudnn_on_gpu": {"b": true}, "num_args": {"i": "1"}, "epsilon": {"f": 0.0}, "padding": {"s": "U0FNRQ=="}, "fused_ops": {"list": {"s": ["Qmlhc0FkZA==", "UmVsdQ=="]}}}}, {"name": "StatefulPartitionedCall/deeplabv3plus/expanded_conv_1/depthwise/depthwise", "op": "FusedDepthwiseConv2dNative", "input": ["StatefulPartitionedCall/deeplabv3plus/expanded_conv_1/expand/ReLU/Relu", "StatefulPartitionedCall/deeplabv3plus/expanded_conv_1/depthwise/depthwise_weights", "StatefulPartitionedCall/deeplabv3plus/expanded_conv_1/depthwise/depthwise_bn_offset"], "attr": {"dilations": {"list": {"i": ["1", "1", "1", "1"]}}, "T": {"type": "DT_FLOAT"}, "data_format": {"s": "TkhXQw=="}, "strides": {"list": {"i": ["1", "2", "2", "1"]}}, "explicit_paddings": {"list": {}}, "padding": {"s": "U0FNRQ=="}, "num_args": {"i": "1"}, "fused_ops": {"list": {"s": ["Qmlhc0FkZA==", "UmVsdQ=="]}}}}, {"name": "StatefulPartitionedCall/deeplabv3plus/re_lu_25/Relu", "op": "_FusedConv2D", "input": ["StatefulPartitionedCall/deeplabv3plus/depthwise_conv2d_3/depthwise", "StatefulPartitionedCall/deeplabv3plus/conv2d_7/Conv2D_weights", "StatefulPartitionedCall/deeplabv3plus/conv2d_7/Conv2D_bn_offset"], "device": "/device:CPU:0", "attr": {"dilations": {"list": {"i": ["1", "1", "1", "1"]}}, "T": {"type": "DT_FLOAT"}, "data_format": {"s": "TkhXQw=="}, "strides": {"list": {"i": ["1", "1", "1", "1"]}}, "explicit_paddings": {"list": {}}, "use_cudnn_on_gpu": {"b": true}, "num_args": {"i": "1"}, "epsilon": {"f": 0.0}, "padding": {"s": "U0FNRQ=="}, "fused_ops": {"list": {"s": ["Qmlhc0FkZA==", "UmVsdQ=="]}}}}, {"name": "StatefulPartitionedCall/deeplabv3plus/expanded_conv_1/project/Relu/Relu", "op": "_FusedConv2D", "input": ["StatefulPartitionedCall/deeplabv3plus/expanded_conv_1/depthwise/depthwise", "StatefulPartitionedCall/deeplabv3plus/expanded_conv_1/project/Conv2D_weights", "StatefulPartitionedCall/deeplabv3plus/expanded_conv_1/project/Conv2D_bn_offset"], "device": "/device:CPU:0", "attr": {"dilations": {"list": {"i": ["1", "1", "1", "1"]}}, "T": {"type": "DT_FLOAT"}, "data_format": {"s": "TkhXQw=="}, "strides": {"list": {"i": ["1", "1", "1", "1"]}}, "explicit_paddings": {"list": {}}, "use_cudnn_on_gpu": {"b": true}, "num_args": {"i": "1"}, "epsilon": {"f": 0.0}, "padding": {"s": "U0FNRQ=="}, "fused_ops": {"list": {"s": ["Qmlhc0FkZA==", "UmVsdQ=="]}}}}, {"name": "StatefulPartitionedCall/deeplabv3plus/expanded_conv_1//concat/concat", "op": "ConcatV2", "input": ["StatefulPartitionedCall/deeplabv3plus/re_lu_25/Relu", "StatefulPartitionedCall/deeplabv3plus/expanded_conv_1/project/Relu/Relu", "StatefulPartitionedCall/deeplabv3plus/expanded_conv_1//concat/concat/axis"], "attr": {"Tidx": {"type": "DT_INT32"}, "T": {"type": "DT_FLOAT"}, "N": {"i": "2"}}}, {"name": "StatefulPartitionedCall/deeplabv3plus/expanded_conv_1//channelshuffle/reshape_38/Shape", "op": "Shape", "input": ["StatefulPartitionedCall/deeplabv3plus/expanded_conv_1//concat/concat"], "attr": {"T": {"type": "DT_FLOAT"}, "out_type": {"type": "DT_INT32"}}}, {"name": "StatefulPartitionedCall/deeplabv3plus/expanded_conv_1//channelshuffle/reshape_38/strided_slice", "op": "StridedSlice", "input": ["StatefulPartitionedCall/deeplabv3plus/expanded_conv_1//channelshuffle/reshape_38/Shape", "StatefulPartitionedCall/deeplabv3plus/expanded_conv_1//channelshuffle/reshape_38/strided_slice/stack", "StatefulPartitionedCall/deeplabv3plus/expanded_conv_1//channelshuffle/reshape_38/strided_slice/stack_1", "StatefulPartitionedCall/deeplabv3plus/expanded_conv_1//channelshuffle/reshape_38/strided_slice/stack_2"], "attr": {"T": {"type": "DT_INT32"}, "Index": {"type": "DT_INT32"}, "shrink_axis_mask": {"i": "1"}, "ellipsis_mask": {"i": "0"}, "begin_mask": {"i": "0"}, "new_axis_mask": {"i": "0"}, "end_mask": {"i": "0"}}}, {"name": "StatefulPartitionedCall/deeplabv3plus/expanded_conv_1//channelshuffle/reshape_38/Reshape/shape", "op": "Pack", "input": ["StatefulPartitionedCall/deeplabv3plus/expanded_conv_1//channelshuffle/reshape_38/strided_slice", "StatefulPartitionedCall/deeplabv3plus/expanded_conv_1//channelshuffle/reshape_38/Reshape/shape/1", "StatefulPartitionedCall/deeplabv3plus/expanded_conv_1//channelshuffle/reshape_38/Reshape/shape/2", "StatefulPartitionedCall/deeplabv3plus/expanded_conv_1//channelshuffle/reshape_38/Reshape/shape/3", "StatefulPartitionedCall/deeplabv3plus/expanded_conv_1//channelshuffle/reshape_38/Reshape/shape/4"], "attr": {"T": {"type": "DT_INT32"}, "axis": {"i": "0"}, "N": {"i": "5"}}}, {"name": "StatefulPartitionedCall/deeplabv3plus/expanded_conv_1//channelshuffle/reshape_38/Reshape", "op": "Reshape", "input": ["StatefulPartitionedCall/deeplabv3plus/expanded_conv_1//concat/concat", "StatefulPartitionedCall/deeplabv3plus/expanded_conv_1//channelshuffle/reshape_38/Reshape/shape"], "attr": {"T": {"type": "DT_FLOAT"}, "Tshape": {"type": "DT_INT32"}}}, {"name": "StatefulPartitionedCall/deeplabv3plus/expanded_conv_1//channelshuffle/transpose", "op": "Transpose", "input": ["StatefulPartitionedCall/deeplabv3plus/expanded_conv_1//channelshuffle/reshape_38/Reshape", "StatefulPartitionedCall/deeplabv3plus/expanded_conv_1//channelshuffle/transpose/perm"], "attr": {"Tperm": {"type": "DT_INT32"}, "T": {"type": "DT_FLOAT"}}}, {"name": "StatefulPartitionedCall/deeplabv3plus/expanded_conv_1//channelshuffle/reshape_39/Shape", "op": "Shape", "input": ["StatefulPartitionedCall/deeplabv3plus/expanded_conv_1//channelshuffle/transpose"], "attr": {"T": {"type": "DT_FLOAT"}, "out_type": {"type": "DT_INT32"}}}, {"name": "StatefulPartitionedCall/deeplabv3plus/expanded_conv_1//channelshuffle/reshape_39/strided_slice", "op": "StridedSlice", "input": ["StatefulPartitionedCall/deeplabv3plus/expanded_conv_1//channelshuffle/reshape_39/Shape", "StatefulPartitionedCall/deeplabv3plus/expanded_conv_1//channelshuffle/reshape_39/strided_slice/stack", "StatefulPartitionedCall/deeplabv3plus/expanded_conv_1//channelshuffle/reshape_39/strided_slice/stack_1", "StatefulPartitionedCall/deeplabv3plus/expanded_conv_1//channelshuffle/reshape_39/strided_slice/stack_2"], "attr": {"T": {"type": "DT_INT32"}, "Index": {"type": "DT_INT32"}, "shrink_axis_mask": {"i": "1"}, "ellipsis_mask": {"i": "0"}, "begin_mask": {"i": "0"}, "new_axis_mask": {"i": "0"}, "end_mask": {"i": "0"}}}, {"name": "StatefulPartitionedCall/deeplabv3plus/expanded_conv_1//channelshuffle/reshape_39/Reshape/shape", "op": "Pack", "input": ["StatefulPartitionedCall/deeplabv3plus/expanded_conv_1//channelshuffle/reshape_39/strided_slice", "StatefulPartitionedCall/deeplabv3plus/expanded_conv_1//channelshuffle/reshape_39/Reshape/shape/1", "StatefulPartitionedCall/deeplabv3plus/expanded_conv_1//channelshuffle/reshape_39/Reshape/shape/2", "StatefulPartitionedCall/deeplabv3plus/expanded_conv_1//channelshuffle/reshape_39/Reshape/shape/3"], "attr": {"T": {"type": "DT_INT32"}, "axis": {"i": "0"}, "N": {"i": "4"}}}, {"name": "StatefulPartitionedCall/deeplabv3plus/expanded_conv_1//channelshuffle/reshape_39/Reshape", "op": "Reshape", "input": ["StatefulPartitionedCall/deeplabv3plus/expanded_conv_1//channelshuffle/transpose", "StatefulPartitionedCall/deeplabv3plus/expanded_conv_1//channelshuffle/reshape_39/Reshape/shape"], "attr": {"T": {"type": "DT_FLOAT"}, "Tshape": {"type": "DT_INT32"}}}, {"name": "StatefulPartitionedCall/deeplabv3plus/expanded_conv//split2/split", "op": "Split", "input": ["StatefulPartitionedCall/deeplabv3plus/expanded_conv//split2/split/split_dim", "StatefulPartitionedCall/deeplabv3plus/expanded_conv_1//channelshuffle/reshape_39/Reshape"], "attr": {"T": {"type": "DT_FLOAT"}, "num_split": {"i": "2"}}}, {"name": "StatefulPartitionedCall/deeplabv3plus/expanded_conv_2/expand/ReLU/Relu", "op": "_FusedConv2D", "input": ["StatefulPartitionedCall/deeplabv3plus/expanded_conv//split2/split:1", "StatefulPartitionedCall/deeplabv3plus/expanded_conv_2/expand/Conv2D_weights", "StatefulPartitionedCall/deeplabv3plus/expanded_conv_2/expand/Conv2D_bn_offset"], "device": "/device:CPU:0", "attr": {"dilations": {"list": {"i": ["1", "1", "1", "1"]}}, "T": {"type": "DT_FLOAT"}, "data_format": {"s": "TkhXQw=="}, "strides": {"list": {"i": ["1", "1", "1", "1"]}}, "explicit_paddings": {"list": {}}, "use_cudnn_on_gpu": {"b": true}, "num_args": {"i": "1"}, "epsilon": {"f": 0.0}, "padding": {"s": "U0FNRQ=="}, "fused_ops": {"list": {"s": ["Qmlhc0FkZA==", "UmVsdQ=="]}}}}, {"name": "StatefulPartitionedCall/deeplabv3plus/expanded_conv_2/depthwise/depthwise", "op": "FusedDepthwiseConv2dNative", "input": ["StatefulPartitionedCall/deeplabv3plus/expanded_conv_2/expand/ReLU/Relu", "StatefulPartitionedCall/deeplabv3plus/expanded_conv_2/depthwise/depthwise_weights", "StatefulPartitionedCall/deeplabv3plus/expanded_conv_2/depthwise/depthwise_bn_offset"], "attr": {"dilations": {"list": {"i": ["1", "1", "1", "1"]}}, "T": {"type": "DT_FLOAT"}, "data_format": {"s": "TkhXQw=="}, "strides": {"list": {"i": ["1", "1", "1", "1"]}}, "explicit_paddings": {"list": {}}, "padding": {"s": "U0FNRQ=="}, "num_args": {"i": "1"}, "fused_ops": {"list": {"s": ["Qmlhc0FkZA==", "UmVsdQ=="]}}}}, {"name": "StatefulPartitionedCall/deeplabv3plus/expanded_conv_2/project/Relu/Relu", "op": "_FusedConv2D", "input": ["StatefulPartitionedCall/deeplabv3plus/expanded_conv_2/depthwise/depthwise", "StatefulPartitionedCall/deeplabv3plus/expanded_conv_2/project/Conv2D_weights", "StatefulPartitionedCall/deeplabv3plus/expanded_conv_2/project/Conv2D_bn_offset"], "device": "/device:CPU:0", "attr": {"dilations": {"list": {"i": ["1", "1", "1", "1"]}}, "T": {"type": "DT_FLOAT"}, "data_format": {"s": "TkhXQw=="}, "strides": {"list": {"i": ["1", "1", "1", "1"]}}, "explicit_paddings": {"list": {}}, "use_cudnn_on_gpu": {"b": true}, "num_args": {"i": "1"}, "epsilon": {"f": 0.0}, "padding": {"s": "U0FNRQ=="}, "fused_ops": {"list": {"s": ["Qmlhc0FkZA==", "UmVsdQ=="]}}}}, {"name": "StatefulPartitionedCall/deeplabv3plus/expanded_conv_2//concat/concat", "op": "ConcatV2", "input": ["StatefulPartitionedCall/deeplabv3plus/expanded_conv//split2/split", "StatefulPartitionedCall/deeplabv3plus/expanded_conv_2/project/Relu/Relu", "StatefulPartitionedCall/deeplabv3plus/expanded_conv_2//concat/concat/axis"], "attr": {"Tidx": {"type": "DT_INT32"}, "T": {"type": "DT_FLOAT"}, "N": {"i": "2"}}}, {"name": "StatefulPartitionedCall/deeplabv3plus/expanded_conv_2//channelshuffle/reshape_40/Shape", "op": "Shape", "input": ["StatefulPartitionedCall/deeplabv3plus/expanded_conv_2//concat/concat"], "attr": {"T": {"type": "DT_FLOAT"}, "out_type": {"type": "DT_INT32"}}}, {"name": "StatefulPartitionedCall/deeplabv3plus/expanded_conv_2//channelshuffle/reshape_40/strided_slice", "op": "StridedSlice", "input": ["StatefulPartitionedCall/deeplabv3plus/expanded_conv_2//channelshuffle/reshape_40/Shape", "StatefulPartitionedCall/deeplabv3plus/expanded_conv_2//channelshuffle/reshape_40/strided_slice/stack", "StatefulPartitionedCall/deeplabv3plus/expanded_conv_2//channelshuffle/reshape_40/strided_slice/stack_1", "StatefulPartitionedCall/deeplabv3plus/expanded_conv_2//channelshuffle/reshape_40/strided_slice/stack_2"], "attr": {"T": {"type": "DT_INT32"}, "Index": {"type": "DT_INT32"}, "shrink_axis_mask": {"i": "1"}, "ellipsis_mask": {"i": "0"}, "begin_mask": {"i": "0"}, "new_axis_mask": {"i": "0"}, "end_mask": {"i": "0"}}}, {"name": "StatefulPartitionedCall/deeplabv3plus/expanded_conv_2//channelshuffle/reshape_40/Reshape/shape", "op": "Pack", "input": ["StatefulPartitionedCall/deeplabv3plus/expanded_conv_2//channelshuffle/reshape_40/strided_slice", "StatefulPartitionedCall/deeplabv3plus/expanded_conv_2//channelshuffle/reshape_40/Reshape/shape/1", "StatefulPartitionedCall/deeplabv3plus/expanded_conv_2//channelshuffle/reshape_40/Reshape/shape/2", "StatefulPartitionedCall/deeplabv3plus/expanded_conv_2//channelshuffle/reshape_40/Reshape/shape/3", "StatefulPartitionedCall/deeplabv3plus/expanded_conv_2//channelshuffle/reshape_40/Reshape/shape/4"], "attr": {"T": {"type": "DT_INT32"}, "axis": {"i": "0"}, "N": {"i": "5"}}}, {"name": "StatefulPartitionedCall/deeplabv3plus/expanded_conv_2//channelshuffle/reshape_40/Reshape", "op": "Reshape", "input": ["StatefulPartitionedCall/deeplabv3plus/expanded_conv_2//concat/concat", "StatefulPartitionedCall/deeplabv3plus/expanded_conv_2//channelshuffle/reshape_40/Reshape/shape"], "attr": {"T": {"type": "DT_FLOAT"}, "Tshape": {"type": "DT_INT32"}}}, {"name": "StatefulPartitionedCall/deeplabv3plus/expanded_conv_2//channelshuffle/transpose", "op": "Transpose", "input": ["StatefulPartitionedCall/deeplabv3plus/expanded_conv_2//channelshuffle/reshape_40/Reshape", "StatefulPartitionedCall/deeplabv3plus/expanded_conv_2//channelshuffle/transpose/perm"], "attr": {"Tperm": {"type": "DT_INT32"}, "T": {"type": "DT_FLOAT"}}}, {"name": "StatefulPartitionedCall/deeplabv3plus/expanded_conv_2//channelshuffle/reshape_41/Shape", "op": "Shape", "input": ["StatefulPartitionedCall/deeplabv3plus/expanded_conv_2//channelshuffle/transpose"], "attr": {"T": {"type": "DT_FLOAT"}, "out_type": {"type": "DT_INT32"}}}, {"name": "StatefulPartitionedCall/deeplabv3plus/expanded_conv_2//channelshuffle/reshape_41/strided_slice", "op": "StridedSlice", "input": ["StatefulPartitionedCall/deeplabv3plus/expanded_conv_2//channelshuffle/reshape_41/Shape", "StatefulPartitionedCall/deeplabv3plus/expanded_conv_2//channelshuffle/reshape_41/strided_slice/stack", "StatefulPartitionedCall/deeplabv3plus/expanded_conv_2//channelshuffle/reshape_41/strided_slice/stack_1", "StatefulPartitionedCall/deeplabv3plus/expanded_conv_2//channelshuffle/reshape_41/strided_slice/stack_2"], "attr": {"T": {"type": "DT_INT32"}, "Index": {"type": "DT_INT32"}, "shrink_axis_mask": {"i": "1"}, "ellipsis_mask": {"i": "0"}, "begin_mask": {"i": "0"}, "new_axis_mask": {"i": "0"}, "end_mask": {"i": "0"}}}, {"name": "StatefulPartitionedCall/deeplabv3plus/expanded_conv_2//channelshuffle/reshape_41/Reshape/shape", "op": "Pack", "input": ["StatefulPartitionedCall/deeplabv3plus/expanded_conv_2//channelshuffle/reshape_41/strided_slice", "StatefulPartitionedCall/deeplabv3plus/expanded_conv_2//channelshuffle/reshape_41/Reshape/shape/1", "StatefulPartitionedCall/deeplabv3plus/expanded_conv_2//channelshuffle/reshape_41/Reshape/shape/2", "StatefulPartitionedCall/deeplabv3plus/expanded_conv_2//channelshuffle/reshape_41/Reshape/shape/3"], "attr": {"T": {"type": "DT_INT32"}, "axis": {"i": "0"}, "N": {"i": "4"}}}, {"name": "StatefulPartitionedCall/deeplabv3plus/expanded_conv_2//channelshuffle/reshape_41/Reshape", "op": "Reshape", "input": ["StatefulPartitionedCall/deeplabv3plus/expanded_conv_2//channelshuffle/transpose", "StatefulPartitionedCall/deeplabv3plus/expanded_conv_2//channelshuffle/reshape_41/Reshape/shape"], "attr": {"T": {"type": "DT_FLOAT"}, "Tshape": {"type": "DT_INT32"}}}, {"name": "StatefulPartitionedCall/deeplabv3plus/feature_projection0/Conv2D", "op": "Conv2D", "input": ["StatefulPartitionedCall/deeplabv3plus/expanded_conv_2//channelshuffle/reshape_41/Reshape", "StatefulPartitionedCall/deeplabv3plus/feature_projection0/Conv2D/ReadVariableOp"], "device": "/device:CPU:0", "attr": {"dilations": {"list": {"i": ["1", "1", "1", "1"]}}, "T": {"type": "DT_FLOAT"}, "data_format": {"s": "TkhXQw=="}, "strides": {"list": {"i": ["1", "1", "1", "1"]}}, "use_cudnn_on_gpu": {"b": true}, "explicit_paddings": {"list": {}}, "padding": {"s": "U0FNRQ=="}}}, {"name": "StatefulPartitionedCall/deeplabv3plus/depthwise_conv2d_4/depthwise", "op": "FusedDepthwiseConv2dNative", "input": ["StatefulPartitionedCall/deeplabv3plus/expanded_conv_2//channelshuffle/reshape_41/Reshape", "StatefulPartitionedCall/deeplabv3plus/depthwise_conv2d_4/depthwise_weights", "StatefulPartitionedCall/deeplabv3plus/depthwise_conv2d_4/depthwise_bn_offset"], "attr": {"dilations": {"list": {"i": ["1", "1", "1", "1"]}}, "T": {"type": "DT_FLOAT"}, "data_format": {"s": "TkhXQw=="}, "strides": {"list": {"i": ["1", "2", "2", "1"]}}, "explicit_paddings": {"list": {}}, "padding": {"s": "U0FNRQ=="}, "num_args": {"i": "1"}, "fused_ops": {"list": {"s": ["Qmlhc0FkZA=="]}}}}, {"name": "StatefulPartitionedCall/deeplabv3plus/expanded_conv_3/expand/ReLU/Relu", "op": "_FusedConv2D", "input": ["StatefulPartitionedCall/deeplabv3plus/expanded_conv_2//channelshuffle/reshape_41/Reshape", "StatefulPartitionedCall/deeplabv3plus/expanded_conv_3/expand/Conv2D_weights", "StatefulPartitionedCall/deeplabv3plus/expanded_conv_3/expand/Conv2D_bn_offset"], "device": "/device:CPU:0", "attr": {"dilations": {"list": {"i": ["1", "1", "1", "1"]}}, "T": {"type": "DT_FLOAT"}, "data_format": {"s": "TkhXQw=="}, "strides": {"list": {"i": ["1", "1", "1", "1"]}}, "explicit_paddings": {"list": {}}, "use_cudnn_on_gpu": {"b": true}, "num_args": {"i": "1"}, "epsilon": {"f": 0.0}, "padding": {"s": "U0FNRQ=="}, "fused_ops": {"list": {"s": ["Qmlhc0FkZA==", "UmVsdQ=="]}}}}, {"name": "StatefulPartitionedCall/deeplabv3plus/global_average_pooling2d_5/Mean", "op": "Mean", "input": ["StatefulPartitionedCall/deeplabv3plus/feature_projection0/Conv2D", "StatefulPartitionedCall/deeplabv3plus/global_average_pooling2d_5/Mean/reduction_indices"], "attr": {"keep_dims": {"b": false}, "Tidx": {"type": "DT_INT32"}, "T": {"type": "DT_FLOAT"}}}, {"name": "StatefulPartitionedCall/deeplabv3plus/expanded_conv_3/depthwise/depthwise", "op": "FusedDepthwiseConv2dNative", "input": ["StatefulPartitionedCall/deeplabv3plus/expanded_conv_3/expand/ReLU/Relu", "StatefulPartitionedCall/deeplabv3plus/expanded_conv_3/depthwise/depthwise_weights", "StatefulPartitionedCall/deeplabv3plus/expanded_conv_3/depthwise/depthwise_bn_offset"], "attr": {"dilations": {"list": {"i": ["1", "1", "1", "1"]}}, "T": {"type": "DT_FLOAT"}, "data_format": {"s": "TkhXQw=="}, "strides": {"list": {"i": ["1", "2", "2", "1"]}}, "explicit_paddings": {"list": {}}, "padding": {"s": "U0FNRQ=="}, "num_args": {"i": "1"}, "fused_ops": {"list": {"s": ["Qmlhc0FkZA==", "UmVsdQ=="]}}}}, {"name": "StatefulPartitionedCall/deeplabv3plus/reshape_70/Shape", "op": "Shape", "input": ["StatefulPartitionedCall/deeplabv3plus/global_average_pooling2d_5/Mean"], "attr": {"T": {"type": "DT_FLOAT"}, "out_type": {"type": "DT_INT32"}}}, {"name": "StatefulPartitionedCall/deeplabv3plus/re_lu_26/Relu", "op": "_FusedConv2D", "input": ["StatefulPartitionedCall/deeplabv3plus/depthwise_conv2d_4/depthwise", "StatefulPartitionedCall/deeplabv3plus/conv2d_8/Conv2D_weights", "StatefulPartitionedCall/deeplabv3plus/conv2d_8/Conv2D_bn_offset"], "device": "/device:CPU:0", "attr": {"dilations": {"list": {"i": ["1", "1", "1", "1"]}}, "T": {"type": "DT_FLOAT"}, "data_format": {"s": "TkhXQw=="}, "strides": {"list": {"i": ["1", "1", "1", "1"]}}, "explicit_paddings": {"list": {}}, "use_cudnn_on_gpu": {"b": true}, "num_args": {"i": "1"}, "epsilon": {"f": 0.0}, "padding": {"s": "U0FNRQ=="}, "fused_ops": {"list": {"s": ["Qmlhc0FkZA==", "UmVsdQ=="]}}}}, {"name": "StatefulPartitionedCall/deeplabv3plus/reshape_70/strided_slice", "op": "StridedSlice", "input": ["StatefulPartitionedCall/deeplabv3plus/reshape_70/Shape", "StatefulPartitionedCall/deeplabv3plus/reshape_70/strided_slice/stack", "StatefulPartitionedCall/deeplabv3plus/reshape_70/strided_slice/stack_1", "StatefulPartitionedCall/deeplabv3plus/reshape_70/strided_slice/stack_2"], "attr": {"T": {"type": "DT_INT32"}, "Index": {"type": "DT_INT32"}, "shrink_axis_mask": {"i": "1"}, "ellipsis_mask": {"i": "0"}, "begin_mask": {"i": "0"}, "new_axis_mask": {"i": "0"}, "end_mask": {"i": "0"}}}, {"name": "StatefulPartitionedCall/deeplabv3plus/reshape_70/Reshape/shape", "op": "Pack", "input": ["StatefulPartitionedCall/deeplabv3plus/reshape_70/strided_slice", "StatefulPartitionedCall/deeplabv3plus/reshape_70/Reshape/shape/1", "StatefulPartitionedCall/deeplabv3plus/reshape_70/Reshape/shape/2"], "attr": {"T": {"type": "DT_INT32"}, "axis": {"i": "0"}, "N": {"i": "3"}}}, {"name": "StatefulPartitionedCall/deeplabv3plus/expanded_conv_3/squeeze_excite/AvgPool/Mean", "op": "Mean", "input": ["StatefulPartitionedCall/deeplabv3plus/expanded_conv_3/depthwise/depthwise", "StatefulPartitionedCall/deeplabv3plus/expanded_conv_3/squeeze_excite/AvgPool/Mean/reduction_indices"], "attr": {"keep_dims": {"b": false}…
nnelshuffle/reshape_43/Reshape/shape/4", "shape": [], "dtype": "int32"}, {"name": "StatefulPartitionedCall/deeplabv3plus/expanded_conv_3//channelshuffle/transpose/perm", "shape": [5], "dtype": "int32"}, {"name": "StatefulPartitionedCall/deeplabv3plus/expanded_conv_3//channelshuffle/reshape_44/strided_slice/stack", "shape": [1], "dtype": "int32"}, {"name": "StatefulPartitionedCall/deeplabv3plus/expanded_conv_3//channelshuffle/reshape_44/strided_slice/stack_1", "shape": [1], "dtype": "int32"}, {"name": "StatefulPartitionedCall/deeplabv3plus/expanded_conv_3//channelshuffle/reshape_44/strided_slice/stack_2", "shape": [1], "dtype": "int32"}, {"name": "StatefulPartitionedCall/deeplabv3plus/expanded_conv_3//channelshuffle/reshape_44/Reshape/shape/1", "shape": [], "dtype": "int32"}, {"name": "StatefulPartitionedCall/deeplabv3plus/expanded_conv_3//channelshuffle/reshape_44/Reshape/shape/2", "shape": [], "dtype": "int32"}, {"name": "StatefulPartitionedCall/deeplabv3plus/expanded_conv_3//channelshuffle/reshape_44/Reshape/shape/3", "shape": [], "dtype": "int32"}, {"name": "StatefulPartitionedCall/deeplabv3plus/expanded_conv_4//concat/concat/axis", "shape": [], "dtype": "int32"}, {"name": "StatefulPartitionedCall/deeplabv3plus/expanded_conv_4//channelshuffle/reshape_46/strided_slice/stack", "shape": [1], "dtype": "int32"}, {"name": "StatefulPartitionedCall/deeplabv3plus/expanded_conv_4//channelshuffle/reshape_46/strided_slice/stack_1", "shape": [1], "dtype": "int32"}, {"name": "StatefulPartitionedCall/deeplabv3plus/expanded_conv_4//channelshuffle/reshape_46/strided_slice/stack_2", "shape": [1], "dtype": "int32"}, {"name": "StatefulPartitionedCall/deeplabv3plus/expanded_conv_4//channelshuffle/reshape_46/Reshape/shape/1", "shape": [], "dtype": "int32"}, {"name": "StatefulPartitionedCall/deeplabv3plus/expanded_conv_4//channelshuffle/reshape_46/Reshape/shape/2", "shape": [], "dtype": "int32"}, {"name": "StatefulPartitionedCall/deeplabv3plus/expanded_conv_4//channelshuffle/reshape_46/Reshape/shape/3", "shape": [], "dtype": "int32"}, {"name": "StatefulPartitionedCall/deeplabv3plus/expanded_conv_4//channelshuffle/reshape_46/Reshape/shape/4", "shape": [], "dtype": "int32"}, {"name": "StatefulPartitionedCall/deeplabv3plus/expanded_conv_4//channelshuffle/transpose/perm", "shape": [5], "dtype": "int32"}, {"name": "StatefulPartitionedCall/deeplabv3plus/expanded_conv_4//channelshuffle/reshape_47/strided_slice/stack", "shape": [1], "dtype": "int32"}, {"name": "StatefulPartitionedCall/deeplabv3plus/expanded_conv_4//channelshuffle/reshape_47/strided_slice/stack_1", "shape": [1], "dtype": "int32"}, {"name": "StatefulPartitionedCall/deeplabv3plus/expanded_conv_4//channelshuffle/reshape_47/strided_slice/stack_2", "shape": [1], "dtype": "int32"}, {"name": "StatefulPartitionedCall/deeplabv3plus/expanded_conv_4//channelshuffle/reshape_47/Reshape/shape/1", "shape": [], "dtype": "int32"}, {"name": "StatefulPartitionedCall/deeplabv3plus/expanded_conv_4//channelshuffle/reshape_47/Reshape/shape/2", "shape": [], "dtype": "int32"}, {"name": "StatefulPartitionedCall/deeplabv3plus/expanded_conv_4//channelshuffle/reshape_47/Reshape/shape/3", "shape": [], "dtype": "int32"}, {"name": "StatefulPartitionedCall/deeplabv3plus/expanded_conv_5//concat/concat/axis", "shape": [], "dtype": "int32"}, {"name": "StatefulPartitionedCall/deeplabv3plus/expanded_conv_5//channelshuffle/reshape_49/strided_slice/stack", "shape": [1], "dtype": "int32"}, {"name": "StatefulPartitionedCall/deeplabv3plus/expanded_conv_5//channelshuffle/reshape_49/strided_slice/stack_1", "shape": [1], "dtype": "int32"}, {"name": "StatefulPartitionedCall/deeplabv3plus/expanded_conv_5//channelshuffle/reshape_49/strided_slice/stack_2", "shape": [1], "dtype": "int32"}, {"name": "StatefulPartitionedCall/deeplabv3plus/expanded_conv_5//channelshuffle/reshape_49/Reshape/shape/1", "shape": [], "dtype": "int32"}, {"name": "StatefulPartitionedCall/deeplabv3plus/expanded_conv_5//channelshuffle/reshape_49/Reshape/shape/2", "shape": [], "dtype": "int32"}, {"name": "StatefulPartitionedCall/deeplabv3plus/expanded_conv_5//channelshuffle/reshape_49/Reshape/shape/3", "shape": [], "dtype": "int32"}, {"name": "StatefulPartitionedCall/deeplabv3plus/expanded_conv_5//channelshuffle/reshape_49/Reshape/shape/4", "shape": [], "dtype": "int32"}, {"name": "StatefulPartitionedCall/deeplabv3plus/expanded_conv_5//channelshuffle/transpose/perm", "shape": [5], "dtype": "int32"}, {"name": "StatefulPartitionedCall/deeplabv3plus/expanded_conv_5//channelshuffle/reshape_50/strided_slice/stack", "shape": [1], "dtype": "int32"}, {"name": "StatefulPartitionedCall/deeplabv3plus/expanded_conv_5//channelshuffle/reshape_50/strided_slice/stack_1", "shape": [1], "dtype": "int32"}, {"name": "StatefulPartitionedCall/deeplabv3plus/expanded_conv_5//channelshuffle/reshape_50/strided_slice/stack_2", "shape": [1], "dtype": "int32"}, {"name": "StatefulPartitionedCall/deeplabv3plus/expanded_conv_5//channelshuffle/reshape_50/Reshape/shape/1", "shape": [], "dtype": "int32"}, {"name": "StatefulPartitionedCall/deeplabv3plus/expanded_conv_5//channelshuffle/reshape_50/Reshape/shape/2", "shape": [], "dtype": "int32"}, {"name": "StatefulPartitionedCall/deeplabv3plus/expanded_conv_5//channelshuffle/reshape_50/Reshape/shape/3", "shape": [], "dtype": "int32"}, {"name": "StatefulPartitionedCall/deeplabv3plus/expanded_conv_6//concat/concat/axis", "shape": [], "dtype": "int32"}, {"name": "StatefulPartitionedCall/deeplabv3plus/expanded_conv_6//channelshuffle/reshape_51/strided_slice/stack", "shape": [1], "dtype": "int32"}, {"name": "StatefulPartitionedCall/deeplabv3plus/expanded_conv_6//channelshuffle/reshape_51/strided_slice/stack_1", "shape": [1], "dtype": "int32"}, {"name": "StatefulPartitionedCall/deeplabv3plus/expanded_conv_6//channelshuffle/reshape_51/strided_slice/stack_2", "shape": [1], "dtype": "int32"}, {"name": "StatefulPartitionedCall/deeplabv3plus/expanded_conv_6//channelshuffle/reshape_51/Reshape/shape/1", "shape": [], "dtype": "int32"}, {"name": "StatefulPartitionedCall/deeplabv3plus/expanded_conv_6//channelshuffle/reshape_51/Reshape/shape/2", "shape": [], "dtype": "int32"}, {"name": "StatefulPartitionedCall/deeplabv3plus/expanded_conv_6//channelshuffle/reshape_51/Reshape/shape/3", "shape": [], "dtype": "int32"}, {"name": "StatefulPartitionedCall/deeplabv3plus/expanded_conv_6//channelshuffle/reshape_51/Reshape/shape/4", "shape": [], "dtype": "int32"}, {"name": "StatefulPartitionedCall/deeplabv3plus/expanded_conv_6//channelshuffle/transpose/perm", "shape": [5], "dtype": "int32"}, {"name": "StatefulPartitionedCall/deeplabv3plus/expanded_conv_6//channelshuffle/reshape_52/strided_slice/stack", "shape": [1], "dtype": "int32"}, {"name": "StatefulPartitionedCall/deeplabv3plus/expanded_conv_6//channelshuffle/reshape_52/strided_slice/stack_1", "shape": [1], "dtype": "int32"}, {"name": "StatefulPartitionedCall/deeplabv3plus/expanded_conv_6//channelshuffle/reshape_52/strided_slice/stack_2", "shape": [1], "dtype": "int32"}, {"name": "StatefulPartitionedCall/deeplabv3plus/expanded_conv_6//channelshuffle/reshape_52/Reshape/shape/1", "shape": [], "dtype": "int32"}, {"name": "StatefulPartitionedCall/deeplabv3plus/expanded_conv_6//channelshuffle/reshape_52/Reshape/shape/2", "shape": [], "dtype": "int32"}, {"name": "StatefulPartitionedCall/deeplabv3plus/expanded_conv_6//channelshuffle/reshape_52/Reshape/shape/3", "shape": [], "dtype": "int32"}, {"name": "StatefulPartitionedCall/deeplabv3plus/expanded_conv_7//concat/concat/axis", "shape": [], "dtype": "int32"}, {"name": "StatefulPartitionedCall/deeplabv3plus/expanded_conv_7//channelshuffle/reshape_53/strided_slice/stack", "shape": [1], "dtype": "int32"}, {"name": "StatefulPartitionedCall/deeplabv3plus/expanded_conv_7//channelshuffle/reshape_53/strided_slice/stack_1", "shape": [1], "dtype": "int32"}, {"name": "StatefulPartitionedCall/deeplabv3plus/expanded_conv_7//channelshuffle/reshape_53/strided_slice/stack_2", "shape": [1], "dtype": "int32"}, {"name": "StatefulPartitionedCall/deeplabv3plus/expanded_conv_7//channelshuffle/reshape_53/Reshape/shape/1", "shape": [], "dtype": "int32"}, {"name": "StatefulPartitionedCall/deeplabv3plus/expanded_conv_7//channelshuffle/reshape_53/Reshape/shape/2", "shape": [], "dtype": "int32"}, {"name": "StatefulPartitionedCall/deeplabv3plus/expanded_conv_7//channelshuffle/reshape_53/Reshape/shape/3", "shape": [], "dtype": "int32"}, {"name": "StatefulPartitionedCall/deeplabv3plus/expanded_conv_7//channelshuffle/reshape_53/Reshape/shape/4", "shape": [], "dtype": "int32"}, {"name": "StatefulPartitionedCall/deeplabv3plus/expanded_conv_7//channelshuffle/transpose/perm", "shape": [5], "dtype": "int32"}, {"name": "StatefulPartitionedCall/deeplabv3plus/expanded_conv_7//channelshuffle/reshape_54/strided_slice/stack", "shape": [1], "dtype": "int32"}, {"name": "StatefulPartitionedCall/deeplabv3plus/expanded_conv_7//channelshuffle/reshape_54/strided_slice/stack_1", "shape": [1], "dtype": "int32"}, {"name": "StatefulPartitionedCall/deeplabv3plus/expanded_conv_7//channelshuffle/reshape_54/strided_slice/stack_2", "shape": [1], "dtype": "int32"}, {"name": "StatefulPartitionedCall/deeplabv3plus/expanded_conv_7//channelshuffle/reshape_54/Reshape/shape/1", "shape": [], "dtype": "int32"}, {"name": "StatefulPartitionedCall/deeplabv3plus/expanded_conv_7//channelshuffle/reshape_54/Reshape/shape/2", "shape": [], "dtype": "int32"}, {"name": "StatefulPartitionedCall/deeplabv3plus/expanded_conv_7//channelshuffle/reshape_54/Reshape/shape/3", "shape": [], "dtype": "int32"}, {"name": "StatefulPartitionedCall/deeplabv3plus/expanded_conv_8//concat/concat/axis", "shape": [], "dtype": "int32"}, {"name": "StatefulPartitionedCall/deeplabv3plus/expanded_conv_8//channelshuffle/reshape_55/strided_slice/stack", "shape": [1], "dtype": "int32"}, {"name": "StatefulPartitionedCall/deeplabv3plus/expanded_conv_8//channelshuffle/reshape_55/strided_slice/stack_1", "shape": [1], "dtype": "int32"}, {"name": "StatefulPartitionedCall/deeplabv3plus/expanded_conv_8//channelshuffle/reshape_55/strided_slice/stack_2", "shape": [1], "dtype": "int32"}, {"name": "StatefulPartitionedCall/deeplabv3plus/expanded_conv_8//channelshuffle/reshape_55/Reshape/shape/1", "shape": [], "dtype": "int32"}, {"name": "StatefulPartitionedCall/deeplabv3plus/expanded_conv_8//channelshuffle/reshape_55/Reshape/shape/2", "shape": [], "dtype": "int32"}, {"name": "StatefulPartitionedCall/deeplabv3plus/expanded_conv_8//channelshuffle/reshape_55/Reshape/shape/3", "shape": [], "dtype": "int32"}, {"name": "StatefulPartitionedCall/deeplabv3plus/expanded_conv_8//channelshuffle/reshape_55/Reshape/shape/4", "shape": [], "dtype": "int32"}, {"name": "StatefulPartitionedCall/deeplabv3plus/expanded_conv_8//channelshuffle/transpose/perm", "shape": [5], "dtype": "int32"}, {"name": "StatefulPartitionedCall/deeplabv3plus/expanded_conv_8//channelshuffle/reshape_56/strided_slice/stack", "shape": [1], "dtype": "int32"}, {"name": "StatefulPartitionedCall/deeplabv3plus/expanded_conv_8//channelshuffle/reshape_56/strided_slice/stack_1", "shape": [1], "dtype": "int32"}, {"name": "StatefulPartitionedCall/deeplabv3plus/expanded_conv_8//channelshuffle/reshape_56/strided_slice/stack_2", "shape": [1], "dtype": "int32"}, {"name": "StatefulPartitionedCall/deeplabv3plus/expanded_conv_8//channelshuffle/reshape_56/Reshape/shape/1", "shape": [], "dtype": "int32"}, {"name": "StatefulPartitionedCall/deeplabv3plus/expanded_conv_8//channelshuffle/reshape_56/Reshape/shape/2", "shape": [], "dtype": "int32"}, {"name": "StatefulPartitionedCall/deeplabv3plus/expanded_conv_8//channelshuffle/reshape_56/Reshape/shape/3", "shape": [], "dtype": "int32"}, {"name": "StatefulPartitionedCall/deeplabv3plus/expanded_conv_9//concat/concat/axis", "shape": [], "dtype": "int32"}, {"name": "StatefulPartitionedCall/deeplabv3plus/expanded_conv_9//channelshuffle/reshape_57/strided_slice/stack", "shape": [1], "dtype": "int32"}, {"name": "StatefulPartitionedCall/deeplabv3plus/expanded_conv_9//channelshuffle/reshape_57/strided_slice/stack_1", "shape": [1], "dtype": "int32"}, {"name": "StatefulPartitionedCall/deeplabv3plus/expanded_conv_9//channelshuffle/reshape_57/strided_slice/stack_2", "shape": [1], "dtype": "int32"}, {"name": "StatefulPartitionedCall/deeplabv3plus/expanded_conv_9//channelshuffle/reshape_57/Reshape/shape/1", "shape": [], "dtype": "int32"}, {"name": "StatefulPartitionedCall/deeplabv3plus/expanded_conv_9//channelshuffle/reshape_57/Reshape/shape/2", "shape": [], "dtype": "int32"}, {"name": "StatefulPartitionedCall/deeplabv3plus/expanded_conv_9//channelshuffle/reshape_57/Reshape/shape/3", "shape": [], "dtype": "int32"}, {"name": "StatefulPartitionedCall/deeplabv3plus/expanded_conv_9//channelshuffle/reshape_57/Reshape/shape/4", "shape": [], "dtype": "int32"}, {"name": "StatefulPartitionedCall/deeplabv3plus/expanded_conv_9//channelshuffle/transpose/perm", "shape": [5], "dtype": "int32"}, {"name": "StatefulPartitionedCall/deeplabv3plus/expanded_conv_9//channelshuffle/reshape_58/strided_slice/stack", "shape": [1], "dtype": "int32"}, {"name": "StatefulPartitionedCall/deeplabv3plus/expanded_conv_9//channelshuffle/reshape_58/strided_slice/stack_1", "shape": [1], "dtype": "int32"}, {"name": "StatefulPartitionedCall/deeplabv3plus/expanded_conv_9//channelshuffle/reshape_58/strided_slice/stack_2", "shape": [1], "dtype": "int32"}, {"name": "StatefulPartitionedCall/deeplabv3plus/expanded_conv_9//channelshuffle/reshape_58/Reshape/shape/1", "shape": [], "dtype": "int32"}, {"name": "StatefulPartitionedCall/deeplabv3plus/expanded_conv_9//channelshuffle/reshape_58/Reshape/shape/2", "shape": [], "dtype": "int32"}, {"name": "StatefulPartitionedCall/deeplabv3plus/expanded_conv_9//channelshuffle/reshape_58/Reshape/shape/3", "shape": [], "dtype": "int32"}, {"name": "StatefulPartitionedCall/deeplabv3plus/expanded_conv_10//concat/concat/axis", "shape": [], "dtype": "int32"}, {"name": "StatefulPartitionedCall/deeplabv3plus/expanded_conv_10//channelshuffle/reshape_60/strided_slice/stack", "shape": [1], "dtype": "int32"}, {"name": "StatefulPartitionedCall/deeplabv3plus/expanded_conv_10//channelshuffle/reshape_60/strided_slice/stack_1", "shape": [1], "dtype": "int32"}, {"name": "StatefulPartitionedCall/deeplabv3plus/expanded_conv_10//channelshuffle/reshape_60/strided_slice/stack_2", "shape": [1], "dtype": "int32"}, {"name": "StatefulPartitionedCall/deeplabv3plus/expanded_conv_10//channelshuffle/reshape_60/Reshape/shape/1", "shape": [], "dtype": "int32"}, {"name": "StatefulPartitionedCall/deeplabv3plus/expanded_conv_10//channelshuffle/reshape_60/Reshape/shape/2", "shape": [], "dtype": "int32"}, {"name": "StatefulPartitionedCall/deeplabv3plus/expanded_conv_10//channelshuffle/reshape_60/Reshape/shape/3", "shape": [], "dtype": "int32"}, {"name": "StatefulPartitionedCall/deeplabv3plus/expanded_conv_10//channelshuffle/reshape_60/Reshape/shape/4", "shape": [], "dtype": "int32"}, {"name": "StatefulPartitionedCall/deeplabv3plus/expanded_conv_10//channelshuffle/transpose/perm", "shape": [5], "dtype": "int32"}, {"name": "StatefulPartitionedCall/deeplabv3plus/expanded_conv_10//channelshuffle/reshape_61/strided_slice/stack", "shape": [1], "dtype": "int32"}, {"name": "StatefulPartitionedCall/deeplabv3plus/expanded_conv_10//channelshuffle/reshape_61/strided_slice/stack_1", "shape": [1], "dtype": "int32"}, {"name": "StatefulPartitionedCall/deeplabv3plus/expanded_conv_10//channelshuffle/reshape_61/strided_slice/stack_2", "shape": [1], "dtype": "int32"}, {"name": "StatefulPartitionedCall/deeplabv3plus/expanded_conv_10//channelshuffle/reshape_61/Reshape/shape/1", "shape": [], "dtype": "int32"}, {"name": "StatefulPartitionedCall/deeplabv3plus/expanded_conv_10//channelshuffle/reshape_61/Reshape/shape/2", "shape": [], "dtype": "int32"}, {"name": "StatefulPartitionedCall/deeplabv3plus/expanded_conv_10//channelshuffle/reshape_61/Reshape/shape/3", "shape": [], "dtype": "int32"}, {"name": "StatefulPartitionedCall/deeplabv3plus/expanded_conv_11//concat/concat/axis", "shape": [], "dtype": "int32"}, {"name": "StatefulPartitionedCall/deeplabv3plus/expanded_conv_11//channelshuffle/reshape_63/strided_slice/stack", "shape": [1], "dtype": "int32"}, {"name": "StatefulPartitionedCall/deeplabv3plus/expanded_conv_11//channelshuffle/reshape_63/strided_slice/stack_1", "shape": [1], "dtype": "int32"}, {"name": "StatefulPartitionedCall/deeplabv3plus/expanded_conv_11//channelshuffle/reshape_63/strided_slice/stack_2", "shape": [1], "dtype": "int32"}, {"name": "StatefulPartitionedCall/deeplabv3plus/expanded_conv_11//channelshuffle/reshape_63/Reshape/shape/1", "shape": [], "dtype": "int32"}, {"name": "StatefulPartitionedCall/deeplabv3plus/expanded_conv_11//channelshuffle/reshape_63/Reshape/shape/2", "shape": [], "dtype": "int32"}, {"name": "StatefulPartitionedCall/deeplabv3plus/expanded_conv_11//channelshuffle/reshape_63/Reshape/shape/3", "shape": [], "dtype": "int32"}, {"name": "StatefulPartitionedCall/deeplabv3plus/expanded_conv_11//channelshuffle/reshape_63/Reshape/shape/4", "shape": [], "dtype": "int32"}, {"name": "StatefulPartitionedCall/deeplabv3plus/expanded_conv_11//channelshuffle/transpose/perm", "shape": [5], "dtype": "int32"}, {"name": "StatefulPartitionedCall/deeplabv3plus/expanded_conv_11//channelshuffle/reshape_64/strided_slice/stack", "shape": [1], "dtype": "int32"}, {"name": "StatefulPartitionedCall/deeplabv3plus/expanded_conv_11//channelshuffle/reshape_64/strided_slice/stack_1", "shape": [1], "dtype": "int32"}, {"name": "StatefulPartitionedCall/deeplabv3plus/expanded_conv_11//channelshuffle/reshape_64/strided_slice/stack_2", "shape": [1], "dtype": "int32"}, {"name": "StatefulPartitionedCall/deeplabv3plus/expanded_conv_11//channelshuffle/reshape_64/Reshape/shape/1", "shape": [], "dtype": "int32"}, {"name": "StatefulPartitionedCall/deeplabv3plus/expanded_conv_11//channelshuffle/reshape_64/Reshape/shape/2", "shape": [], "dtype": "int32"}, {"name": "StatefulPartitionedCall/deeplabv3plus/expanded_conv_11//channelshuffle/reshape_64/Reshape/shape/3", "shape": [], "dtype": "int32"}, {"name": "StatefulPartitionedCall/deeplabv3plus/expanded_conv_12//concat/concat/axis", "shape": [], "dtype": "int32"}, {"name": "StatefulPartitionedCall/deeplabv3plus/expanded_conv_12//channelshuffle/reshape_66/strided_slice/stack", "shape": [1], "dtype": "int32"}, {"name": "StatefulPartitionedCall/deeplabv3plus/expanded_conv_12//channelshuffle/reshape_66/strided_slice/stack_1", "shape": [1], "dtype": "int32"}, {"name": "StatefulPartitionedCall/deeplabv3plus/expanded_conv_12//channelshuffle/reshape_66/strided_slice/stack_2", "shape": [1], "dtype": "int32"}, {"name": "StatefulPartitionedCall/deeplabv3plus/expanded_conv_12//channelshuffle/reshape_66/Reshape/shape/1", "shape": [], "dtype": "int32"}, {"name": "StatefulPartitionedCall/deeplabv3plus/expanded_conv_12//channelshuffle/reshape_66/Reshape/shape/2", "shape": [], "dtype": "int32"}, {"name": "StatefulPartitionedCall/deeplabv3plus/expanded_conv_12//channelshuffle/reshape_66/Reshape/shape/3", "shape": [], "dtype": "int32"}, {"name": "StatefulPartitionedCall/deeplabv3plus/expanded_conv_12//channelshuffle/reshape_66/Reshape/shape/4", "shape": [], "dtype": "int32"}, {"name": "StatefulPartitionedCall/deeplabv3plus/expanded_conv_12//channelshuffle/transpose/perm", "shape": [5], "dtype": "int32"}, {"name": "StatefulPartitionedCall/deeplabv3plus/expanded_conv_12//channelshuffle/reshape_67/strided_slice/stack", "shape": [1], "dtype": "int32"}, {"name": "StatefulPartitionedCall/deeplabv3plus/expanded_conv_12//channelshuffle/reshape_67/strided_slice/stack_1", "shape": [1], "dtype": "int32"}, {"name": "StatefulPartitionedCall/deeplabv3plus/expanded_conv_12//channelshuffle/reshape_67/strided_slice/stack_2", "shape": [1], "dtype": "int32"}, {"name": "StatefulPartitionedCall/deeplabv3plus/expanded_conv_12//channelshuffle/reshape_67/Reshape/shape/1", "shape": [], "dtype": "int32"}, {"name": "StatefulPartitionedCall/deeplabv3plus/expanded_conv_12//channelshuffle/reshape_67/Reshape/shape/2", "shape": [], "dtype": "int32"}, {"name": "StatefulPartitionedCall/deeplabv3plus/expanded_conv_12//channelshuffle/reshape_67/Reshape/shape/3", "shape": [], "dtype": "int32"}, {"name": "StatefulPartitionedCall/deeplabv3plus/concatenate_8/concat/axis", "shape": [], "dtype": "int32"}, {"name": "StatefulPartitionedCall/deeplabv3plus/aspp1_depthwise/depthwise/SpaceToBatchND/block_shape", "shape": [2], "dtype": "int32"}, {"name": "StatefulPartitionedCall/deeplabv3plus/aspp1_depthwise/depthwise/SpaceToBatchND/paddings", "shape": [2, 2], "dtype": "int32"}, {"name": "StatefulPartitionedCall/deeplabv3plus/aspp1_depthwise/depthwise/ReadVariableOp", "shape": [3, 3, 510, 1], "dtype": "float32"}, {"name": "StatefulPartitionedCall/deeplabv3plus/aspp1_depthwise/depthwise/BatchToSpaceND/block_shape", "shape": [2], "dtype": "int32"}, {"name": "StatefulPartitionedCall/deeplabv3plus/aspp1_depthwise/depthwise/BatchToSpaceND/crops", "shape": [2, 2], "dtype": "int32"}, {"name": "StatefulPartitionedCall/deeplabv3plus/concatenate_9/concat/axis", "shape": [], "dtype": "int32"}, {"name": "StatefulPartitionedCall/deeplabv3plus/aspp2_depthwise/depthwise/SpaceToBatchND/block_shape", "shape": [2], "dtype": "int32"}, {"name": "StatefulPartitionedCall/deeplabv3plus/aspp2_depthwise/depthwise/SpaceToBatchND/paddings", "shape": [2, 2], "dtype": "int32"}, {"name": "StatefulPartitionedCall/deeplabv3plus/aspp2_depthwise/depthwise/ReadVariableOp", "shape": [3, 3, 766, 1], "dtype": "float32"}, {"name": "StatefulPartitionedCall/deeplabv3plus/aspp2_depthwise/depthwise/BatchToSpaceND/block_shape", "shape": [2], "dtype": "int32"}, {"name": "StatefulPartitionedCall/deeplabv3plus/aspp2_depthwise/depthwise/BatchToSpaceND/crops", "shape": [2, 2], "dtype": "int32"}, {"name": "StatefulPartitionedCall/deeplabv3plus/concatenate_10/concat/axis", "shape": [], "dtype": "int32"}, {"name": "StatefulPartitionedCall/deeplabv3plus/aspp3_depthwise/depthwise/SpaceToBatchND/block_shape", "shape": [2], "dtype": "int32"}, {"name": "StatefulPartitionedCall/deeplabv3plus/aspp3_depthwise/depthwise/SpaceToBatchND/paddings", "shape": [2, 2], "dtype": "int32"}, {"name": "StatefulPartitionedCall/deeplabv3plus/aspp3_depthwise/depthwise/ReadVariableOp", "shape": [3, 3, 1022, 1], "dtype": "float32"}, {"name": "StatefulPartitionedCall/deeplabv3plus/aspp3_depthwise/depthwise/BatchToSpaceND/block_shape", "shape": [2], "dtype": "int32"}, {"name": "StatefulPartitionedCall/deeplabv3plus/aspp3_depthwise/depthwise/BatchToSpaceND/crops", "shape": [2, 2], "dtype": "int32"}, {"name": "StatefulPartitionedCall/deeplabv3plus/concatenate_12/concat/axis", "shape": [], "dtype": "int32"}, {"name": "StatefulPartitionedCall/deeplabv3plus/concat_projection/Conv2D/ReadVariableOp", "shape": [1, 1, 1280, 256], "dtype": "float32"}, {"name": "StatefulPartitionedCall/deeplabv3plus/global_average_pooling2d_4/Mean/reduction_indices", "shape": [2], "dtype": "int32"}, {"name": "StatefulPartitionedCall/deeplabv3plus/reshape_68/strided_slice/stack", "shape": [1], "dtype": "int32"}, {"name": "StatefulPartitionedCall/deeplabv3plus/reshape_68/strided_slice/stack_1", "shape": [1], "dtype": "int32"}, {"name": "StatefulPartitionedCall/deeplabv3plus/reshape_68/strided_slice/stack_2", "shape": [1], "dtype": "int32"}, {"name": "StatefulPartitionedCall/deeplabv3plus/reshape_68/Reshape/shape/1", "shape": [], "dtype": "int32"}, {"name": "StatefulPartitionedCall/deeplabv3plus/reshape_68/Reshape/shape/2", "shape": [], "dtype": "int32"}, {"name": "StatefulPartitionedCall/deeplabv3plus/conv1d_2/conv1d/ExpandDims/dim", "shape": [], "dtype": "int32"}, {"name": "StatefulPartitionedCall/deeplabv3plus/conv1d_2/conv1d/ExpandDims_1", "shape": [1, 5, 1, 1], "dtype": "float32"}, {"name": "StatefulPartitionedCall/deeplabv3plus/reshape_69/strided_slice/stack", "shape": [1], "dtype": "int32"}, {"name": "StatefulPartitionedCall/deeplabv3plus/reshape_69/strided_slice/stack_1", "shape": [1], "dtype": "int32"}, {"name": "StatefulPartitionedCall/deeplabv3plus/reshape_69/strided_slice/stack_2", "shape": [1], "dtype": "int32"}, {"name": "StatefulPartitionedCall/deeplabv3plus/reshape_69/Reshape/shape/1", "shape": [], "dtype": "int32"}, {"name": "StatefulPartitionedCall/deeplabv3plus/reshape_69/Reshape/shape/2", "shape": [], "dtype": "int32"}, {"name": "StatefulPartitionedCall/deeplabv3plus/reshape_69/Reshape/shape/3", "shape": [], "dtype": "int32"}, {"name": "StatefulPartitionedCall/deeplabv3plus/lambda_13/Max/reduction_indices", "shape": [], "dtype": "int32"}, {"name": "StatefulPartitionedCall/deeplabv3plus/concatenate_13/concat/axis", "shape": [], "dtype": "int32"}, {"name": "StatefulPartitionedCall/deeplabv3plus/conv2d_10/Conv2D/ReadVariableOp", "shape": [7, 7, 2, 1], "dtype": "float32"}, {"name": "StatefulPartitionedCall/deeplabv3plus/lambda_14/resize/size", "shape": [2], "dtype": "int32"}, {"name": "StatefulPartitionedCall/deeplabv3plus/lambda_15/Mean/reduction_indices", "shape": [], "dtype": "int32"}, {"name": "StatefulPartitionedCall/deeplabv3plus/expanded_conv//split2/split/split_dim", "shape": [], "dtype": "int32"}, {"name": "StatefulPartitionedCall/deeplabv3plus/expanded_conv//split0/split/split_dim", "shape": [], "dtype": "int32"}, {"name": "StatefulPartitionedCall/deeplabv3plus/Conv/HardSwish/hard_sigmoid_15/mul/y", "shape": [], "dtype": "float32"}, {"name": "StatefulPartitionedCall/deeplabv3plus/Conv/HardSwish/hard_sigmoid_15/add/y", "shape": [], "dtype": "float32"}, {"name": "StatefulPartitionedCall/deeplabv3plus/expanded_conv//concat/concat/axis", "shape": [], "dtype": "int32"}, {"name": "StatefulPartitionedCall/deeplabv3plus/expanded_conv//channelshuffle/reshape_36/strided_slice/stack", "shape": [1], "dtype": "int32"}, {"name": "StatefulPartitionedCall/deeplabv3plus/expanded_conv//channelshuffle/reshape_36/strided_slice/stack_1", "shape": [1], "dtype": "int32"}, {"name": "StatefulPartitionedCall/deeplabv3plus/expanded_conv//channelshuffle/reshape_36/strided_slice/stack_2", "shape": [1], "dtype": "int32"}, {"name": "StatefulPartitionedCall/deeplabv3plus/expanded_conv//channelshuffle/reshape_36/Reshape/shape/1", "shape": [], "dtype": "int32"}, {"name": "StatefulPartitionedCall/deeplabv3plus/expanded_conv//channelshuffle/reshape_36/Reshape/shape/2", "shape": [], "dtype": "int32"}, {"name": "StatefulPartitionedCall/deeplabv3plus/expanded_conv//channelshuffle/reshape_36/Reshape/shape/3", "shape": [], "dtype": "int32"}, {"name": "StatefulPartitionedCall/deeplabv3plus/expanded_conv//channelshuffle/reshape_36/Reshape/shape/4", "shape": [], "dtype": "int32"}, {"name": "StatefulPartitionedCall/deeplabv3plus/expanded_conv//channelshuffle/transpose/perm", "shape": [5], "dtype": "int32"}, {"name": "StatefulPartitionedCall/deeplabv3plus/expanded_conv//channelshuffle/reshape_37/strided_slice/stack", "shape": [1], "dtype": "int32"}, {"name": "StatefulPartitionedCall/deeplabv3plus/expanded_conv//channelshuffle/reshape_37/strided_slice/stack_1", "shape": [1], "dtype": "int32"}, {"name": "StatefulPartitionedCall/deeplabv3plus/expanded_conv//channelshuffle/reshape_37/strided_slice/stack_2", "shape": [1], "dtype": "int32"}, {"name": "StatefulPartitionedCall/deeplabv3plus/expanded_conv//channelshuffle/reshape_37/Reshape/shape/1", "shape": [], "dtype": "int32"}, {"name": "StatefulPartitionedCall/deeplabv3plus/expanded_conv//channelshuffle/reshape_37/Reshape/shape/2", "shape": [], "dtype": "int32"}, {"name": "StatefulPartitionedCall/deeplabv3plus/expanded_conv//channelshuffle/reshape_37/Reshape/shape/3", "shape": [], "dtype": "int32"}, {"name": "StatefulPartitionedCall/deeplabv3plus/expanded_conv_1//concat/concat/axis", "shape": [], "dtype": "int32"}, {"name": "StatefulPartitionedCall/deeplabv3plus/expanded_conv_1//channelshuffle/reshape_38/strided_slice/stack", "shape": [1], "dtype": "int32"}, {"name": "StatefulPartitionedCall/deeplabv3plus/expanded_conv_1//channelshuffle/reshape_38/strided_slice/stack_1", "shape": [1], "dtype": "int32"}, {"name": "StatefulPartitionedCall/deeplabv3plus/expanded_conv_1//channelshuffle/reshape_38/strided_slice/stack_2", "shape": [1], "dtype": "int32"}, {"name": "StatefulPartitionedCall/deeplabv3plus/expanded_conv_1//channelshuffle/reshape_38/Reshape/shape/1", "shape": [], "dtype": "int32"}, {"name": "StatefulPartitionedCall/deeplabv3plus/expanded_conv_1//channelshuffle/reshape_38/Reshape/shape/2", "shape": [], "dtype": "int32"}, {"name": "StatefulPartitionedCall/deeplabv3plus/expanded_conv_1//channelshuffle/reshape_38/Reshape/shape/3", "shape": [], "dtype": "int32"}, {"name": "StatefulPartitionedCall/deeplabv3plus/expanded_conv_1//channelshuffle/reshape_38/Reshape/shape/4", "shape": [], "dtype": "int32"}, {"name": "StatefulPartitionedCall/deeplabv3plus/expanded_conv_1//channelshuffle/transpose/perm", "shape": [5], "dtype": "int32"}, {"name": "StatefulPartitionedCall/deeplabv3plus/expanded_conv_1//channelshuffle/reshape_39/strided_slice/stack", "shape": [1], "dtype": "int32"}, {"name": "StatefulPartitionedCall/deeplabv3plus/expanded_conv_1//channelshuffle/reshape_39/strided_slice/stack_1", "shape": [1], "dtype": "int32"}, {"name": "StatefulPartitionedCall/deeplabv3plus/expanded_conv_1//channelshuffle/reshape_39/strided_slice/stack_2", "shape": [1], "dtype": "int32"}, {"name": "StatefulPartitionedCall/deeplabv3plus/expanded_conv_1//channelshuffle/reshape_39/Reshape/shape/1", "shape": [], "dtype": "int32"}, {"name": "StatefulPartitionedCall/deeplabv3plus/expanded_conv_1//channelshuffle/reshape_39/Reshape/shape/2", "shape": [], "dtype": "int32"}, {"name": "StatefulPartitionedCall/deeplabv3plus/expanded_conv_1//channelshuffle/reshape_39/Reshape/shape/3", "shape": [], "dtype": "int32"}, {"name": "StatefulPartitionedCall/deeplabv3plus/expanded_conv_2//concat/concat/axis", "shape": [], "dtype": "int32"}, {"name": "StatefulPartitionedCall/deeplabv3plus/expanded_conv_2//channelshuffle/reshape_40/strided_slice/stack", "shape": [1], "dtype": "int32"}, {"name": "StatefulPartitionedCall/deeplabv3plus/expanded_conv_2//channelshuffle/reshape_40/strided_slice/stack_1", "shape": [1], "dtype": "int32"}, {"name": "StatefulPartitionedCall/deeplabv3plus/expanded_conv_2//channelshuffle/reshape_40/strided_slice/stack_2", "shape": [1], "dtype": "int32"}, {"name": "StatefulPartitionedCall/deeplabv3plus/expanded_conv_2//channelshuffle/reshape_40/Reshape/shape/1", "shape": [], "dtype": "int32"}, {"name": "StatefulPartitionedCall/deeplabv3plus/expanded_conv_2//channelshuffle/reshape_40/Reshape/shape/2", "shape": [], "dtype": "int32"}, {"name": "StatefulPartitionedCall/deeplabv3plus/expanded_conv_2//channelshuffle/reshape_40/Reshape/shape/3", "shape": [], "dtype": "int32"}, {"name": "StatefulPartitionedCall/deeplabv3plus/expanded_conv_2//channelshuffle/reshape_40/Reshape/shape/4", "shape": [], "dtype": "int32"}, {"name": "StatefulPartitionedCall/deeplabv3plus/expanded_conv_2//channelshuffle/transpose/perm", "shape": [5], "dtype": "int32"}, {"name": "StatefulPartitionedCall/deeplabv3plus/expanded_conv_2//channelshuffle/reshape_41/strided_slice/stack", "shape": [1], "dtype": "int32"}, {"name": "StatefulPartitionedCall/deeplabv3plus/expanded_conv_2//channelshuffle/reshape_41/strided_slice/stack_1", "shape": [1], "dtype": "int32"}, {"name": "StatefulPartitionedCall/deeplabv3plus/expanded_conv_2//channelshuffle/reshape_41/strided_slice/stack_2", "shape": [1], "dtype": "int32"}, {"name": "StatefulPartitionedCall/deeplabv3plus/expanded_conv_2//channelshuffle/reshape_41/Reshape/shape/1", "shape": [], "dtype": "int32"}, {"name": "StatefulPartitionedCall/deeplabv3plus/expanded_conv_2//channelshuffle/reshape_41/Reshape/shape/2", "shape": [], "dtype": "int32"}, {"name": "StatefulPartitionedCall/deeplabv3plus/expanded_conv_2//channelshuffle/reshape_41/Reshape/shape/3", "shape": [], "dtype": "int32"}, {"name": "StatefulPartitionedCall/deeplabv3plus/feature_projection0/Conv2D/ReadVariableOp", "shape": [1, 1, 48, 48], "dtype": "float32"}, {"name": "StatefulPartitionedCall/deeplabv3plus/global_average_pooling2d_5/Mean/reduction_indices", "shape": [2], "dtype": "int32"}, {"name": "StatefulPartitionedCall/deeplabv3plus/reshape_70/strided_slice/stack", "shape": [1], "dtype": "int32"}, {"name": "StatefulPartitionedCall/deeplabv3plus/reshape_70/strided_slice/stack_1", "shape": [1], "dtype": "int32"}, {"name": "StatefulPartitionedCall/deeplabv3plus/reshape_70/strided_slice/stack_2", "shape": [1], "dtype": "int32"}, {"name": "StatefulPartitionedCall/deeplabv3plus/reshape_70/Reshape/shape/1", "shape": [], "dtype": "int32"}, {"name": "StatefulPartitionedCall/deeplabv3plus/reshape_70/Reshape/shape/2", "shape": [], "dtype": "int32"}, {"name": "StatefulPartitionedCall/deeplabv3plus/conv1d_3/conv1d/ExpandDims/dim", "shape": [], "dtype": "int32"}, {"name": "StatefulPartitionedCall/deeplabv3plus/conv1d_3/conv1d/ExpandDims_1", "shape": [1, 3, 1, 1], "dtype": "float32"}, {"name": "StatefulPartitionedCall/deeplabv3plus/reshape_71/strided_slice/stack", "shape": [1], "dtype": "int32"}, {"name": "StatefulPartitionedCall/deeplabv3plus/reshape_71/strided_slice/stack_1", "shape": [1], "dtype": "int32"}, {"name": "StatefulPartitionedCall/deeplabv3plus/reshape_71/strided_slice/stack_2", "shape": [1], "dtype": "int32"}, {"name": "StatefulPartitionedCall/deeplabv3plus/reshape_71/Reshape/shape/1", "shape": [], "dtype": "int32"}, {"name": "StatefulPartitionedCall/deeplabv3plus/reshape_71/Reshape/shape/2", "shape": [], "dtype": "int32"}, {"name": "StatefulPartitionedCall/deeplabv3plus/reshape_71/Reshape/shape/3", "shape": [], "dtype": "int32"}, {"name": "StatefulPartitionedCall/deeplabv3plus/lambda_16/Max/reduction_indices", "shape": [], "dtype": "int32"}, {"name": "StatefulPartitionedCall/deeplabv3plus/concatenate_14/concat/axis", "shape": [], "dtype": "int32"}, {"name": "StatefulPartitionedCall/deeplabv3plus/conv2d_11/Conv2D/ReadVariableOp", "shape": [7, 7, 2, 1], "dtype": "float32"}, {"name": "StatefulPartitionedCall/deeplabv3plus/concatenate_15/concat/axis", "shape": [], "dtype": "int32"}, {"name": "StatefulPartitionedCall/deeplabv3plus/conv2d_12/Conv2D/ReadVariableOp", "shape": [3, 3, 256, 256], "dtype": "float32"}, {"name": "StatefulPartitionedCall/deeplabv3plus/conv2d_12/BiasAdd/ReadVariableOp", "shape": [256], "dtype": "float32"}, {"name": "StatefulPartitionedCall/deeplabv3plus/lambda_17/resize/size", "shape": [2], "dtype": "int32"}, {"name": "StatefulPartitionedCall/deeplabv3plus/conv2d_13/Conv2D/ReadVariableOp", "shape": [1, 1, 256, 2], "dtype": "float32"}, {"name": "StatefulPartitionedCall/deeplabv3plus/conv2d_13/BiasAdd/ReadVariableOp", "shape": [2], "dtype": "float32"}, {"name": "StatefulPartitionedCall/deeplabv3plus/Conv/Conv2D_weights", "shape": [3, 3, 3, 16], "dtype": "float32"}, {"name": "StatefulPartitionedCall/deeplabv3plus/Conv/Conv2D_bn_offset", "shape": [16], "dtype": "float32"}, {"name": "StatefulPartitionedCall/deeplabv3plus/expanded_conv/depthwise/depthwise_weights", "shape": [3, 3, 8, 1], "dtype": "float32"}, {"name": "StatefulPartitionedCall/deeplabv3plus/expanded_conv/depthwise/depthwise_bn_offset", "shape": [8], "dtype": "float32"}, {"name": "StatefulPartitionedCall/deeplabv3plus/expanded_conv/project/Conv2D_weights", "shape": [1, 1, 8, 16], "dtype": "float32"}, {"name": "StatefulPartitionedCall/deeplabv3plus/expanded_conv/project/Conv2D_bn_offset", "shape": [16], "dtype": "float32"}, {"name": "StatefulPartitionedCall/deeplabv3plus/depthwise_conv2d_3/depthwise_weights", "shape": [3, 3, 24, 1], "dtype": "float32"}, {"name": "StatefulPartitionedCall/deeplabv3plus/depthwise_conv2d_3/depthwise_bn_offset", "shape": [24], "dtype": "float32"}, {"name": "StatefulPartitionedCall/deeplabv3plus/expanded_conv_1/expand/Conv2D_weights", "shape": [1, 1, 24, 64], "dtype": "float32"}, {"name": "StatefulPartitionedCall/deeplabv3plus/expanded_conv_1/expand/Conv2D_bn_offset", "shape": [64], "dtype": "float32"}, {"name": "StatefulPartitionedCall/deeplabv3plus/conv2d_7/Conv2D_weights", "shape": [3, 3, 24, 16], "dtype": "float32"}, {"name": "StatefulPartitionedCall/deeplabv3plus/conv2d_7/Conv2D_bn_offset", "shape": [16], "dtype": "float32"}, {"name": "StatefulPartitionedCall/deeplabv3plus/expanded_conv_1/depthwise/depthwise_weights", "shape": [3, 3, 64, 1], "dtype": "float32"}, {"name": "StatefulPartitionedCall/deeplabv3plus/expanded_conv_1/depthwise/depthwise_bn_offset", "shape": [64], "dtype": "float32"}, {"name": "StatefulPartitionedCall/deeplabv3plus/expanded_conv_1/project/Conv2D_weights", "shape": [1, 1, 64, 16], "dtype": "float32"}, {"name": "StatefulPartitionedCall/deeplabv3plus/expanded_conv_1/project/Conv2D_bn_offset", "shape": [16], "dtype": "float32"}, {"name": "StatefulPartitionedCall/deeplabv3plus/expanded_conv_2/expand/Conv2D_weights", "shape": [1, 1, 16, 72], "dtype": "float32"}, {"name": "StatefulPartitionedCall/deeplabv3plus/expanded_conv_2/expand/Conv2D_bn_offset", "shape": [72], "dtype": "float32"}, {"name": "StatefulPartitionedCall/deeplabv3plus/expanded_conv_2/depthwise/depthwise_weights", "shape": [3, 3, 72, 1], "dtype": "float32"}, {"name": "StatefulPartitionedCall/deeplabv3plus/expanded_conv_2/depthwise/depthwise_bn_offset", "shape": [72], "dtype": "float32"}, {"name": "StatefulPartitionedCall/deeplabv3plus/expanded_conv_2/project/Conv2D_weights", "shape": [1, 1, 72, 32], "dtype": "float32"}, {"name": "StatefulPartitionedCall/deeplabv3plus/expanded_conv_2/project/Conv2D_bn_offset", "shape": [32], "dtype": "float32"}, {"name": "StatefulPartitionedCall/deeplabv3plus/depthwise_conv2d_4/depthwise_weights", "shape": [5, 5, 48, 1], "dtype": "float32"}, {"name": "StatefulPartitionedCall/deeplabv3plus/depthwise_conv2d_4/depthwise_bn_offset", "shape": [48], "dtype": "float32"}, {"name": "StatefulPartitionedCall/deeplabv3plus/expanded_conv_3/expand/Conv2D_weights", "shape": [1, 1, 48, 120], "dtype": "float32"}, {"name": "StatefulPartitionedCall/deeplabv3plus/expanded_conv_3/expand/Conv2D_bn_offset", "shape": [120], "dtype": "float32"}, {"name": "StatefulPartitionedCall/deeplabv3plus/conv2d_8/Conv2D_weights", "shape": [5, 5, 48, 32], "dtype": "float32"}, {"name": "StatefulPartitionedCall/deeplabv3plus/conv2d_8/Conv2D_bn_offset", "shape": [32], "dtype": "float32"}, {"name": "StatefulPartitionedCall/deeplabv3plus/expanded_conv_3/depthwise/depthwise_weights", "shape": [5, 5, 120, 1], "dtype": "float32"}, {"name": "StatefulPartitionedCall/deeplabv3plus/expanded_conv_3/depthwise/depthwise_bn_offset", "shape": [120], "dtype": "float32"}, {"name": "StatefulPartitionedCall/deeplabv3plus/expanded_conv_3/project/Conv2D_weights", "shape": [1, 1, 120, 32], "dtype": "float32"}, {"name": "StatefulPartitionedCall/deeplabv3plus/expanded_conv_3/project/Conv2D_bn_offset", "shape": [32], "dtype": "float32"}, {"name": "StatefulPartitionedCall/deeplabv3plus/expanded_conv_4/expand/Conv2D_weights", "shape": [1, 1, 32, 120], "dtype": "float32"}, {"name": "StatefulPartitionedCall/deeplabv3plus/expanded_conv_4/expand/Conv2D_bn_offset", "shape": [120], "dtype": "float32"}, {"name": "StatefulPartitionedCall/deeplabv3plus/decoder_conv0_depthwise/depthwise_weights", "shape": [3, 3, 304, 1], "dtype": "float32"}, {"name": "StatefulPartitionedCall/deeplabv3plus/expanded_conv_4/depthwise/depthwise_weights", "shape": [5, 5, 120, 1], "dtype": "float32"}, {"name": "StatefulPartitionedCall/deeplabv3plus/expanded_conv_4/depthwise/depthwise_bn_offset", "shape": [120], "dtype": "float32"}, {"name": "StatefulPartitionedCall/deeplabv3plus/decoder_conv0_depthwise/depthwise_bn_offset", "shape": [304], "dtype": "float32"}, {"name": "StatefulPartitionedCall/deeplabv3plus/expanded_conv_4/project/Conv2D_weights", "shape": [1, 1, 120, 64], "dtype": "float32"}, {"name": "StatefulPartitionedCall/deeplabv3plus/expanded_conv_4/project/Conv2D_bn_offset", "shape": [64], "dtype": "float32"}, {"name": "StatefulPartitionedCall/deeplabv3plus/decoder_conv0_pointwise/Conv2D_weights", "shape": [1, 1, 304, 256], "dtype": "float32"}, {"name": "StatefulPartitionedCall/deeplabv3plus/expanded_conv_5/expand/Conv2D_weights", "shape": [1, 1, 48, 200], "dtype": "float32"}, {"name": "StatefulPartitionedCall/deeplabv3plus/expanded_conv_5/expand/Conv2D_bn_offset", "shape": [200], "dtype": "float32"}, {"name": "StatefulPartitionedCall/deeplabv3plus/decoder_conv0_pointwise/Conv2D_bn_offset", "shape": [256], "dtype": "float32"}, {"name": "StatefulPartitionedCall/deeplabv3plus/expanded_conv_5/depthwise/depthwise_weights", "shape": [5, 5, 200, 1], "dtype": "float32"}, {"name": "StatefulPartitionedCall/deeplabv3plus/expanded_conv_5/depthwise/depthwise_bn_offset", "shape": [200], "dtype": "float32"}, {"name": "StatefulPartitionedCall/deeplabv3plus/decoder_conv1_depthwise/depthwise_weights", "shape": [3, 3, 256, 1], "dtype": "float32"}, {"name": "StatefulPartitionedCall/deeplabv3plus/expanded_conv_5/project/Conv2D_weights", "shape": [1, 1, 200, 64], "dtype": "float32"}, {"name": "StatefulPartitionedCall/deeplabv3plus/expanded_conv_5/project/Conv2D_bn_offset", "shape": [64], "dtype": "float32"}, {"name": "StatefulPartitionedCall/deeplabv3plus/decoder_conv1_depthwise/depthwise_bn_offset", "shape": [256], "dtype": "float32"}, {"name": "StatefulPartitionedCall/deeplabv3plus/depthwise_conv2d_5/depthwise_weights", "shape": [3, 3, 112, 1], "dtype": "float32"}, {"name": "StatefulPartitionedCall/deeplabv3plus/depthwise_conv2d_5/depthwise_bn_offset", "shape": [112], "dtype": "float32"}, {"name": "StatefulPartitionedCall/deeplabv3plus/expanded_conv_6/expand/Conv2D_weights", "shape": [1, 1, 112, 184], "dtype": "float32"}, {"name": "StatefulPartitionedCall/deeplabv3plus/expanded_conv_6/expand/Conv2D_bn_offset", "shape": [184], "dtype": "float32"}, {"name": "StatefulPartitionedCall/deeplabv3plus/conv2d_9/Conv2D_weights", "shape": [3, 3, 112, 64], "dtype": "float32"}, {"name": "StatefulPartitionedCall/deeplabv3plus/conv2d_9/Conv2D_bn_offset", "shape": [64], "dtype": "float32"}, {"name": "StatefulPartitionedCall/deeplabv3plus/decoder_conv1_pointwise/Conv2D_weights", "shape": [1, 1, 256, 256], "dtype": "float32"}, {"name": "StatefulPartitionedCall/deeplabv3plus/expanded_conv_6/depthwise/depthwise_weights", "shape": [3, 3, 184, 1], "dtype": "float32"}, {"name": "StatefulPartitionedCall/deeplabv3plus/expanded_conv_6/depthwise/depthwise_bn_offset", "shape": [184], "dtype": "float32"}, {"name": "StatefulPartitionedCall/deeplabv3plus/expanded_conv_6/project/Conv2D_weights", "shape": [1, 1, 184, 64], "dtype": "float32"}, {"name": "StatefulPartitionedCall/deeplabv3plus/feature_projection0_BN/FusedBatchNormV3/Scaled", "shape": [48], "dtype": "float32"}, {"name": "StatefulPartitionedCall/deeplabv3plus/expanded_conv_6/project/Conv2D_bn_offset", "shape": [64], "dtype": "float32"}, {"name": "StatefulPartitionedCall/deeplabv3plus/decoder_conv1_pointwise/Conv2D_bn_offset", "shape": [256], "dtype": "float32"}, {"name": "StatefulPartitionedCall/deeplabv3plus/expanded_conv_7/expand/Conv2D_weights", "shape": [1, 1, 64, 480], "dtype": "float32"}, {"name": "StatefulPartitionedCall/deeplabv3plus/expanded_conv_7/expand/Conv2D_bn_offset", "shape": [480], "dtype": "float32"}, {"name": "StatefulPartitionedCall/deeplabv3plus/expanded_conv_7/depthwise/depthwise_weights", "shape": [3, 3, 480, 1], "dtype": "float32"}, {"name": "StatefulPartitionedCall/deeplabv3plus/expanded_conv_7/depthwise/depthwise_bn_offset", "shape": [480], "dtype": "float32"}, {"name": "StatefulPartitionedCall/deeplabv3plus/expanded_conv_7/project/Conv2D_weights", "shape": [1, 1, 480, 128], "dtype": "float32"}, {"name": "StatefulPartitionedCall/deeplabv3plus/expanded_conv_7/project/Conv2D_bn_offset", "shape": [128], "dtype": "float32"}, {"name": "StatefulPartitionedCall/deeplabv3plus/expanded_conv_8/expand/Conv2D_weights", "shape": [1, 1, 96, 480], "dtype": "float32"}, {"name": "StatefulPartitionedCall/deeplabv3plus/expanded_conv_8/expand/Conv2D_bn_offset", "shape": [480], "dtype": "float32"}, {"name": "StatefulPartitionedCall/deeplabv3plus/expanded_conv_8/depthwise/depthwise_weights", "shape": [3, 3, 480, 1], "dtype": "float32"}, {"name": "StatefulPartitionedCall/deeplabv3plus/expanded_conv_8/depthwise/depthwise_bn_offset", "shape": [480], "dtype": "float32"}, {"name": "StatefulPartitionedCall/deeplabv3plus/expanded_conv_8/project/Conv2D_weights", "shape": [1, 1, 480, 128], "dtype": "float32"}, {"name": "StatefulPartitionedCall/deeplabv3plus/expanded_conv_8/project/Conv2D_bn_offset", "shape": [128], "dtype": "float32"}, {"name": "StatefulPartitionedCall/deeplabv3plus/feature_projection0_BN/FusedBatchNormV3/Offset", "shape": [48], "dtype": "float32"}, {"name": "StatefulPartitionedCall/deeplabv3plus/expanded_conv_9/expand/Conv2D_weights", "shape": [1, 1, 112, 480], "dtype": "float32"}, {"name": "StatefulPartitionedCall/deeplabv3plus/expanded_conv_9/expand/Conv2D_bn_offset", "shape": [480], "dtype": "float32"}, {"name": "StatefulPartitionedCall/deeplabv3plus/expanded_conv_9/depthwise/depthwise_weights", "shape": [3, 3, 480, 1], "dtype": "float32"}, {"name": "StatefulPartitionedCall/deeplabv3plus/expanded_conv_9/depthwise/depthwise_bn_offset", "shape": [480], "dtype": "float32"}, {"name": "StatefulPartitionedCall/deeplabv3plus/expanded_conv_9/project/Conv2D_weights", "shape": [1, 1, 480, 128], "dtype": "float32"}, {"name": "StatefulPartitionedCall/deeplabv3plus/expanded_conv_9/project/Conv2D_bn_offset", "shape": [128], "dtype": "float32"}, {"name": "StatefulPartitionedCall/deeplabv3plus/expanded_conv_10/expand/Conv2D_weights", "shape": [1, 1, 120, 672], "dtype": "float32"}, {"name": "StatefulPartitionedCall/deeplabv3plus/expanded_conv_10/expand/Conv2D_bn_offset", "shape": [672], "dtype": "float32"}, {"name": "StatefulPartitionedCall/deeplabv3plus/expanded_conv_10/depthwise/depthwise_weights", "shape": [3, 3, 672, 1], "dtype": "float32"}, {"name": "StatefulPartitionedCall/deeplabv3plus/expanded_conv_10/depthwise/depthwise_bn_offset", "shape": [672], "dtype": "float32"}, {"name": "StatefulPartitionedCall/deeplabv3plus/concat_projection_BN/FusedBatchNormV3/Scaled", "shape": [256], "dtype": "float32"}, {"name": "StatefulPartitionedCall/deeplabv3plus/expanded_conv_10/project/Conv2D_weights", "shape": [1, 1, 672, 128], "dtype": "float32"}, {"name": "StatefulPartitionedCall/deeplabv3plus/expanded_conv_10/project/Conv2D_bn_offset", "shape": [128], "dtype": "float32"}, {"name": "StatefulPartitionedCall/deeplabv3plus/concat_projection_BN/FusedBatchNormV3/Offset", "shape": [256], "dtype": "float32"}, {"name": "StatefulPartitionedCall/deeplabv3plus/expanded_conv_11/expand/Conv2D_weights", "shape": [1, 1, 124, 672], "dtype": "float32"}, {"name": "StatefulPartitionedCall/deeplabv3plus/expanded_conv_11/expand/Conv2D_bn_offset", "shape": [672], "dtype": "float32"}, {"name": "StatefulPartitionedCall/deeplabv3plus/expanded_conv_11/depthwise/depthwise_weights", "shape": [3, 3, 672, 1], "dtype": "float32"}, {"name": "StatefulPartitionedCall/deeplabv3plus/expanded_conv_11/depthwise/depthwise_bn_offset", "shape": [672], "dtype": "float32"}, {"name": "StatefulPartitionedCall/deeplabv3plus/aspp3_depthwise_BN/FusedBatchNormV3/Scaled", "shape": [1022], "dtype": "float32"}, {"name": "StatefulPartitionedCall/deeplabv3plus/expanded_conv_11/project/Conv2D_weights", "shape": [1, 1, 672, 128], "dtype": "float32"}, {"name": "StatefulPartitionedCall/deeplabv3plus/expanded_conv_11/project/Conv2D_bn_offset", "shape": [128], "dtype": "float32"}, {"name": "StatefulPartitionedCall/deeplabv3plus/expanded_conv_12/expand/Conv2D_weights", "shape": [1, 1, 126, 672], "dtype": "float32"}, {"name": "StatefulPartitionedCall/deeplabv3plus/aspp3_depthwise_BN/FusedBatchNormV3/Offset", "shape": [1022], "dtype": "float32"}, {"name": "StatefulPartitionedCall/deeplabv3plus/expanded_conv_12/expand/Conv2D_bn_offset", "shape": [672], "dtype": "float32"}, {"name": "StatefulPartitionedCall/deeplabv3plus/expanded_conv_12/depthwise/depthwise_weights", "shape": [3, 3, 672, 1], "dtype": "float32"}, {"name": "StatefulPartitionedCall/deeplabv3plus/expanded_conv_12/depthwise/depthwise_bn_offset", "shape": [672], "dtype": "float32"}, {"name": "StatefulPartitionedCall/deeplabv3plus/expanded_conv_12/project/Conv2D_weights", "shape": [1, 1, 672, 128], "dtype": "float32"}, {"name": "StatefulPartitionedCall/deeplabv3plus/aspp2_depthwise_BN/FusedBatchNormV3/Scaled", "shape": [766], "dtype": "float32"}, {"name": "StatefulPartitionedCall/deeplabv3plus/expanded_conv_12/project/Conv2D_bn_offset", "shape": [128], "dtype": "float32"}, {"name": "StatefulPartitionedCall/deeplabv3plus/aspp0/Conv2D_weights", "shape": [1, 1, 254, 256], "dtype": "float32"}, {"name": "StatefulPartitionedCall/deeplabv3plus/aspp0/Conv2D_bn_offset", "shape": [256], "dtype": "float32"}, {"name": "StatefulPartitionedCall/deeplabv3plus/aspp2_depthwise_BN/FusedBatchNormV3/Offset", "shape": [766], "dtype": "float32"}, {"name": "StatefulPartitionedCall/deeplabv3plus/aspp1_pointwise/Conv2D_weights", "shape": [1, 1, 510, 256], "dtype": "float32"}, {"name": "StatefulPartitionedCall/deeplabv3plus/aspp1_pointwise/Conv2D_bn_offset", "shape": [256], "dtype": "float32"}, {"name": "StatefulPartitionedCall/deeplabv3plus/aspp2_pointwise/Conv2D_weights", "shape": [1, 1, 766, 256], "dtype": "float32"}, {"name": "StatefulPartitionedCall/deeplabv3plus/aspp2_pointwise/Conv2D_bn_offset", "shape": [256], "dtype": "float32"}, {"name": "StatefulPartitionedCall/deeplabv3plus/aspp1_depthwise_BN/FusedBatchNormV3/Scaled", "shape": [510], "dtype": "float32"}, {"name": "StatefulPartitionedCall/deeplabv3plus/aspp3_pointwise/Conv2D_weights", "shape": [1, 1, 1022, 256], "dtype": "float32"}, {"name": "StatefulPartitionedCall/deeplabv3plus/aspp3_pointwise/Conv2D_bn_offset", "shape": [256], "dtype": "float32"}, {"name": "StatefulPartitionedCall/deeplabv3plus/image_pooling/Conv2D_weights", "shape": [1, 1, 1278, 256], "dtype": "float32"}, {"name": "StatefulPartitionedCall/deeplabv3plus/aspp1_depthwise_BN/FusedBatchNormV3/Offset", "shape": [510], "dtype": "float32"}, {"name": "StatefulPartitionedCall/deeplabv3plus/image_pooling/Conv2D_bn_offset", "shape": [256], "dtype": "float32"}]}]}